{"class_name": "Model", "keras_version": "2.1.5", "config": {"layers": [{"class_name": "InputLayer", "config": {"dtype": "float32", "batch_input_shape": [null, 2000, 4], "name": "input_part", "sparse": false}, "inbound_nodes": [], "name": "input_part"}, {"class_name": "Conv1D", "config": {"kernel_constraint": null, "kernel_initializer": {"class_name": "VarianceScaling", "config": {"distribution": "uniform", "scale": 1.0, "seed": null, "mode": "fan_avg"}}, "name": "conv_0_pretrained_frozen", "bias_regularizer": null, "bias_constraint": null, "activation": "linear", "trainable": false, "padding": "same", "strides": [1], "dilation_rate": [1], "kernel_regularizer": null, "filters": 256, "bias_initializer": {"class_name": "Zeros", "config": {}}, "use_bias": true, "activity_regularizer": null, "kernel_size": [6]}, "inbound_nodes": [[["input_part", 0, 0, {}]]], "name": "conv_0_pretrained_frozen"}, {"class_name": "BatchNormalization", "config": {"beta_constraint": null, "gamma_initializer": {"class_name": "Ones", "config": {}}, "moving_mean_initializer": {"class_name": "Zeros", "config": {}}, "name": "batch_normalization_1", "epsilon": 0.001, "trainable": true, "moving_variance_initializer": {"class_name": "Ones", "config": {}}, "beta_initializer": {"class_name": "Zeros", "config": {}}, "scale": true, "axis": -1, "gamma_constraint": null, "gamma_regularizer": null, "beta_regularizer": null, "momentum": 0.99, "center": true}, "inbound_nodes": [[["conv_0_pretrained_frozen", 0, 0, {}]]], "name": "batch_normalization_1"}, {"class_name": "Activation", "config": {"activation": "relu", "trainable": true, "name": "activation_1"}, "inbound_nodes": [[["batch_normalization_1", 0, 0, {}]]], "name": "activation_1"}, {"class_name": "Permute", "config": {"dims": [2, 1], "trainable": true, "name": "permute_1"}, "inbound_nodes": [[["activation_1", 0, 0, {}]]], "name": "permute_1"}, {"class_name": "Conv1D", "config": {"kernel_constraint": null, "kernel_initializer": {"class_name": "VarianceScaling", "config": {"distribution": "uniform", "scale": 1.0, "seed": null, "mode": "fan_avg"}}, "name": "conv_0", "bias_regularizer": null, "bias_constraint": null, "activation": "linear", "trainable": true, "padding": "same", "strides": [1], "dilation_rate": [1], "kernel_regularizer": null, "filters": 32, "bias_initializer": {"class_name": "Zeros", "config": {}}, "use_bias": true, "activity_regularizer": null, "kernel_size": [16]}, "inbound_nodes": [[["input_part", 0, 0, {}]]], "name": "conv_0"}, {"class_name": "MaxPooling1D", "config": {"padding": "same", "strides": [256], "trainable": true, "name": "max_pooling1d_1", "pool_size": [256]}, "inbound_nodes": [[["permute_1", 0, 0, {}]]], "name": "max_pooling1d_1"}, {"class_name": "BatchNormalization", "config": {"beta_constraint": null, "gamma_initializer": {"class_name": "Ones", "config": {}}, "moving_mean_initializer": {"class_name": "Zeros", "config": {}}, "name": "batch_normalization_2", "epsilon": 0.001, "trainable": true, "moving_variance_initializer": {"class_name": "Ones", "config": {}}, "beta_initializer": {"class_name": "Zeros", "config": {}}, "scale": true, "axis": -1, "gamma_constraint": null, "gamma_regularizer": null, "beta_regularizer": null, "momentum": 0.99, "center": true}, "inbound_nodes": [[["conv_0", 0, 0, {}]]], "name": "batch_normalization_2"}, {"class_name": "Permute", "config": {"dims": [2, 1], "trainable": true, "name": "permute_2"}, "inbound_nodes": [[["max_pooling1d_1", 0, 0, {}]]], "name": "permute_2"}, {"class_name": "Activation", "config": {"activation": "relu", "trainable": true, "name": "activation_2"}, "inbound_nodes": [[["batch_normalization_2", 0, 0, {}]]], "name": "activation_2"}, {"class_name": "Concatenate", "config": {"trainable": true, "name": "concatenate_1", "axis": -1}, "inbound_nodes": [[["permute_2", 0, 0, {}], ["activation_2", 0, 0, {}]]], "name": "concatenate_1"}, {"class_name": "Conv1D", "config": {"kernel_constraint": null, "kernel_initializer": {"class_name": "VarianceScaling", "config": {"distribution": "uniform", "scale": 1.0, "seed": null, "mode": "fan_avg"}}, "name": "dilated_conv_1_tanh_s0", "bias_regularizer": null, "bias_constraint": null, "activation": "tanh", "trainable": true, "padding": "same", "strides": [1], "dilation_rate": [1], "kernel_regularizer": {"class_name": "L1L2", "config": {"l2": 1.0009706784330774e-05, "l1": 0.0}}, "filters": 33, "bias_initializer": {"class_name": "Zeros", "config": {}}, "use_bias": false, "activity_regularizer": null, "kernel_size": [2]}, "inbound_nodes": [[["concatenate_1", 0, 0, {}]]], "name": "dilated_conv_1_tanh_s0"}, {"class_name": "Conv1D", "config": {"kernel_constraint": null, "kernel_initializer": {"class_name": "VarianceScaling", "config": {"distribution": "uniform", "scale": 1.0, "seed": null, "mode": "fan_avg"}}, "name": "dilated_conv_1_sigm_s0", "bias_regularizer": null, "bias_constraint": null, "activation": "sigmoid", "trainable": true, "padding": "same", "strides": [1], "dilation_rate": [1], "kernel_regularizer": {"class_name": "L1L2", "config": {"l2": 1.0009706784330774e-05, "l1": 0.0}}, "filters": 33, "bias_initializer": {"class_name": "Zeros", "config": {}}, "use_bias": false, "activity_regularizer": null, "kernel_size": [2]}, "inbound_nodes": [[["concatenate_1", 0, 0, {}]]], "name": "dilated_conv_1_sigm_s0"}, {"class_name": "Multiply", "config": {"trainable": true, "name": "gated_activation_0_s0"}, "inbound_nodes": [[["dilated_conv_1_tanh_s0", 0, 0, {}], ["dilated_conv_1_sigm_s0", 0, 0, {}]]], "name": "gated_activation_0_s0"}, {"class_name": "Conv1D", "config": {"kernel_constraint": null, "kernel_initializer": {"class_name": "VarianceScaling", "config": {"distribution": "uniform", "scale": 1.0, "seed": null, "mode": "fan_avg"}}, "name": "conv1d_1", "bias_regularizer": null, "bias_constraint": null, "activation": "linear", "trainable": true, "padding": "same", "strides": [1], "dilation_rate": [1], "kernel_regularizer": {"class_name": "L1L2", "config": {"l2": 1.0009706784330774e-05, "l1": 0.0}}, "filters": 33, "bias_initializer": {"class_name": "Zeros", "config": {}}, "use_bias": false, "activity_regularizer": null, "kernel_size": [1]}, "inbound_nodes": [[["gated_activation_0_s0", 0, 0, {}]]], "name": "conv1d_1"}, {"class_name": "Add", "config": {"trainable": true, "name": "add_1"}, "inbound_nodes": [[["concatenate_1", 0, 0, {}], ["conv1d_1", 0, 0, {}]]], "name": "add_1"}, {"class_name": "Dropout", "config": {"rate": 0.0193813528635, "noise_shape": null, "trainable": true, "seed": null, "name": "dropout_1"}, "inbound_nodes": [[["add_1", 0, 0, {}]]], "name": "dropout_1"}, {"class_name": "Conv1D", "config": {"kernel_constraint": null, "kernel_initializer": {"class_name": "VarianceScaling", "config": {"distribution": "uniform", "scale": 1.0, "seed": null, "mode": "fan_avg"}}, "name": "dilated_conv_2_tanh_s0", "bias_regularizer": null, "bias_constraint": null, "activation": "tanh", "trainable": true, "padding": "same", "strides": [1], "dilation_rate": [2], "kernel_regularizer": {"class_name": "L1L2", "config": {"l2": 1.0009706784330774e-05, "l1": 0.0}}, "filters": 33, "bias_initializer": {"class_name": "Zeros", "config": {}}, "use_bias": false, "activity_regularizer": null, "kernel_size": [2]}, "inbound_nodes": [[["dropout_1", 0, 0, {}]]], "name": "dilated_conv_2_tanh_s0"}, {"class_name": "Conv1D", "config": {"kernel_constraint": null, "kernel_initializer": {"class_name": "VarianceScaling", "config": {"distribution": "uniform", "scale": 1.0, "seed": null, "mode": "fan_avg"}}, "name": "dilated_conv_2_sigm_s0", "bias_regularizer": null, "bias_constraint": null, "activation": "sigmoid", "trainable": true, "padding": "same", "strides": [1], "dilation_rate": [2], "kernel_regularizer": {"class_name": "L1L2", "config": {"l2": 1.0009706784330774e-05, "l1": 0.0}}, "filters": 33, "bias_initializer": {"class_name": "Zeros", "config": {}}, "use_bias": false, "activity_regularizer": null, "kernel_size": [2]}, "inbound_nodes": [[["dropout_1", 0, 0, {}]]], "name": "dilated_conv_2_sigm_s0"}, {"class_name": "Multiply", "config": {"trainable": true, "name": "gated_activation_1_s0"}, "inbound_nodes": [[["dilated_conv_2_tanh_s0", 0, 0, {}], ["dilated_conv_2_sigm_s0", 0, 0, {}]]], "name": "gated_activation_1_s0"}, {"class_name": "Conv1D", "config": {"kernel_constraint": null, "kernel_initializer": {"class_name": "VarianceScaling", "config": {"distribution": "uniform", "scale": 1.0, "seed": null, "mode": "fan_avg"}}, "name": "conv1d_3", "bias_regularizer": null, "bias_constraint": null, "activation": "linear", "trainable": true, "padding": "same", "strides": [1], "dilation_rate": [1], "kernel_regularizer": {"class_name": "L1L2", "config": {"l2": 1.0009706784330774e-05, "l1": 0.0}}, "filters": 33, "bias_initializer": {"class_name": "Zeros", "config": {}}, "use_bias": false, "activity_regularizer": null, "kernel_size": [1]}, "inbound_nodes": [[["gated_activation_1_s0", 0, 0, {}]]], "name": "conv1d_3"}, {"class_name": "Add", "config": {"trainable": true, "name": "add_2"}, "inbound_nodes": [[["dropout_1", 0, 0, {}], ["conv1d_3", 0, 0, {}]]], "name": "add_2"}, {"class_name": "Dropout", "config": {"rate": 0.0193813528635, "noise_shape": null, "trainable": true, "seed": null, "name": "dropout_2"}, "inbound_nodes": [[["add_2", 0, 0, {}]]], "name": "dropout_2"}, {"class_name": "Conv1D", "config": {"kernel_constraint": null, "kernel_initializer": {"class_name": "VarianceScaling", "config": {"distribution": "uniform", "scale": 1.0, "seed": null, "mode": "fan_avg"}}, "name": "dilated_conv_4_tanh_s0", "bias_regularizer": null, "bias_constraint": null, "activation": "tanh", "trainable": true, "padding": "same", "strides": [1], "dilation_rate": [4], "kernel_regularizer": {"class_name": "L1L2", "config": {"l2": 1.0009706784330774e-05, "l1": 0.0}}, "filters": 33, "bias_initializer": {"class_name": "Zeros", "config": {}}, "use_bias": false, "activity_regularizer": null, "kernel_size": [2]}, "inbound_nodes": [[["dropout_2", 0, 0, {}]]], "name": "dilated_conv_4_tanh_s0"}, {"class_name": "Conv1D", "config": {"kernel_constraint": null, "kernel_initializer": {"class_name": "VarianceScaling", "config": {"distribution": "uniform", "scale": 1.0, "seed": null, "mode": "fan_avg"}}, "name": "dilated_conv_4_sigm_s0", "bias_regularizer": null, "bias_constraint": null, "activation": "sigmoid", "trainable": true, "padding": "same", "strides": [1], "dilation_rate": [4], "kernel_regularizer": {"class_name": "L1L2", "config": {"l2": 1.0009706784330774e-05, "l1": 0.0}}, "filters": 33, "bias_initializer": {"class_name": "Zeros", "config": {}}, "use_bias": false, "activity_regularizer": null, "kernel_size": [2]}, "inbound_nodes": [[["dropout_2", 0, 0, {}]]], "name": "dilated_conv_4_sigm_s0"}, {"class_name": "Multiply", "config": {"trainable": true, "name": "gated_activation_2_s0"}, "inbound_nodes": [[["dilated_conv_4_tanh_s0", 0, 0, {}], ["dilated_conv_4_sigm_s0", 0, 0, {}]]], "name": "gated_activation_2_s0"}, {"class_name": "Conv1D", "config": {"kernel_constraint": null, "kernel_initializer": {"class_name": "VarianceScaling", "config": {"distribution": "uniform", "scale": 1.0, "seed": null, "mode": "fan_avg"}}, "name": "conv1d_5", "bias_regularizer": null, "bias_constraint": null, "activation": "linear", "trainable": true, "padding": "same", "strides": [1], "dilation_rate": [1], "kernel_regularizer": {"class_name": "L1L2", "config": {"l2": 1.0009706784330774e-05, "l1": 0.0}}, "filters": 33, "bias_initializer": {"class_name": "Zeros", "config": {}}, "use_bias": false, "activity_regularizer": null, "kernel_size": [1]}, "inbound_nodes": [[["gated_activation_2_s0", 0, 0, {}]]], "name": "conv1d_5"}, {"class_name": "Add", "config": {"trainable": true, "name": "add_3"}, "inbound_nodes": [[["dropout_2", 0, 0, {}], ["conv1d_5", 0, 0, {}]]], "name": "add_3"}, {"class_name": "Dropout", "config": {"rate": 0.0193813528635, "noise_shape": null, "trainable": true, "seed": null, "name": "dropout_3"}, "inbound_nodes": [[["add_3", 0, 0, {}]]], "name": "dropout_3"}, {"class_name": "Conv1D", "config": {"kernel_constraint": null, "kernel_initializer": {"class_name": "VarianceScaling", "config": {"distribution": "uniform", "scale": 1.0, "seed": null, "mode": "fan_avg"}}, "name": "dilated_conv_8_tanh_s0", "bias_regularizer": null, "bias_constraint": null, "activation": "tanh", "trainable": true, "padding": "same", "strides": [1], "dilation_rate": [8], "kernel_regularizer": {"class_name": "L1L2", "config": {"l2": 1.0009706784330774e-05, "l1": 0.0}}, "filters": 33, "bias_initializer": {"class_name": "Zeros", "config": {}}, "use_bias": false, "activity_regularizer": null, "kernel_size": [2]}, "inbound_nodes": [[["dropout_3", 0, 0, {}]]], "name": "dilated_conv_8_tanh_s0"}, {"class_name": "Conv1D", "config": {"kernel_constraint": null, "kernel_initializer": {"class_name": "VarianceScaling", "config": {"distribution": "uniform", "scale": 1.0, "seed": null, "mode": "fan_avg"}}, "name": "dilated_conv_8_sigm_s0", "bias_regularizer": null, "bias_constraint": null, "activation": "sigmoid", "trainable": true, "padding": "same", "strides": [1], "dilation_rate": [8], "kernel_regularizer": {"class_name": "L1L2", "config": {"l2": 1.0009706784330774e-05, "l1": 0.0}}, "filters": 33, "bias_initializer": {"class_name": "Zeros", "config": {}}, "use_bias": false, "activity_regularizer": null, "kernel_size": [2]}, "inbound_nodes": [[["dropout_3", 0, 0, {}]]], "name": "dilated_conv_8_sigm_s0"}, {"class_name": "Multiply", "config": {"trainable": true, "name": "gated_activation_3_s0"}, "inbound_nodes": [[["dilated_conv_8_tanh_s0", 0, 0, {}], ["dilated_conv_8_sigm_s0", 0, 0, {}]]], "name": "gated_activation_3_s0"}, {"class_name": "Conv1D", "config": {"kernel_constraint": null, "kernel_initializer": {"class_name": "VarianceScaling", "config": {"distribution": "uniform", "scale": 1.0, "seed": null, "mode": "fan_avg"}}, "name": "conv1d_7", "bias_regularizer": null, "bias_constraint": null, "activation": "linear", "trainable": true, "padding": "same", "strides": [1], "dilation_rate": [1], "kernel_regularizer": {"class_name": "L1L2", "config": {"l2": 1.0009706784330774e-05, "l1": 0.0}}, "filters": 33, "bias_initializer": {"class_name": "Zeros", "config": {}}, "use_bias": false, "activity_regularizer": null, "kernel_size": [1]}, "inbound_nodes": [[["gated_activation_3_s0", 0, 0, {}]]], "name": "conv1d_7"}, {"class_name": "Add", "config": {"trainable": true, "name": "add_4"}, "inbound_nodes": [[["dropout_3", 0, 0, {}], ["conv1d_7", 0, 0, {}]]], "name": "add_4"}, {"class_name": "Dropout", "config": {"rate": 0.0193813528635, "noise_shape": null, "trainable": true, "seed": null, "name": "dropout_4"}, "inbound_nodes": [[["add_4", 0, 0, {}]]], "name": "dropout_4"}, {"class_name": "Conv1D", "config": {"kernel_constraint": null, "kernel_initializer": {"class_name": "VarianceScaling", "config": {"distribution": "uniform", "scale": 1.0, "seed": null, "mode": "fan_avg"}}, "name": "dilated_conv_16_tanh_s0", "bias_regularizer": null, "bias_constraint": null, "activation": "tanh", "trainable": true, "padding": "same", "strides": [1], "dilation_rate": [16], "kernel_regularizer": {"class_name": "L1L2", "config": {"l2": 1.0009706784330774e-05, "l1": 0.0}}, "filters": 33, "bias_initializer": {"class_name": "Zeros", "config": {}}, "use_bias": false, "activity_regularizer": null, "kernel_size": [2]}, "inbound_nodes": [[["dropout_4", 0, 0, {}]]], "name": "dilated_conv_16_tanh_s0"}, {"class_name": "Conv1D", "config": {"kernel_constraint": null, "kernel_initializer": {"class_name": "VarianceScaling", "config": {"distribution": "uniform", "scale": 1.0, "seed": null, "mode": "fan_avg"}}, "name": "dilated_conv_16_sigm_s0", "bias_regularizer": null, "bias_constraint": null, "activation": "sigmoid", "trainable": true, "padding": "same", "strides": [1], "dilation_rate": [16], "kernel_regularizer": {"class_name": "L1L2", "config": {"l2": 1.0009706784330774e-05, "l1": 0.0}}, "filters": 33, "bias_initializer": {"class_name": "Zeros", "config": {}}, "use_bias": false, "activity_regularizer": null, "kernel_size": [2]}, "inbound_nodes": [[["dropout_4", 0, 0, {}]]], "name": "dilated_conv_16_sigm_s0"}, {"class_name": "Multiply", "config": {"trainable": true, "name": "gated_activation_4_s0"}, "inbound_nodes": [[["dilated_conv_16_tanh_s0", 0, 0, {}], ["dilated_conv_16_sigm_s0", 0, 0, {}]]], "name": "gated_activation_4_s0"}, {"class_name": "Conv1D", "config": {"kernel_constraint": null, "kernel_initializer": {"class_name": "VarianceScaling", "config": {"distribution": "uniform", "scale": 1.0, "seed": null, "mode": "fan_avg"}}, "name": "conv1d_9", "bias_regularizer": null, "bias_constraint": null, "activation": "linear", "trainable": true, "padding": "same", "strides": [1], "dilation_rate": [1], "kernel_regularizer": {"class_name": "L1L2", "config": {"l2": 1.0009706784330774e-05, "l1": 0.0}}, "filters": 33, "bias_initializer": {"class_name": "Zeros", "config": {}}, "use_bias": false, "activity_regularizer": null, "kernel_size": [1]}, "inbound_nodes": [[["gated_activation_4_s0", 0, 0, {}]]], "name": "conv1d_9"}, {"class_name": "Add", "config": {"trainable": true, "name": "add_5"}, "inbound_nodes": [[["dropout_4", 0, 0, {}], ["conv1d_9", 0, 0, {}]]], "name": "add_5"}, {"class_name": "Dropout", "config": {"rate": 0.0193813528635, "noise_shape": null, "trainable": true, "seed": null, "name": "dropout_5"}, "inbound_nodes": [[["add_5", 0, 0, {}]]], "name": "dropout_5"}, {"class_name": "Conv1D", "config": {"kernel_constraint": null, "kernel_initializer": {"class_name": "VarianceScaling", "config": {"distribution": "uniform", "scale": 1.0, "seed": null, "mode": "fan_avg"}}, "name": "dilated_conv_32_tanh_s0", "bias_regularizer": null, "bias_constraint": null, "activation": "tanh", "trainable": true, "padding": "same", "strides": [1], "dilation_rate": [32], "kernel_regularizer": {"class_name": "L1L2", "config": {"l2": 1.0009706784330774e-05, "l1": 0.0}}, "filters": 33, "bias_initializer": {"class_name": "Zeros", "config": {}}, "use_bias": false, "activity_regularizer": null, "kernel_size": [2]}, "inbound_nodes": [[["dropout_5", 0, 0, {}]]], "name": "dilated_conv_32_tanh_s0"}, {"class_name": "Conv1D", "config": {"kernel_constraint": null, "kernel_initializer": {"class_name": "VarianceScaling", "config": {"distribution": "uniform", "scale": 1.0, "seed": null, "mode": "fan_avg"}}, "name": "dilated_conv_32_sigm_s0", "bias_regularizer": null, "bias_constraint": null, "activation": "sigmoid", "trainable": true, "padding": "same", "strides": [1], "dilation_rate": [32], "kernel_regularizer": {"class_name": "L1L2", "config": {"l2": 1.0009706784330774e-05, "l1": 0.0}}, "filters": 33, "bias_initializer": {"class_name": "Zeros", "config": {}}, "use_bias": false, "activity_regularizer": null, "kernel_size": [2]}, "inbound_nodes": [[["dropout_5", 0, 0, {}]]], "name": "dilated_conv_32_sigm_s0"}, {"class_name": "Multiply", "config": {"trainable": true, "name": "gated_activation_5_s0"}, "inbound_nodes": [[["dilated_conv_32_tanh_s0", 0, 0, {}], ["dilated_conv_32_sigm_s0", 0, 0, {}]]], "name": "gated_activation_5_s0"}, {"class_name": "Conv1D", "config": {"kernel_constraint": null, "kernel_initializer": {"class_name": "VarianceScaling", "config": {"distribution": "uniform", "scale": 1.0, "seed": null, "mode": "fan_avg"}}, "name": "conv1d_11", "bias_regularizer": null, "bias_constraint": null, "activation": "linear", "trainable": true, "padding": "same", "strides": [1], "dilation_rate": [1], "kernel_regularizer": {"class_name": "L1L2", "config": {"l2": 1.0009706784330774e-05, "l1": 0.0}}, "filters": 33, "bias_initializer": {"class_name": "Zeros", "config": {}}, "use_bias": false, "activity_regularizer": null, "kernel_size": [1]}, "inbound_nodes": [[["gated_activation_5_s0", 0, 0, {}]]], "name": "conv1d_11"}, {"class_name": "Add", "config": {"trainable": true, "name": "add_6"}, "inbound_nodes": [[["dropout_5", 0, 0, {}], ["conv1d_11", 0, 0, {}]]], "name": "add_6"}, {"class_name": "Dropout", "config": {"rate": 0.0193813528635, "noise_shape": null, "trainable": true, "seed": null, "name": "dropout_6"}, "inbound_nodes": [[["add_6", 0, 0, {}]]], "name": "dropout_6"}, {"class_name": "Conv1D", "config": {"kernel_constraint": null, "kernel_initializer": {"class_name": "VarianceScaling", "config": {"distribution": "uniform", "scale": 1.0, "seed": null, "mode": "fan_avg"}}, "name": "dilated_conv_64_tanh_s0", "bias_regularizer": null, "bias_constraint": null, "activation": "tanh", "trainable": true, "padding": "same", "strides": [1], "dilation_rate": [64], "kernel_regularizer": {"class_name": "L1L2", "config": {"l2": 1.0009706784330774e-05, "l1": 0.0}}, "filters": 33, "bias_initializer": {"class_name": "Zeros", "config": {}}, "use_bias": false, "activity_regularizer": null, "kernel_size": [2]}, "inbound_nodes": [[["dropout_6", 0, 0, {}]]], "name": "dilated_conv_64_tanh_s0"}, {"class_name": "Conv1D", "config": {"kernel_constraint": null, "kernel_initializer": {"class_name": "VarianceScaling", "config": {"distribution": "uniform", "scale": 1.0, "seed": null, "mode": "fan_avg"}}, "name": "dilated_conv_64_sigm_s0", "bias_regularizer": null, "bias_constraint": null, "activation": "sigmoid", "trainable": true, "padding": "same", "strides": [1], "dilation_rate": [64], "kernel_regularizer": {"class_name": "L1L2", "config": {"l2": 1.0009706784330774e-05, "l1": 0.0}}, "filters": 33, "bias_initializer": {"class_name": "Zeros", "config": {}}, "use_bias": false, "activity_regularizer": null, "kernel_size": [2]}, "inbound_nodes": [[["dropout_6", 0, 0, {}]]], "name": "dilated_conv_64_sigm_s0"}, {"class_name": "Multiply", "config": {"trainable": true, "name": "gated_activation_6_s0"}, "inbound_nodes": [[["dilated_conv_64_tanh_s0", 0, 0, {}], ["dilated_conv_64_sigm_s0", 0, 0, {}]]], "name": "gated_activation_6_s0"}, {"class_name": "Conv1D", "config": {"kernel_constraint": null, "kernel_initializer": {"class_name": "VarianceScaling", "config": {"distribution": "uniform", "scale": 1.0, "seed": null, "mode": "fan_avg"}}, "name": "conv1d_13", "bias_regularizer": null, "bias_constraint": null, "activation": "linear", "trainable": true, "padding": "same", "strides": [1], "dilation_rate": [1], "kernel_regularizer": {"class_name": "L1L2", "config": {"l2": 1.0009706784330774e-05, "l1": 0.0}}, "filters": 33, "bias_initializer": {"class_name": "Zeros", "config": {}}, "use_bias": false, "activity_regularizer": null, "kernel_size": [1]}, "inbound_nodes": [[["gated_activation_6_s0", 0, 0, {}]]], "name": "conv1d_13"}, {"class_name": "Add", "config": {"trainable": true, "name": "add_7"}, "inbound_nodes": [[["dropout_6", 0, 0, {}], ["conv1d_13", 0, 0, {}]]], "name": "add_7"}, {"class_name": "Dropout", "config": {"rate": 0.0193813528635, "noise_shape": null, "trainable": true, "seed": null, "name": "dropout_7"}, "inbound_nodes": [[["add_7", 0, 0, {}]]], "name": "dropout_7"}, {"class_name": "Conv1D", "config": {"kernel_constraint": null, "kernel_initializer": {"class_name": "VarianceScaling", "config": {"distribution": "uniform", "scale": 1.0, "seed": null, "mode": "fan_avg"}}, "name": "dilated_conv_128_tanh_s0", "bias_regularizer": null, "bias_constraint": null, "activation": "tanh", "trainable": true, "padding": "same", "strides": [1], "dilation_rate": [128], "kernel_regularizer": {"class_name": "L1L2", "config": {"l2": 1.0009706784330774e-05, "l1": 0.0}}, "filters": 33, "bias_initializer": {"class_name": "Zeros", "config": {}}, "use_bias": false, "activity_regularizer": null, "kernel_size": [2]}, "inbound_nodes": [[["dropout_7", 0, 0, {}]]], "name": "dilated_conv_128_tanh_s0"}, {"class_name": "Conv1D", "config": {"kernel_constraint": null, "kernel_initializer": {"class_name": "VarianceScaling", "config": {"distribution": "uniform", "scale": 1.0, "seed": null, "mode": "fan_avg"}}, "name": "dilated_conv_128_sigm_s0", "bias_regularizer": null, "bias_constraint": null, "activation": "sigmoid", "trainable": true, "padding": "same", "strides": [1], "dilation_rate": [128], "kernel_regularizer": {"class_name": "L1L2", "config": {"l2": 1.0009706784330774e-05, "l1": 0.0}}, "filters": 33, "bias_initializer": {"class_name": "Zeros", "config": {}}, "use_bias": false, "activity_regularizer": null, "kernel_size": [2]}, "inbound_nodes": [[["dropout_7", 0, 0, {}]]], "name": "dilated_conv_128_sigm_s0"}, {"class_name": "Multiply", "config": {"trainable": true, "name": "gated_activation_7_s0"}, "inbound_nodes": [[["dilated_conv_128_tanh_s0", 0, 0, {}], ["dilated_conv_128_sigm_s0", 0, 0, {}]]], "name": "gated_activation_7_s0"}, {"class_name": "Conv1D", "config": {"kernel_constraint": null, "kernel_initializer": {"class_name": "VarianceScaling", "config": {"distribution": "uniform", "scale": 1.0, "seed": null, "mode": "fan_avg"}}, "name": "conv1d_15", "bias_regularizer": null, "bias_constraint": null, "activation": "linear", "trainable": true, "padding": "same", "strides": [1], "dilation_rate": [1], "kernel_regularizer": {"class_name": "L1L2", "config": {"l2": 1.0009706784330774e-05, "l1": 0.0}}, "filters": 33, "bias_initializer": {"class_name": "Zeros", "config": {}}, "use_bias": false, "activity_regularizer": null, "kernel_size": [1]}, "inbound_nodes": [[["gated_activation_7_s0", 0, 0, {}]]], "name": "conv1d_15"}, {"class_name": "Add", "config": {"trainable": true, "name": "add_8"}, "inbound_nodes": [[["dropout_7", 0, 0, {}], ["conv1d_15", 0, 0, {}]]], "name": "add_8"}, {"class_name": "Dropout", "config": {"rate": 0.0193813528635, "noise_shape": null, "trainable": true, "seed": null, "name": "dropout_8"}, "inbound_nodes": [[["add_8", 0, 0, {}]]], "name": "dropout_8"}, {"class_name": "Conv1D", "config": {"kernel_constraint": null, "kernel_initializer": {"class_name": "VarianceScaling", "config": {"distribution": "uniform", "scale": 1.0, "seed": null, "mode": "fan_avg"}}, "name": "dilated_conv_256_tanh_s0", "bias_regularizer": null, "bias_constraint": null, "activation": "tanh", "trainable": true, "padding": "same", "strides": [1], "dilation_rate": [256], "kernel_regularizer": {"class_name": "L1L2", "config": {"l2": 1.0009706784330774e-05, "l1": 0.0}}, "filters": 33, "bias_initializer": {"class_name": "Zeros", "config": {}}, "use_bias": false, "activity_regularizer": null, "kernel_size": [2]}, "inbound_nodes": [[["dropout_8", 0, 0, {}]]], "name": "dilated_conv_256_tanh_s0"}, {"class_name": "Conv1D", "config": {"kernel_constraint": null, "kernel_initializer": {"class_name": "VarianceScaling", "config": {"distribution": "uniform", "scale": 1.0, "seed": null, "mode": "fan_avg"}}, "name": "dilated_conv_256_sigm_s0", "bias_regularizer": null, "bias_constraint": null, "activation": "sigmoid", "trainable": true, "padding": "same", "strides": [1], "dilation_rate": [256], "kernel_regularizer": {"class_name": "L1L2", "config": {"l2": 1.0009706784330774e-05, "l1": 0.0}}, "filters": 33, "bias_initializer": {"class_name": "Zeros", "config": {}}, "use_bias": false, "activity_regularizer": null, "kernel_size": [2]}, "inbound_nodes": [[["dropout_8", 0, 0, {}]]], "name": "dilated_conv_256_sigm_s0"}, {"class_name": "Multiply", "config": {"trainable": true, "name": "gated_activation_8_s0"}, "inbound_nodes": [[["dilated_conv_256_tanh_s0", 0, 0, {}], ["dilated_conv_256_sigm_s0", 0, 0, {}]]], "name": "gated_activation_8_s0"}, {"class_name": "Conv1D", "config": {"kernel_constraint": null, "kernel_initializer": {"class_name": "VarianceScaling", "config": {"distribution": "uniform", "scale": 1.0, "seed": null, "mode": "fan_avg"}}, "name": "conv1d_17", "bias_regularizer": null, "bias_constraint": null, "activation": "linear", "trainable": true, "padding": "same", "strides": [1], "dilation_rate": [1], "kernel_regularizer": {"class_name": "L1L2", "config": {"l2": 1.0009706784330774e-05, "l1": 0.0}}, "filters": 33, "bias_initializer": {"class_name": "Zeros", "config": {}}, "use_bias": false, "activity_regularizer": null, "kernel_size": [1]}, "inbound_nodes": [[["gated_activation_8_s0", 0, 0, {}]]], "name": "conv1d_17"}, {"class_name": "Add", "config": {"trainable": true, "name": "add_9"}, "inbound_nodes": [[["dropout_8", 0, 0, {}], ["conv1d_17", 0, 0, {}]]], "name": "add_9"}, {"class_name": "Dropout", "config": {"rate": 0.0193813528635, "noise_shape": null, "trainable": true, "seed": null, "name": "dropout_9"}, "inbound_nodes": [[["add_9", 0, 0, {}]]], "name": "dropout_9"}, {"class_name": "Conv1D", "config": {"kernel_constraint": null, "kernel_initializer": {"class_name": "VarianceScaling", "config": {"distribution": "uniform", "scale": 1.0, "seed": null, "mode": "fan_avg"}}, "name": "dilated_conv_512_tanh_s0", "bias_regularizer": null, "bias_constraint": null, "activation": "tanh", "trainable": true, "padding": "same", "strides": [1], "dilation_rate": [512], "kernel_regularizer": {"class_name": "L1L2", "config": {"l2": 1.0009706784330774e-05, "l1": 0.0}}, "filters": 33, "bias_initializer": {"class_name": "Zeros", "config": {}}, "use_bias": false, "activity_regularizer": null, "kernel_size": [2]}, "inbound_nodes": [[["dropout_9", 0, 0, {}]]], "name": "dilated_conv_512_tanh_s0"}, {"class_name": "Conv1D", "config": {"kernel_constraint": null, "kernel_initializer": {"class_name": "VarianceScaling", "config": {"distribution": "uniform", "scale": 1.0, "seed": null, "mode": "fan_avg"}}, "name": "dilated_conv_512_sigm_s0", "bias_regularizer": null, "bias_constraint": null, "activation": "sigmoid", "trainable": true, "padding": "same", "strides": [1], "dilation_rate": [512], "kernel_regularizer": {"class_name": "L1L2", "config": {"l2": 1.0009706784330774e-05, "l1": 0.0}}, "filters": 33, "bias_initializer": {"class_name": "Zeros", "config": {}}, "use_bias": false, "activity_regularizer": null, "kernel_size": [2]}, "inbound_nodes": [[["dropout_9", 0, 0, {}]]], "name": "dilated_conv_512_sigm_s0"}, {"class_name": "Multiply", "config": {"trainable": true, "name": "gated_activation_9_s0"}, "inbound_nodes": [[["dilated_conv_512_tanh_s0", 0, 0, {}], ["dilated_conv_512_sigm_s0", 0, 0, {}]]], "name": "gated_activation_9_s0"}, {"class_name": "Conv1D", "config": {"kernel_constraint": null, "kernel_initializer": {"class_name": "VarianceScaling", "config": {"distribution": "uniform", "scale": 1.0, "seed": null, "mode": "fan_avg"}}, "name": "conv1d_19", "bias_regularizer": null, "bias_constraint": null, "activation": "linear", "trainable": true, "padding": "same", "strides": [1], "dilation_rate": [1], "kernel_regularizer": {"class_name": "L1L2", "config": {"l2": 1.0009706784330774e-05, "l1": 0.0}}, "filters": 33, "bias_initializer": {"class_name": "Zeros", "config": {}}, "use_bias": false, "activity_regularizer": null, "kernel_size": [1]}, "inbound_nodes": [[["gated_activation_9_s0", 0, 0, {}]]], "name": "conv1d_19"}, {"class_name": "Add", "config": {"trainable": true, "name": "add_10"}, "inbound_nodes": [[["dropout_9", 0, 0, {}], ["conv1d_19", 0, 0, {}]]], "name": "add_10"}, {"class_name": "Dropout", "config": {"rate": 0.0193813528635, "noise_shape": null, "trainable": true, "seed": null, "name": "dropout_10"}, "inbound_nodes": [[["add_10", 0, 0, {}]]], "name": "dropout_10"}, {"class_name": "Conv1D", "config": {"kernel_constraint": null, "kernel_initializer": {"class_name": "VarianceScaling", "config": {"distribution": "uniform", "scale": 1.0, "seed": null, "mode": "fan_avg"}}, "name": "dilated_conv_1_tanh_s1", "bias_regularizer": null, "bias_constraint": null, "activation": "tanh", "trainable": true, "padding": "same", "strides": [1], "dilation_rate": [1], "kernel_regularizer": {"class_name": "L1L2", "config": {"l2": 1.0009706784330774e-05, "l1": 0.0}}, "filters": 33, "bias_initializer": {"class_name": "Zeros", "config": {}}, "use_bias": false, "activity_regularizer": null, "kernel_size": [2]}, "inbound_nodes": [[["dropout_10", 0, 0, {}]]], "name": "dilated_conv_1_tanh_s1"}, {"class_name": "Conv1D", "config": {"kernel_constraint": null, "kernel_initializer": {"class_name": "VarianceScaling", "config": {"distribution": "uniform", "scale": 1.0, "seed": null, "mode": "fan_avg"}}, "name": "dilated_conv_1_sigm_s1", "bias_regularizer": null, "bias_constraint": null, "activation": "sigmoid", "trainable": true, "padding": "same", "strides": [1], "dilation_rate": [1], "kernel_regularizer": {"class_name": "L1L2", "config": {"l2": 1.0009706784330774e-05, "l1": 0.0}}, "filters": 33, "bias_initializer": {"class_name": "Zeros", "config": {}}, "use_bias": false, "activity_regularizer": null, "kernel_size": [2]}, "inbound_nodes": [[["dropout_10", 0, 0, {}]]], "name": "dilated_conv_1_sigm_s1"}, {"class_name": "Multiply", "config": {"trainable": true, "name": "gated_activation_0_s1"}, "inbound_nodes": [[["dilated_conv_1_tanh_s1", 0, 0, {}], ["dilated_conv_1_sigm_s1", 0, 0, {}]]], "name": "gated_activation_0_s1"}, {"class_name": "Conv1D", "config": {"kernel_constraint": null, "kernel_initializer": {"class_name": "VarianceScaling", "config": {"distribution": "uniform", "scale": 1.0, "seed": null, "mode": "fan_avg"}}, "name": "conv1d_21", "bias_regularizer": null, "bias_constraint": null, "activation": "linear", "trainable": true, "padding": "same", "strides": [1], "dilation_rate": [1], "kernel_regularizer": {"class_name": "L1L2", "config": {"l2": 1.0009706784330774e-05, "l1": 0.0}}, "filters": 33, "bias_initializer": {"class_name": "Zeros", "config": {}}, "use_bias": false, "activity_regularizer": null, "kernel_size": [1]}, "inbound_nodes": [[["gated_activation_0_s1", 0, 0, {}]]], "name": "conv1d_21"}, {"class_name": "Add", "config": {"trainable": true, "name": "add_11"}, "inbound_nodes": [[["dropout_10", 0, 0, {}], ["conv1d_21", 0, 0, {}]]], "name": "add_11"}, {"class_name": "Dropout", "config": {"rate": 0.0193813528635, "noise_shape": null, "trainable": true, "seed": null, "name": "dropout_11"}, "inbound_nodes": [[["add_11", 0, 0, {}]]], "name": "dropout_11"}, {"class_name": "Conv1D", "config": {"kernel_constraint": null, "kernel_initializer": {"class_name": "VarianceScaling", "config": {"distribution": "uniform", "scale": 1.0, "seed": null, "mode": "fan_avg"}}, "name": "dilated_conv_2_tanh_s1", "bias_regularizer": null, "bias_constraint": null, "activation": "tanh", "trainable": true, "padding": "same", "strides": [1], "dilation_rate": [2], "kernel_regularizer": {"class_name": "L1L2", "config": {"l2": 1.0009706784330774e-05, "l1": 0.0}}, "filters": 33, "bias_initializer": {"class_name": "Zeros", "config": {}}, "use_bias": false, "activity_regularizer": null, "kernel_size": [2]}, "inbound_nodes": [[["dropout_11", 0, 0, {}]]], "name": "dilated_conv_2_tanh_s1"}, {"class_name": "Conv1D", "config": {"kernel_constraint": null, "kernel_initializer": {"class_name": "VarianceScaling", "config": {"distribution": "uniform", "scale": 1.0, "seed": null, "mode": "fan_avg"}}, "name": "dilated_conv_2_sigm_s1", "bias_regularizer": null, "bias_constraint": null, "activation": "sigmoid", "trainable": true, "padding": "same", "strides": [1], "dilation_rate": [2], "kernel_regularizer": {"class_name": "L1L2", "config": {"l2": 1.0009706784330774e-05, "l1": 0.0}}, "filters": 33, "bias_initializer": {"class_name": "Zeros", "config": {}}, "use_bias": false, "activity_regularizer": null, "kernel_size": [2]}, "inbound_nodes": [[["dropout_11", 0, 0, {}]]], "name": "dilated_conv_2_sigm_s1"}, {"class_name": "Multiply", "config": {"trainable": true, "name": "gated_activation_1_s1"}, "inbound_nodes": [[["dilated_conv_2_tanh_s1", 0, 0, {}], ["dilated_conv_2_sigm_s1", 0, 0, {}]]], "name": "gated_activation_1_s1"}, {"class_name": "Conv1D", "config": {"kernel_constraint": null, "kernel_initializer": {"class_name": "VarianceScaling", "config": {"distribution": "uniform", "scale": 1.0, "seed": null, "mode": "fan_avg"}}, "name": "conv1d_23", "bias_regularizer": null, "bias_constraint": null, "activation": "linear", "trainable": true, "padding": "same", "strides": [1], "dilation_rate": [1], "kernel_regularizer": {"class_name": "L1L2", "config": {"l2": 1.0009706784330774e-05, "l1": 0.0}}, "filters": 33, "bias_initializer": {"class_name": "Zeros", "config": {}}, "use_bias": false, "activity_regularizer": null, "kernel_size": [1]}, "inbound_nodes": [[["gated_activation_1_s1", 0, 0, {}]]], "name": "conv1d_23"}, {"class_name": "Add", "config": {"trainable": true, "name": "add_12"}, "inbound_nodes": [[["dropout_11", 0, 0, {}], ["conv1d_23", 0, 0, {}]]], "name": "add_12"}, {"class_name": "Dropout", "config": {"rate": 0.0193813528635, "noise_shape": null, "trainable": true, "seed": null, "name": "dropout_12"}, "inbound_nodes": [[["add_12", 0, 0, {}]]], "name": "dropout_12"}, {"class_name": "Conv1D", "config": {"kernel_constraint": null, "kernel_initializer": {"class_name": "VarianceScaling", "config": {"distribution": "uniform", "scale": 1.0, "seed": null, "mode": "fan_avg"}}, "name": "dilated_conv_4_tanh_s1", "bias_regularizer": null, "bias_constraint": null, "activation": "tanh", "trainable": true, "padding": "same", "strides": [1], "dilation_rate": [4], "kernel_regularizer": {"class_name": "L1L2", "config": {"l2": 1.0009706784330774e-05, "l1": 0.0}}, "filters": 33, "bias_initializer": {"class_name": "Zeros", "config": {}}, "use_bias": false, "activity_regularizer": null, "kernel_size": [2]}, "inbound_nodes": [[["dropout_12", 0, 0, {}]]], "name": "dilated_conv_4_tanh_s1"}, {"class_name": "Conv1D", "config": {"kernel_constraint": null, "kernel_initializer": {"class_name": "VarianceScaling", "config": {"distribution": "uniform", "scale": 1.0, "seed": null, "mode": "fan_avg"}}, "name": "dilated_conv_4_sigm_s1", "bias_regularizer": null, "bias_constraint": null, "activation": "sigmoid", "trainable": true, "padding": "same", "strides": [1], "dilation_rate": [4], "kernel_regularizer": {"class_name": "L1L2", "config": {"l2": 1.0009706784330774e-05, "l1": 0.0}}, "filters": 33, "bias_initializer": {"class_name": "Zeros", "config": {}}, "use_bias": false, "activity_regularizer": null, "kernel_size": [2]}, "inbound_nodes": [[["dropout_12", 0, 0, {}]]], "name": "dilated_conv_4_sigm_s1"}, {"class_name": "Multiply", "config": {"trainable": true, "name": "gated_activation_2_s1"}, "inbound_nodes": [[["dilated_conv_4_tanh_s1", 0, 0, {}], ["dilated_conv_4_sigm_s1", 0, 0, {}]]], "name": "gated_activation_2_s1"}, {"class_name": "Conv1D", "config": {"kernel_constraint": null, "kernel_initializer": {"class_name": "VarianceScaling", "config": {"distribution": "uniform", "scale": 1.0, "seed": null, "mode": "fan_avg"}}, "name": "conv1d_25", "bias_regularizer": null, "bias_constraint": null, "activation": "linear", "trainable": true, "padding": "same", "strides": [1], "dilation_rate": [1], "kernel_regularizer": {"class_name": "L1L2", "config": {"l2": 1.0009706784330774e-05, "l1": 0.0}}, "filters": 33, "bias_initializer": {"class_name": "Zeros", "config": {}}, "use_bias": false, "activity_regularizer": null, "kernel_size": [1]}, "inbound_nodes": [[["gated_activation_2_s1", 0, 0, {}]]], "name": "conv1d_25"}, {"class_name": "Add", "config": {"trainable": true, "name": "add_13"}, "inbound_nodes": [[["dropout_12", 0, 0, {}], ["conv1d_25", 0, 0, {}]]], "name": "add_13"}, {"class_name": "Dropout", "config": {"rate": 0.0193813528635, "noise_shape": null, "trainable": true, "seed": null, "name": "dropout_13"}, "inbound_nodes": [[["add_13", 0, 0, {}]]], "name": "dropout_13"}, {"class_name": "Conv1D", "config": {"kernel_constraint": null, "kernel_initializer": {"class_name": "VarianceScaling", "config": {"distribution": "uniform", "scale": 1.0, "seed": null, "mode": "fan_avg"}}, "name": "dilated_conv_8_tanh_s1", "bias_regularizer": null, "bias_constraint": null, "activation": "tanh", "trainable": true, "padding": "same", "strides": [1], "dilation_rate": [8], "kernel_regularizer": {"class_name": "L1L2", "config": {"l2": 1.0009706784330774e-05, "l1": 0.0}}, "filters": 33, "bias_initializer": {"class_name": "Zeros", "config": {}}, "use_bias": false, "activity_regularizer": null, "kernel_size": [2]}, "inbound_nodes": [[["dropout_13", 0, 0, {}]]], "name": "dilated_conv_8_tanh_s1"}, {"class_name": "Conv1D", "config": {"kernel_constraint": null, "kernel_initializer": {"class_name": "VarianceScaling", "config": {"distribution": "uniform", "scale": 1.0, "seed": null, "mode": "fan_avg"}}, "name": "dilated_conv_8_sigm_s1", "bias_regularizer": null, "bias_constraint": null, "activation": "sigmoid", "trainable": true, "padding": "same", "strides": [1], "dilation_rate": [8], "kernel_regularizer": {"class_name": "L1L2", "config": {"l2": 1.0009706784330774e-05, "l1": 0.0}}, "filters": 33, "bias_initializer": {"class_name": "Zeros", "config": {}}, "use_bias": false, "activity_regularizer": null, "kernel_size": [2]}, "inbound_nodes": [[["dropout_13", 0, 0, {}]]], "name": "dilated_conv_8_sigm_s1"}, {"class_name": "Multiply", "config": {"trainable": true, "name": "gated_activation_3_s1"}, "inbound_nodes": [[["dilated_conv_8_tanh_s1", 0, 0, {}], ["dilated_conv_8_sigm_s1", 0, 0, {}]]], "name": "gated_activation_3_s1"}, {"class_name": "Conv1D", "config": {"kernel_constraint": null, "kernel_initializer": {"class_name": "VarianceScaling", "config": {"distribution": "uniform", "scale": 1.0, "seed": null, "mode": "fan_avg"}}, "name": "conv1d_27", "bias_regularizer": null, "bias_constraint": null, "activation": "linear", "trainable": true, "padding": "same", "strides": [1], "dilation_rate": [1], "kernel_regularizer": {"class_name": "L1L2", "config": {"l2": 1.0009706784330774e-05, "l1": 0.0}}, "filters": 33, "bias_initializer": {"class_name": "Zeros", "config": {}}, "use_bias": false, "activity_regularizer": null, "kernel_size": [1]}, "inbound_nodes": [[["gated_activation_3_s1", 0, 0, {}]]], "name": "conv1d_27"}, {"class_name": "Add", "config": {"trainable": true, "name": "add_14"}, "inbound_nodes": [[["dropout_13", 0, 0, {}], ["conv1d_27", 0, 0, {}]]], "name": "add_14"}, {"class_name": "Dropout", "config": {"rate": 0.0193813528635, "noise_shape": null, "trainable": true, "seed": null, "name": "dropout_14"}, "inbound_nodes": [[["add_14", 0, 0, {}]]], "name": "dropout_14"}, {"class_name": "Conv1D", "config": {"kernel_constraint": null, "kernel_initializer": {"class_name": "VarianceScaling", "config": {"distribution": "uniform", "scale": 1.0, "seed": null, "mode": "fan_avg"}}, "name": "dilated_conv_16_tanh_s1", "bias_regularizer": null, "bias_constraint": null, "activation": "tanh", "trainable": true, "padding": "same", "strides": [1], "dilation_rate": [16], "kernel_regularizer": {"class_name": "L1L2", "config": {"l2": 1.0009706784330774e-05, "l1": 0.0}}, "filters": 33, "bias_initializer": {"class_name": "Zeros", "config": {}}, "use_bias": false, "activity_regularizer": null, "kernel_size": [2]}, "inbound_nodes": [[["dropout_14", 0, 0, {}]]], "name": "dilated_conv_16_tanh_s1"}, {"class_name": "Conv1D", "config": {"kernel_constraint": null, "kernel_initializer": {"class_name": "VarianceScaling", "config": {"distribution": "uniform", "scale": 1.0, "seed": null, "mode": "fan_avg"}}, "name": "dilated_conv_16_sigm_s1", "bias_regularizer": null, "bias_constraint": null, "activation": "sigmoid", "trainable": true, "padding": "same", "strides": [1], "dilation_rate": [16], "kernel_regularizer": {"class_name": "L1L2", "config": {"l2": 1.0009706784330774e-05, "l1": 0.0}}, "filters": 33, "bias_initializer": {"class_name": "Zeros", "config": {}}, "use_bias": false, "activity_regularizer": null, "kernel_size": [2]}, "inbound_nodes": [[["dropout_14", 0, 0, {}]]], "name": "dilated_conv_16_sigm_s1"}, {"class_name": "Multiply", "config": {"trainable": true, "name": "gated_activation_4_s1"}, "inbound_nodes": [[["dilated_conv_16_tanh_s1", 0, 0, {}], ["dilated_conv_16_sigm_s1", 0, 0, {}]]], "name": "gated_activation_4_s1"}, {"class_name": "Conv1D", "config": {"kernel_constraint": null, "kernel_initializer": {"class_name": "VarianceScaling", "config": {"distribution": "uniform", "scale": 1.0, "seed": null, "mode": "fan_avg"}}, "name": "conv1d_29", "bias_regularizer": null, "bias_constraint": null, "activation": "linear", "trainable": true, "padding": "same", "strides": [1], "dilation_rate": [1], "kernel_regularizer": {"class_name": "L1L2", "config": {"l2": 1.0009706784330774e-05, "l1": 0.0}}, "filters": 33, "bias_initializer": {"class_name": "Zeros", "config": {}}, "use_bias": false, "activity_regularizer": null, "kernel_size": [1]}, "inbound_nodes": [[["gated_activation_4_s1", 0, 0, {}]]], "name": "conv1d_29"}, {"class_name": "Add", "config": {"trainable": true, "name": "add_15"}, "inbound_nodes": [[["dropout_14", 0, 0, {}], ["conv1d_29", 0, 0, {}]]], "name": "add_15"}, {"class_name": "Dropout", "config": {"rate": 0.0193813528635, "noise_shape": null, "trainable": true, "seed": null, "name": "dropout_15"}, "inbound_nodes": [[["add_15", 0, 0, {}]]], "name": "dropout_15"}, {"class_name": "Conv1D", "config": {"kernel_constraint": null, "kernel_initializer": {"class_name": "VarianceScaling", "config": {"distribution": "uniform", "scale": 1.0, "seed": null, "mode": "fan_avg"}}, "name": "dilated_conv_32_tanh_s1", "bias_regularizer": null, "bias_constraint": null, "activation": "tanh", "trainable": true, "padding": "same", "strides": [1], "dilation_rate": [32], "kernel_regularizer": {"class_name": "L1L2", "config": {"l2": 1.0009706784330774e-05, "l1": 0.0}}, "filters": 33, "bias_initializer": {"class_name": "Zeros", "config": {}}, "use_bias": false, "activity_regularizer": null, "kernel_size": [2]}, "inbound_nodes": [[["dropout_15", 0, 0, {}]]], "name": "dilated_conv_32_tanh_s1"}, {"class_name": "Conv1D", "config": {"kernel_constraint": null, "kernel_initializer": {"class_name": "VarianceScaling", "config": {"distribution": "uniform", "scale": 1.0, "seed": null, "mode": "fan_avg"}}, "name": "dilated_conv_32_sigm_s1", "bias_regularizer": null, "bias_constraint": null, "activation": "sigmoid", "trainable": true, "padding": "same", "strides": [1], "dilation_rate": [32], "kernel_regularizer": {"class_name": "L1L2", "config": {"l2": 1.0009706784330774e-05, "l1": 0.0}}, "filters": 33, "bias_initializer": {"class_name": "Zeros", "config": {}}, "use_bias": false, "activity_regularizer": null, "kernel_size": [2]}, "inbound_nodes": [[["dropout_15", 0, 0, {}]]], "name": "dilated_conv_32_sigm_s1"}, {"class_name": "Multiply", "config": {"trainable": true, "name": "gated_activation_5_s1"}, "inbound_nodes": [[["dilated_conv_32_tanh_s1", 0, 0, {}], ["dilated_conv_32_sigm_s1", 0, 0, {}]]], "name": "gated_activation_5_s1"}, {"class_name": "Conv1D", "config": {"kernel_constraint": null, "kernel_initializer": {"class_name": "VarianceScaling", "config": {"distribution": "uniform", "scale": 1.0, "seed": null, "mode": "fan_avg"}}, "name": "conv1d_31", "bias_regularizer": null, "bias_constraint": null, "activation": "linear", "trainable": true, "padding": "same", "strides": [1], "dilation_rate": [1], "kernel_regularizer": {"class_name": "L1L2", "config": {"l2": 1.0009706784330774e-05, "l1": 0.0}}, "filters": 33, "bias_initializer": {"class_name": "Zeros", "config": {}}, "use_bias": false, "activity_regularizer": null, "kernel_size": [1]}, "inbound_nodes": [[["gated_activation_5_s1", 0, 0, {}]]], "name": "conv1d_31"}, {"class_name": "Add", "config": {"trainable": true, "name": "add_16"}, "inbound_nodes": [[["dropout_15", 0, 0, {}], ["conv1d_31", 0, 0, {}]]], "name": "add_16"}, {"class_name": "Dropout", "config": {"rate": 0.0193813528635, "noise_shape": null, "trainable": true, "seed": null, "name": "dropout_16"}, "inbound_nodes": [[["add_16", 0, 0, {}]]], "name": "dropout_16"}, {"class_name": "Conv1D", "config": {"kernel_constraint": null, "kernel_initializer": {"class_name": "VarianceScaling", "config": {"distribution": "uniform", "scale": 1.0, "seed": null, "mode": "fan_avg"}}, "name": "dilated_conv_64_tanh_s1", "bias_regularizer": null, "bias_constraint": null, "activation": "tanh", "trainable": true, "padding": "same", "strides": [1], "dilation_rate": [64], "kernel_regularizer": {"class_name": "L1L2", "config": {"l2": 1.0009706784330774e-05, "l1": 0.0}}, "filters": 33, "bias_initializer": {"class_name": "Zeros", "config": {}}, "use_bias": false, "activity_regularizer": null, "kernel_size": [2]}, "inbound_nodes": [[["dropout_16", 0, 0, {}]]], "name": "dilated_conv_64_tanh_s1"}, {"class_name": "Conv1D", "config": {"kernel_constraint": null, "kernel_initializer": {"class_name": "VarianceScaling", "config": {"distribution": "uniform", "scale": 1.0, "seed": null, "mode": "fan_avg"}}, "name": "dilated_conv_64_sigm_s1", "bias_regularizer": null, "bias_constraint": null, "activation": "sigmoid", "trainable": true, "padding": "same", "strides": [1], "dilation_rate": [64], "kernel_regularizer": {"class_name": "L1L2", "config": {"l2": 1.0009706784330774e-05, "l1": 0.0}}, "filters": 33, "bias_initializer": {"class_name": "Zeros", "config": {}}, "use_bias": false, "activity_regularizer": null, "kernel_size": [2]}, "inbound_nodes": [[["dropout_16", 0, 0, {}]]], "name": "dilated_conv_64_sigm_s1"}, {"class_name": "Multiply", "config": {"trainable": true, "name": "gated_activation_6_s1"}, "inbound_nodes": [[["dilated_conv_64_tanh_s1", 0, 0, {}], ["dilated_conv_64_sigm_s1", 0, 0, {}]]], "name": "gated_activation_6_s1"}, {"class_name": "Conv1D", "config": {"kernel_constraint": null, "kernel_initializer": {"class_name": "VarianceScaling", "config": {"distribution": "uniform", "scale": 1.0, "seed": null, "mode": "fan_avg"}}, "name": "conv1d_33", "bias_regularizer": null, "bias_constraint": null, "activation": "linear", "trainable": true, "padding": "same", "strides": [1], "dilation_rate": [1], "kernel_regularizer": {"class_name": "L1L2", "config": {"l2": 1.0009706784330774e-05, "l1": 0.0}}, "filters": 33, "bias_initializer": {"class_name": "Zeros", "config": {}}, "use_bias": false, "activity_regularizer": null, "kernel_size": [1]}, "inbound_nodes": [[["gated_activation_6_s1", 0, 0, {}]]], "name": "conv1d_33"}, {"class_name": "Add", "config": {"trainable": true, "name": "add_17"}, "inbound_nodes": [[["dropout_16", 0, 0, {}], ["conv1d_33", 0, 0, {}]]], "name": "add_17"}, {"class_name": "Dropout", "config": {"rate": 0.0193813528635, "noise_shape": null, "trainable": true, "seed": null, "name": "dropout_17"}, "inbound_nodes": [[["add_17", 0, 0, {}]]], "name": "dropout_17"}, {"class_name": "Conv1D", "config": {"kernel_constraint": null, "kernel_initializer": {"class_name": "VarianceScaling", "config": {"distribution": "uniform", "scale": 1.0, "seed": null, "mode": "fan_avg"}}, "name": "dilated_conv_128_tanh_s1", "bias_regularizer": null, "bias_constraint": null, "activation": "tanh", "trainable": true, "padding": "same", "strides": [1], "dilation_rate": [128], "kernel_regularizer": {"class_name": "L1L2", "config": {"l2": 1.0009706784330774e-05, "l1": 0.0}}, "filters": 33, "bias_initializer": {"class_name": "Zeros", "config": {}}, "use_bias": false, "activity_regularizer": null, "kernel_size": [2]}, "inbound_nodes": [[["dropout_17", 0, 0, {}]]], "name": "dilated_conv_128_tanh_s1"}, {"class_name": "Conv1D", "config": {"kernel_constraint": null, "kernel_initializer": {"class_name": "VarianceScaling", "config": {"distribution": "uniform", "scale": 1.0, "seed": null, "mode": "fan_avg"}}, "name": "dilated_conv_128_sigm_s1", "bias_regularizer": null, "bias_constraint": null, "activation": "sigmoid", "trainable": true, "padding": "same", "strides": [1], "dilation_rate": [128], "kernel_regularizer": {"class_name": "L1L2", "config": {"l2": 1.0009706784330774e-05, "l1": 0.0}}, "filters": 33, "bias_initializer": {"class_name": "Zeros", "config": {}}, "use_bias": false, "activity_regularizer": null, "kernel_size": [2]}, "inbound_nodes": [[["dropout_17", 0, 0, {}]]], "name": "dilated_conv_128_sigm_s1"}, {"class_name": "Multiply", "config": {"trainable": true, "name": "gated_activation_7_s1"}, "inbound_nodes": [[["dilated_conv_128_tanh_s1", 0, 0, {}], ["dilated_conv_128_sigm_s1", 0, 0, {}]]], "name": "gated_activation_7_s1"}, {"class_name": "Conv1D", "config": {"kernel_constraint": null, "kernel_initializer": {"class_name": "VarianceScaling", "config": {"distribution": "uniform", "scale": 1.0, "seed": null, "mode": "fan_avg"}}, "name": "conv1d_35", "bias_regularizer": null, "bias_constraint": null, "activation": "linear", "trainable": true, "padding": "same", "strides": [1], "dilation_rate": [1], "kernel_regularizer": {"class_name": "L1L2", "config": {"l2": 1.0009706784330774e-05, "l1": 0.0}}, "filters": 33, "bias_initializer": {"class_name": "Zeros", "config": {}}, "use_bias": false, "activity_regularizer": null, "kernel_size": [1]}, "inbound_nodes": [[["gated_activation_7_s1", 0, 0, {}]]], "name": "conv1d_35"}, {"class_name": "Add", "config": {"trainable": true, "name": "add_18"}, "inbound_nodes": [[["dropout_17", 0, 0, {}], ["conv1d_35", 0, 0, {}]]], "name": "add_18"}, {"class_name": "Dropout", "config": {"rate": 0.0193813528635, "noise_shape": null, "trainable": true, "seed": null, "name": "dropout_18"}, "inbound_nodes": [[["add_18", 0, 0, {}]]], "name": "dropout_18"}, {"class_name": "Conv1D", "config": {"kernel_constraint": null, "kernel_initializer": {"class_name": "VarianceScaling", "config": {"distribution": "uniform", "scale": 1.0, "seed": null, "mode": "fan_avg"}}, "name": "dilated_conv_256_tanh_s1", "bias_regularizer": null, "bias_constraint": null, "activation": "tanh", "trainable": true, "padding": "same", "strides": [1], "dilation_rate": [256], "kernel_regularizer": {"class_name": "L1L2", "config": {"l2": 1.0009706784330774e-05, "l1": 0.0}}, "filters": 33, "bias_initializer": {"class_name": "Zeros", "config": {}}, "use_bias": false, "activity_regularizer": null, "kernel_size": [2]}, "inbound_nodes": [[["dropout_18", 0, 0, {}]]], "name": "dilated_conv_256_tanh_s1"}, {"class_name": "Conv1D", "config": {"kernel_constraint": null, "kernel_initializer": {"class_name": "VarianceScaling", "config": {"distribution": "uniform", "scale": 1.0, "seed": null, "mode": "fan_avg"}}, "name": "dilated_conv_256_sigm_s1", "bias_regularizer": null, "bias_constraint": null, "activation": "sigmoid", "trainable": true, "padding": "same", "strides": [1], "dilation_rate": [256], "kernel_regularizer": {"class_name": "L1L2", "config": {"l2": 1.0009706784330774e-05, "l1": 0.0}}, "filters": 33, "bias_initializer": {"class_name": "Zeros", "config": {}}, "use_bias": false, "activity_regularizer": null, "kernel_size": [2]}, "inbound_nodes": [[["dropout_18", 0, 0, {}]]], "name": "dilated_conv_256_sigm_s1"}, {"class_name": "Multiply", "config": {"trainable": true, "name": "gated_activation_8_s1"}, "inbound_nodes": [[["dilated_conv_256_tanh_s1", 0, 0, {}], ["dilated_conv_256_sigm_s1", 0, 0, {}]]], "name": "gated_activation_8_s1"}, {"class_name": "Conv1D", "config": {"kernel_constraint": null, "kernel_initializer": {"class_name": "VarianceScaling", "config": {"distribution": "uniform", "scale": 1.0, "seed": null, "mode": "fan_avg"}}, "name": "conv1d_37", "bias_regularizer": null, "bias_constraint": null, "activation": "linear", "trainable": true, "padding": "same", "strides": [1], "dilation_rate": [1], "kernel_regularizer": {"class_name": "L1L2", "config": {"l2": 1.0009706784330774e-05, "l1": 0.0}}, "filters": 33, "bias_initializer": {"class_name": "Zeros", "config": {}}, "use_bias": false, "activity_regularizer": null, "kernel_size": [1]}, "inbound_nodes": [[["gated_activation_8_s1", 0, 0, {}]]], "name": "conv1d_37"}, {"class_name": "Add", "config": {"trainable": true, "name": "add_19"}, "inbound_nodes": [[["dropout_18", 0, 0, {}], ["conv1d_37", 0, 0, {}]]], "name": "add_19"}, {"class_name": "Dropout", "config": {"rate": 0.0193813528635, "noise_shape": null, "trainable": true, "seed": null, "name": "dropout_19"}, "inbound_nodes": [[["add_19", 0, 0, {}]]], "name": "dropout_19"}, {"class_name": "Conv1D", "config": {"kernel_constraint": null, "kernel_initializer": {"class_name": "VarianceScaling", "config": {"distribution": "uniform", "scale": 1.0, "seed": null, "mode": "fan_avg"}}, "name": "dilated_conv_512_tanh_s1", "bias_regularizer": null, "bias_constraint": null, "activation": "tanh", "trainable": true, "padding": "same", "strides": [1], "dilation_rate": [512], "kernel_regularizer": {"class_name": "L1L2", "config": {"l2": 1.0009706784330774e-05, "l1": 0.0}}, "filters": 33, "bias_initializer": {"class_name": "Zeros", "config": {}}, "use_bias": false, "activity_regularizer": null, "kernel_size": [2]}, "inbound_nodes": [[["dropout_19", 0, 0, {}]]], "name": "dilated_conv_512_tanh_s1"}, {"class_name": "Conv1D", "config": {"kernel_constraint": null, "kernel_initializer": {"class_name": "VarianceScaling", "config": {"distribution": "uniform", "scale": 1.0, "seed": null, "mode": "fan_avg"}}, "name": "dilated_conv_512_sigm_s1", "bias_regularizer": null, "bias_constraint": null, "activation": "sigmoid", "trainable": true, "padding": "same", "strides": [1], "dilation_rate": [512], "kernel_regularizer": {"class_name": "L1L2", "config": {"l2": 1.0009706784330774e-05, "l1": 0.0}}, "filters": 33, "bias_initializer": {"class_name": "Zeros", "config": {}}, "use_bias": false, "activity_regularizer": null, "kernel_size": [2]}, "inbound_nodes": [[["dropout_19", 0, 0, {}]]], "name": "dilated_conv_512_sigm_s1"}, {"class_name": "Multiply", "config": {"trainable": true, "name": "gated_activation_9_s1"}, "inbound_nodes": [[["dilated_conv_512_tanh_s1", 0, 0, {}], ["dilated_conv_512_sigm_s1", 0, 0, {}]]], "name": "gated_activation_9_s1"}, {"class_name": "Conv1D", "config": {"kernel_constraint": null, "kernel_initializer": {"class_name": "VarianceScaling", "config": {"distribution": "uniform", "scale": 1.0, "seed": null, "mode": "fan_avg"}}, "name": "conv1d_2", "bias_regularizer": null, "bias_constraint": null, "activation": "linear", "trainable": true, "padding": "same", "strides": [1], "dilation_rate": [1], "kernel_regularizer": {"class_name": "L1L2", "config": {"l2": 1.0009706784330774e-05, "l1": 0.0}}, "filters": 33, "bias_initializer": {"class_name": "Zeros", "config": {}}, "use_bias": false, "activity_regularizer": null, "kernel_size": [1]}, "inbound_nodes": [[["gated_activation_0_s0", 0, 0, {}]]], "name": "conv1d_2"}, {"class_name": "Conv1D", "config": {"kernel_constraint": null, "kernel_initializer": {"class_name": "VarianceScaling", "config": {"distribution": "uniform", "scale": 1.0, "seed": null, "mode": "fan_avg"}}, "name": "conv1d_4", "bias_regularizer": null, "bias_constraint": null, "activation": "linear", "trainable": true, "padding": "same", "strides": [1], "dilation_rate": [1], "kernel_regularizer": {"class_name": "L1L2", "config": {"l2": 1.0009706784330774e-05, "l1": 0.0}}, "filters": 33, "bias_initializer": {"class_name": "Zeros", "config": {}}, "use_bias": false, "activity_regularizer": null, "kernel_size": [1]}, "inbound_nodes": [[["gated_activation_1_s0", 0, 0, {}]]], "name": "conv1d_4"}, {"class_name": "Conv1D", "config": {"kernel_constraint": null, "kernel_initializer": {"class_name": "VarianceScaling", "config": {"distribution": "uniform", "scale": 1.0, "seed": null, "mode": "fan_avg"}}, "name": "conv1d_6", "bias_regularizer": null, "bias_constraint": null, "activation": "linear", "trainable": true, "padding": "same", "strides": [1], "dilation_rate": [1], "kernel_regularizer": {"class_name": "L1L2", "config": {"l2": 1.0009706784330774e-05, "l1": 0.0}}, "filters": 33, "bias_initializer": {"class_name": "Zeros", "config": {}}, "use_bias": false, "activity_regularizer": null, "kernel_size": [1]}, "inbound_nodes": [[["gated_activation_2_s0", 0, 0, {}]]], "name": "conv1d_6"}, {"class_name": "Conv1D", "config": {"kernel_constraint": null, "kernel_initializer": {"class_name": "VarianceScaling", "config": {"distribution": "uniform", "scale": 1.0, "seed": null, "mode": "fan_avg"}}, "name": "conv1d_8", "bias_regularizer": null, "bias_constraint": null, "activation": "linear", "trainable": true, "padding": "same", "strides": [1], "dilation_rate": [1], "kernel_regularizer": {"class_name": "L1L2", "config": {"l2": 1.0009706784330774e-05, "l1": 0.0}}, "filters": 33, "bias_initializer": {"class_name": "Zeros", "config": {}}, "use_bias": false, "activity_regularizer": null, "kernel_size": [1]}, "inbound_nodes": [[["gated_activation_3_s0", 0, 0, {}]]], "name": "conv1d_8"}, {"class_name": "Conv1D", "config": {"kernel_constraint": null, "kernel_initializer": {"class_name": "VarianceScaling", "config": {"distribution": "uniform", "scale": 1.0, "seed": null, "mode": "fan_avg"}}, "name": "conv1d_10", "bias_regularizer": null, "bias_constraint": null, "activation": "linear", "trainable": true, "padding": "same", "strides": [1], "dilation_rate": [1], "kernel_regularizer": {"class_name": "L1L2", "config": {"l2": 1.0009706784330774e-05, "l1": 0.0}}, "filters": 33, "bias_initializer": {"class_name": "Zeros", "config": {}}, "use_bias": false, "activity_regularizer": null, "kernel_size": [1]}, "inbound_nodes": [[["gated_activation_4_s0", 0, 0, {}]]], "name": "conv1d_10"}, {"class_name": "Conv1D", "config": {"kernel_constraint": null, "kernel_initializer": {"class_name": "VarianceScaling", "config": {"distribution": "uniform", "scale": 1.0, "seed": null, "mode": "fan_avg"}}, "name": "conv1d_12", "bias_regularizer": null, "bias_constraint": null, "activation": "linear", "trainable": true, "padding": "same", "strides": [1], "dilation_rate": [1], "kernel_regularizer": {"class_name": "L1L2", "config": {"l2": 1.0009706784330774e-05, "l1": 0.0}}, "filters": 33, "bias_initializer": {"class_name": "Zeros", "config": {}}, "use_bias": false, "activity_regularizer": null, "kernel_size": [1]}, "inbound_nodes": [[["gated_activation_5_s0", 0, 0, {}]]], "name": "conv1d_12"}, {"class_name": "Conv1D", "config": {"kernel_constraint": null, "kernel_initializer": {"class_name": "VarianceScaling", "config": {"distribution": "uniform", "scale": 1.0, "seed": null, "mode": "fan_avg"}}, "name": "conv1d_14", "bias_regularizer": null, "bias_constraint": null, "activation": "linear", "trainable": true, "padding": "same", "strides": [1], "dilation_rate": [1], "kernel_regularizer": {"class_name": "L1L2", "config": {"l2": 1.0009706784330774e-05, "l1": 0.0}}, "filters": 33, "bias_initializer": {"class_name": "Zeros", "config": {}}, "use_bias": false, "activity_regularizer": null, "kernel_size": [1]}, "inbound_nodes": [[["gated_activation_6_s0", 0, 0, {}]]], "name": "conv1d_14"}, {"class_name": "Conv1D", "config": {"kernel_constraint": null, "kernel_initializer": {"class_name": "VarianceScaling", "config": {"distribution": "uniform", "scale": 1.0, "seed": null, "mode": "fan_avg"}}, "name": "conv1d_16", "bias_regularizer": null, "bias_constraint": null, "activation": "linear", "trainable": true, "padding": "same", "strides": [1], "dilation_rate": [1], "kernel_regularizer": {"class_name": "L1L2", "config": {"l2": 1.0009706784330774e-05, "l1": 0.0}}, "filters": 33, "bias_initializer": {"class_name": "Zeros", "config": {}}, "use_bias": false, "activity_regularizer": null, "kernel_size": [1]}, "inbound_nodes": [[["gated_activation_7_s0", 0, 0, {}]]], "name": "conv1d_16"}, {"class_name": "Conv1D", "config": {"kernel_constraint": null, "kernel_initializer": {"class_name": "VarianceScaling", "config": {"distribution": "uniform", "scale": 1.0, "seed": null, "mode": "fan_avg"}}, "name": "conv1d_18", "bias_regularizer": null, "bias_constraint": null, "activation": "linear", "trainable": true, "padding": "same", "strides": [1], "dilation_rate": [1], "kernel_regularizer": {"class_name": "L1L2", "config": {"l2": 1.0009706784330774e-05, "l1": 0.0}}, "filters": 33, "bias_initializer": {"class_name": "Zeros", "config": {}}, "use_bias": false, "activity_regularizer": null, "kernel_size": [1]}, "inbound_nodes": [[["gated_activation_8_s0", 0, 0, {}]]], "name": "conv1d_18"}, {"class_name": "Conv1D", "config": {"kernel_constraint": null, "kernel_initializer": {"class_name": "VarianceScaling", "config": {"distribution": "uniform", "scale": 1.0, "seed": null, "mode": "fan_avg"}}, "name": "conv1d_20", "bias_regularizer": null, "bias_constraint": null, "activation": "linear", "trainable": true, "padding": "same", "strides": [1], "dilation_rate": [1], "kernel_regularizer": {"class_name": "L1L2", "config": {"l2": 1.0009706784330774e-05, "l1": 0.0}}, "filters": 33, "bias_initializer": {"class_name": "Zeros", "config": {}}, "use_bias": false, "activity_regularizer": null, "kernel_size": [1]}, "inbound_nodes": [[["gated_activation_9_s0", 0, 0, {}]]], "name": "conv1d_20"}, {"class_name": "Conv1D", "config": {"kernel_constraint": null, "kernel_initializer": {"class_name": "VarianceScaling", "config": {"distribution": "uniform", "scale": 1.0, "seed": null, "mode": "fan_avg"}}, "name": "conv1d_22", "bias_regularizer": null, "bias_constraint": null, "activation": "linear", "trainable": true, "padding": "same", "strides": [1], "dilation_rate": [1], "kernel_regularizer": {"class_name": "L1L2", "config": {"l2": 1.0009706784330774e-05, "l1": 0.0}}, "filters": 33, "bias_initializer": {"class_name": "Zeros", "config": {}}, "use_bias": false, "activity_regularizer": null, "kernel_size": [1]}, "inbound_nodes": [[["gated_activation_0_s1", 0, 0, {}]]], "name": "conv1d_22"}, {"class_name": "Conv1D", "config": {"kernel_constraint": null, "kernel_initializer": {"class_name": "VarianceScaling", "config": {"distribution": "uniform", "scale": 1.0, "seed": null, "mode": "fan_avg"}}, "name": "conv1d_24", "bias_regularizer": null, "bias_constraint": null, "activation": "linear", "trainable": true, "padding": "same", "strides": [1], "dilation_rate": [1], "kernel_regularizer": {"class_name": "L1L2", "config": {"l2": 1.0009706784330774e-05, "l1": 0.0}}, "filters": 33, "bias_initializer": {"class_name": "Zeros", "config": {}}, "use_bias": false, "activity_regularizer": null, "kernel_size": [1]}, "inbound_nodes": [[["gated_activation_1_s1", 0, 0, {}]]], "name": "conv1d_24"}, {"class_name": "Conv1D", "config": {"kernel_constraint": null, "kernel_initializer": {"class_name": "VarianceScaling", "config": {"distribution": "uniform", "scale": 1.0, "seed": null, "mode": "fan_avg"}}, "name": "conv1d_26", "bias_regularizer": null, "bias_constraint": null, "activation": "linear", "trainable": true, "padding": "same", "strides": [1], "dilation_rate": [1], "kernel_regularizer": {"class_name": "L1L2", "config": {"l2": 1.0009706784330774e-05, "l1": 0.0}}, "filters": 33, "bias_initializer": {"class_name": "Zeros", "config": {}}, "use_bias": false, "activity_regularizer": null, "kernel_size": [1]}, "inbound_nodes": [[["gated_activation_2_s1", 0, 0, {}]]], "name": "conv1d_26"}, {"class_name": "Conv1D", "config": {"kernel_constraint": null, "kernel_initializer": {"class_name": "VarianceScaling", "config": {"distribution": "uniform", "scale": 1.0, "seed": null, "mode": "fan_avg"}}, "name": "conv1d_28", "bias_regularizer": null, "bias_constraint": null, "activation": "linear", "trainable": true, "padding": "same", "strides": [1], "dilation_rate": [1], "kernel_regularizer": {"class_name": "L1L2", "config": {"l2": 1.0009706784330774e-05, "l1": 0.0}}, "filters": 33, "bias_initializer": {"class_name": "Zeros", "config": {}}, "use_bias": false, "activity_regularizer": null, "kernel_size": [1]}, "inbound_nodes": [[["gated_activation_3_s1", 0, 0, {}]]], "name": "conv1d_28"}, {"class_name": "Conv1D", "config": {"kernel_constraint": null, "kernel_initializer": {"class_name": "VarianceScaling", "config": {"distribution": "uniform", "scale": 1.0, "seed": null, "mode": "fan_avg"}}, "name": "conv1d_30", "bias_regularizer": null, "bias_constraint": null, "activation": "linear", "trainable": true, "padding": "same", "strides": [1], "dilation_rate": [1], "kernel_regularizer": {"class_name": "L1L2", "config": {"l2": 1.0009706784330774e-05, "l1": 0.0}}, "filters": 33, "bias_initializer": {"class_name": "Zeros", "config": {}}, "use_bias": false, "activity_regularizer": null, "kernel_size": [1]}, "inbound_nodes": [[["gated_activation_4_s1", 0, 0, {}]]], "name": "conv1d_30"}, {"class_name": "Conv1D", "config": {"kernel_constraint": null, "kernel_initializer": {"class_name": "VarianceScaling", "config": {"distribution": "uniform", "scale": 1.0, "seed": null, "mode": "fan_avg"}}, "name": "conv1d_32", "bias_regularizer": null, "bias_constraint": null, "activation": "linear", "trainable": true, "padding": "same", "strides": [1], "dilation_rate": [1], "kernel_regularizer": {"class_name": "L1L2", "config": {"l2": 1.0009706784330774e-05, "l1": 0.0}}, "filters": 33, "bias_initializer": {"class_name": "Zeros", "config": {}}, "use_bias": false, "activity_regularizer": null, "kernel_size": [1]}, "inbound_nodes": [[["gated_activation_5_s1", 0, 0, {}]]], "name": "conv1d_32"}, {"class_name": "Conv1D", "config": {"kernel_constraint": null, "kernel_initializer": {"class_name": "VarianceScaling", "config": {"distribution": "uniform", "scale": 1.0, "seed": null, "mode": "fan_avg"}}, "name": "conv1d_34", "bias_regularizer": null, "bias_constraint": null, "activation": "linear", "trainable": true, "padding": "same", "strides": [1], "dilation_rate": [1], "kernel_regularizer": {"class_name": "L1L2", "config": {"l2": 1.0009706784330774e-05, "l1": 0.0}}, "filters": 33, "bias_initializer": {"class_name": "Zeros", "config": {}}, "use_bias": false, "activity_regularizer": null, "kernel_size": [1]}, "inbound_nodes": [[["gated_activation_6_s1", 0, 0, {}]]], "name": "conv1d_34"}, {"class_name": "Conv1D", "config": {"kernel_constraint": null, "kernel_initializer": {"class_name": "VarianceScaling", "config": {"distribution": "uniform", "scale": 1.0, "seed": null, "mode": "fan_avg"}}, "name": "conv1d_36", "bias_regularizer": null, "bias_constraint": null, "activation": "linear", "trainable": true, "padding": "same", "strides": [1], "dilation_rate": [1], "kernel_regularizer": {"class_name": "L1L2", "config": {"l2": 1.0009706784330774e-05, "l1": 0.0}}, "filters": 33, "bias_initializer": {"class_name": "Zeros", "config": {}}, "use_bias": false, "activity_regularizer": null, "kernel_size": [1]}, "inbound_nodes": [[["gated_activation_7_s1", 0, 0, {}]]], "name": "conv1d_36"}, {"class_name": "Conv1D", "config": {"kernel_constraint": null, "kernel_initializer": {"class_name": "VarianceScaling", "config": {"distribution": "uniform", "scale": 1.0, "seed": null, "mode": "fan_avg"}}, "name": "conv1d_38", "bias_regularizer": null, "bias_constraint": null, "activation": "linear", "trainable": true, "padding": "same", "strides": [1], "dilation_rate": [1], "kernel_regularizer": {"class_name": "L1L2", "config": {"l2": 1.0009706784330774e-05, "l1": 0.0}}, "filters": 33, "bias_initializer": {"class_name": "Zeros", "config": {}}, "use_bias": false, "activity_regularizer": null, "kernel_size": [1]}, "inbound_nodes": [[["gated_activation_8_s1", 0, 0, {}]]], "name": "conv1d_38"}, {"class_name": "Conv1D", "config": {"kernel_constraint": null, "kernel_initializer": {"class_name": "VarianceScaling", "config": {"distribution": "uniform", "scale": 1.0, "seed": null, "mode": "fan_avg"}}, "name": "conv1d_40", "bias_regularizer": null, "bias_constraint": null, "activation": "linear", "trainable": true, "padding": "same", "strides": [1], "dilation_rate": [1], "kernel_regularizer": {"class_name": "L1L2", "config": {"l2": 1.0009706784330774e-05, "l1": 0.0}}, "filters": 33, "bias_initializer": {"class_name": "Zeros", "config": {}}, "use_bias": false, "activity_regularizer": null, "kernel_size": [1]}, "inbound_nodes": [[["gated_activation_9_s1", 0, 0, {}]]], "name": "conv1d_40"}, {"class_name": "Add", "config": {"trainable": true, "name": "add_21"}, "inbound_nodes": [[["conv1d_2", 0, 0, {}], ["conv1d_4", 0, 0, {}], ["conv1d_6", 0, 0, {}], ["conv1d_8", 0, 0, {}], ["conv1d_10", 0, 0, {}], ["conv1d_12", 0, 0, {}], ["conv1d_14", 0, 0, {}], ["conv1d_16", 0, 0, {}], ["conv1d_18", 0, 0, {}], ["conv1d_20", 0, 0, {}], ["conv1d_22", 0, 0, {}], ["conv1d_24", 0, 0, {}], ["conv1d_26", 0, 0, {}], ["conv1d_28", 0, 0, {}], ["conv1d_30", 0, 0, {}], ["conv1d_32", 0, 0, {}], ["conv1d_34", 0, 0, {}], ["conv1d_36", 0, 0, {}], ["conv1d_38", 0, 0, {}], ["conv1d_40", 0, 0, {}]]], "name": "add_21"}, {"class_name": "BatchNormalization", "config": {"beta_constraint": null, "gamma_initializer": {"class_name": "Ones", "config": {}}, "moving_mean_initializer": {"class_name": "Zeros", "config": {}}, "name": "batch_normalization_3", "epsilon": 0.001, "trainable": true, "moving_variance_initializer": {"class_name": "Ones", "config": {}}, "beta_initializer": {"class_name": "Zeros", "config": {}}, "scale": true, "axis": -1, "gamma_constraint": null, "gamma_regularizer": null, "beta_regularizer": null, "momentum": 0.99, "center": true}, "inbound_nodes": [[["add_21", 0, 0, {}]]], "name": "batch_normalization_3"}, {"class_name": "Activation", "config": {"activation": "relu", "trainable": true, "name": "activation_3"}, "inbound_nodes": [[["batch_normalization_3", 0, 0, {}]]], "name": "activation_3"}, {"class_name": "Dropout", "config": {"rate": 0.0895450991252, "noise_shape": null, "trainable": true, "seed": null, "name": "last_shared_layer"}, "inbound_nodes": [[["activation_3", 0, 0, {}]]], "name": "last_shared_layer"}, {"class_name": "Conv1D", "config": {"kernel_constraint": null, "kernel_initializer": {"class_name": "VarianceScaling", "config": {"distribution": "uniform", "scale": 1.0, "seed": null, "mode": "fan_avg"}}, "name": "conv1d_41", "bias_regularizer": null, "bias_constraint": null, "activation": "linear", "trainable": true, "padding": "same", "strides": [1], "dilation_rate": [1], "kernel_regularizer": {"class_name": "L1L2", "config": {"l2": 4.044579327455722e-05, "l1": 0.0}}, "filters": 22, "bias_initializer": {"class_name": "Zeros", "config": {}}, "use_bias": true, "activity_regularizer": null, "kernel_size": [1]}, "inbound_nodes": [[["last_shared_layer", 0, 0, {}]]], "name": "conv1d_41"}, {"class_name": "BatchNormalization", "config": {"beta_constraint": null, "gamma_initializer": {"class_name": "Ones", "config": {}}, "moving_mean_initializer": {"class_name": "Zeros", "config": {}}, "name": "batch_normalization_4", "epsilon": 0.001, "trainable": true, "moving_variance_initializer": {"class_name": "Ones", "config": {}}, "beta_initializer": {"class_name": "Zeros", "config": {}}, "scale": true, "axis": -1, "gamma_constraint": null, "gamma_regularizer": null, "beta_regularizer": null, "momentum": 0.99, "center": true}, "inbound_nodes": [[["conv1d_41", 0, 0, {}]]], "name": "batch_normalization_4"}, {"class_name": "Activation", "config": {"activation": "relu", "trainable": true, "name": "activation_4"}, "inbound_nodes": [[["batch_normalization_4", 0, 0, {}]]], "name": "activation_4"}, {"class_name": "Dropout", "config": {"rate": 0.0895450991252, "noise_shape": null, "trainable": true, "seed": null, "name": "dropout_21"}, "inbound_nodes": [[["activation_4", 0, 0, {}]]], "name": "dropout_21"}, {"class_name": "Conv1D", "config": {"kernel_constraint": null, "kernel_initializer": {"class_name": "VarianceScaling", "config": {"distribution": "uniform", "scale": 1.0, "seed": null, "mode": "fan_avg"}}, "name": "conv1d_42", "bias_regularizer": null, "bias_constraint": null, "activation": "linear", "trainable": true, "padding": "same", "strides": [1], "dilation_rate": [1], "kernel_regularizer": null, "filters": 22, "bias_initializer": {"class_name": "Zeros", "config": {}}, "use_bias": true, "activity_regularizer": null, "kernel_size": [1]}, "inbound_nodes": [[["dropout_21", 0, 0, {}]]], "name": "conv1d_42"}, {"class_name": "Activation", "config": {"activation": "softmax", "trainable": true, "name": "output_softmax_0"}, "inbound_nodes": [[["conv1d_42", 0, 0, {}]]], "name": "output_softmax_0"}], "input_layers": [["input_part", 0, 0]], "output_layers": [["output_softmax_0", 0, 0]], "name": "model_1"}, "backend": "tensorflow"}