{"class_name": "Model", "keras_version": "2.3.1", "config": {"layers": [{"class_name": "InputLayer", "config": {"dtype": "float32", "batch_input_shape": [null, 5000, 4], "name": "input_part", "sparse": false}, "inbound_nodes": [], "name": "input_part"}, {"class_name": "Conv1D", "config": {"kernel_initializer": {"class_name": "VarianceScaling", "config": {"distribution": "uniform", "scale": 1.0, "seed": null, "mode": "fan_avg"}}, "name": "conv_0_pretrained", "kernel_constraint": null, "bias_regularizer": null, "bias_constraint": null, "dtype": "float32", "activation": "linear", "trainable": true, "data_format": "channels_last", "filters": 256, "padding": "same", "strides": [1], "dilation_rate": [1], "kernel_regularizer": null, "bias_initializer": {"class_name": "Zeros", "config": {}}, "use_bias": true, "activity_regularizer": null, "kernel_size": [6]}, "inbound_nodes": [[["input_part", 0, 0, {}]]], "name": "conv_0_pretrained"}, {"class_name": "Conv1D", "config": {"kernel_initializer": {"class_name": "VarianceScaling", "config": {"distribution": "uniform", "scale": 1.0, "seed": null, "mode": "fan_avg"}}, "name": "conv_0", "kernel_constraint": null, "bias_regularizer": null, "bias_constraint": null, "dtype": "float32", "activation": "linear", "trainable": true, "data_format": "channels_last", "filters": 256, "padding": "same", "strides": [1], "dilation_rate": [1], "kernel_regularizer": null, "bias_initializer": {"class_name": "Zeros", "config": {}}, "use_bias": true, "activity_regularizer": null, "kernel_size": [16]}, "inbound_nodes": [[["input_part", 0, 0, {}]]], "name": "conv_0"}, {"class_name": "BatchNormalization", "config": {"beta_constraint": null, "gamma_initializer": {"class_name": "Ones", "config": {}}, "moving_mean_initializer": {"class_name": "Zeros", "config": {}}, "name": "batch_normalization_1", "dtype": "float32", "trainable": true, "moving_variance_initializer": {"class_name": "Ones", "config": {}}, "beta_initializer": {"class_name": "Zeros", "config": {}}, "scale": true, "axis": -1, "epsilon": 0.001, "gamma_constraint": null, "gamma_regularizer": null, "beta_regularizer": null, "momentum": 0.99, "center": true}, "inbound_nodes": [[["conv_0_pretrained", 0, 0, {}]]], "name": "batch_normalization_1"}, {"class_name": "BatchNormalization", "config": {"beta_constraint": null, "gamma_initializer": {"class_name": "Ones", "config": {}}, "moving_mean_initializer": {"class_name": "Zeros", "config": {}}, "name": "batch_normalization_2", "dtype": "float32", "trainable": true, "moving_variance_initializer": {"class_name": "Ones", "config": {}}, "beta_initializer": {"class_name": "Zeros", "config": {}}, "scale": true, "axis": -1, "epsilon": 0.001, "gamma_constraint": null, "gamma_regularizer": null, "beta_regularizer": null, "momentum": 0.99, "center": true}, "inbound_nodes": [[["conv_0", 0, 0, {}]]], "name": "batch_normalization_2"}, {"class_name": "Activation", "config": {"dtype": "float32", "activation": "relu", "trainable": true, "name": "activation_1"}, "inbound_nodes": [[["batch_normalization_1", 0, 0, {}]]], "name": "activation_1"}, {"class_name": "Activation", "config": {"dtype": "float32", "activation": "relu", "trainable": true, "name": "activation_2"}, "inbound_nodes": [[["batch_normalization_2", 0, 0, {}]]], "name": "activation_2"}, {"class_name": "Permute", "config": {"dtype": "float32", "trainable": true, "name": "permute_1", "dims": [2, 1]}, "inbound_nodes": [[["activation_1", 0, 0, {}]]], "name": "permute_1"}, {"class_name": "Permute", "config": {"dtype": "float32", "trainable": true, "name": "permute_3", "dims": [2, 1]}, "inbound_nodes": [[["activation_2", 0, 0, {}]]], "name": "permute_3"}, {"class_name": "MaxPooling1D", "config": {"name": "max_pooling1d_1", "dtype": "float32", "trainable": true, "data_format": "channels_last", "pool_size": [256], "padding": "same", "strides": [256]}, "inbound_nodes": [[["permute_1", 0, 0, {}]]], "name": "max_pooling1d_1"}, {"class_name": "MaxPooling1D", "config": {"name": "max_pooling1d_2", "dtype": "float32", "trainable": true, "data_format": "channels_last", "pool_size": [256], "padding": "same", "strides": [256]}, "inbound_nodes": [[["permute_3", 0, 0, {}]]], "name": "max_pooling1d_2"}, {"class_name": "Permute", "config": {"dtype": "float32", "trainable": true, "name": "permute_2", "dims": [2, 1]}, "inbound_nodes": [[["max_pooling1d_1", 0, 0, {}]]], "name": "permute_2"}, {"class_name": "Permute", "config": {"dtype": "float32", "trainable": true, "name": "permute_4", "dims": [2, 1]}, "inbound_nodes": [[["max_pooling1d_2", 0, 0, {}]]], "name": "permute_4"}, {"class_name": "Concatenate", "config": {"dtype": "float32", "trainable": true, "name": "concatenate_1", "axis": -1}, "inbound_nodes": [[["permute_2", 0, 0, {}], ["permute_4", 0, 0, {}]]], "name": "concatenate_1"}, {"class_name": "Conv1D", "config": {"kernel_initializer": {"class_name": "VarianceScaling", "config": {"distribution": "uniform", "scale": 1.0, "seed": null, "mode": "fan_avg"}}, "name": "dilated_conv_1_tanh_s0", "kernel_constraint": null, "bias_regularizer": null, "bias_constraint": null, "dtype": "float32", "activation": "tanh", "trainable": true, "data_format": "channels_last", "filters": 2, "padding": "same", "strides": [1], "dilation_rate": [1], "kernel_regularizer": {"class_name": "L1L2", "config": {"l2": 2.9891174563090317e-05, "l1": 0.0}}, "bias_initializer": {"class_name": "Zeros", "config": {}}, "use_bias": false, "activity_regularizer": null, "kernel_size": [2]}, "inbound_nodes": [[["concatenate_1", 0, 0, {}]]], "name": "dilated_conv_1_tanh_s0"}, {"class_name": "Conv1D", "config": {"kernel_initializer": {"class_name": "VarianceScaling", "config": {"distribution": "uniform", "scale": 1.0, "seed": null, "mode": "fan_avg"}}, "name": "dilated_conv_1_sigm_s0", "kernel_constraint": null, "bias_regularizer": null, "bias_constraint": null, "dtype": "float32", "activation": "sigmoid", "trainable": true, "data_format": "channels_last", "filters": 2, "padding": "same", "strides": [1], "dilation_rate": [1], "kernel_regularizer": {"class_name": "L1L2", "config": {"l2": 2.9891174563090317e-05, "l1": 0.0}}, "bias_initializer": {"class_name": "Zeros", "config": {}}, "use_bias": false, "activity_regularizer": null, "kernel_size": [2]}, "inbound_nodes": [[["concatenate_1", 0, 0, {}]]], "name": "dilated_conv_1_sigm_s0"}, {"class_name": "Multiply", "config": {"dtype": "float32", "trainable": true, "name": "gated_activation_0_s0"}, "inbound_nodes": [[["dilated_conv_1_tanh_s0", 0, 0, {}], ["dilated_conv_1_sigm_s0", 0, 0, {}]]], "name": "gated_activation_0_s0"}, {"class_name": "Conv1D", "config": {"kernel_initializer": {"class_name": "VarianceScaling", "config": {"distribution": "uniform", "scale": 1.0, "seed": null, "mode": "fan_avg"}}, "name": "conv1d_1", "kernel_constraint": null, "bias_regularizer": null, "bias_constraint": null, "dtype": "float32", "activation": "linear", "trainable": true, "data_format": "channels_last", "filters": 2, "padding": "same", "strides": [1], "dilation_rate": [1], "kernel_regularizer": {"class_name": "L1L2", "config": {"l2": 2.9891174563090317e-05, "l1": 0.0}}, "bias_initializer": {"class_name": "Zeros", "config": {}}, "use_bias": false, "activity_regularizer": null, "kernel_size": [1]}, "inbound_nodes": [[["gated_activation_0_s0", 0, 0, {}]]], "name": "conv1d_1"}, {"class_name": "Add", "config": {"dtype": "float32", "trainable": true, "name": "add_1"}, "inbound_nodes": [[["concatenate_1", 0, 0, {}], ["conv1d_1", 0, 0, {}]]], "name": "add_1"}, {"class_name": "Dropout", "config": {"name": "dropout_1", "dtype": "float32", "trainable": true, "rate": 0.020166839016, "seed": null, "noise_shape": null}, "inbound_nodes": [[["add_1", 0, 0, {}]]], "name": "dropout_1"}, {"class_name": "Conv1D", "config": {"kernel_initializer": {"class_name": "VarianceScaling", "config": {"distribution": "uniform", "scale": 1.0, "seed": null, "mode": "fan_avg"}}, "name": "dilated_conv_2_tanh_s0", "kernel_constraint": null, "bias_regularizer": null, "bias_constraint": null, "dtype": "float32", "activation": "tanh", "trainable": true, "data_format": "channels_last", "filters": 2, "padding": "same", "strides": [1], "dilation_rate": [2], "kernel_regularizer": {"class_name": "L1L2", "config": {"l2": 2.9891174563090317e-05, "l1": 0.0}}, "bias_initializer": {"class_name": "Zeros", "config": {}}, "use_bias": false, "activity_regularizer": null, "kernel_size": [2]}, "inbound_nodes": [[["dropout_1", 0, 0, {}]]], "name": "dilated_conv_2_tanh_s0"}, {"class_name": "Conv1D", "config": {"kernel_initializer": {"class_name": "VarianceScaling", "config": {"distribution": "uniform", "scale": 1.0, "seed": null, "mode": "fan_avg"}}, "name": "dilated_conv_2_sigm_s0", "kernel_constraint": null, "bias_regularizer": null, "bias_constraint": null, "dtype": "float32", "activation": "sigmoid", "trainable": true, "data_format": "channels_last", "filters": 2, "padding": "same", "strides": [1], "dilation_rate": [2], "kernel_regularizer": {"class_name": "L1L2", "config": {"l2": 2.9891174563090317e-05, "l1": 0.0}}, "bias_initializer": {"class_name": "Zeros", "config": {}}, "use_bias": false, "activity_regularizer": null, "kernel_size": [2]}, "inbound_nodes": [[["dropout_1", 0, 0, {}]]], "name": "dilated_conv_2_sigm_s0"}, {"class_name": "Multiply", "config": {"dtype": "float32", "trainable": true, "name": "gated_activation_1_s0"}, "inbound_nodes": [[["dilated_conv_2_tanh_s0", 0, 0, {}], ["dilated_conv_2_sigm_s0", 0, 0, {}]]], "name": "gated_activation_1_s0"}, {"class_name": "Conv1D", "config": {"kernel_initializer": {"class_name": "VarianceScaling", "config": {"distribution": "uniform", "scale": 1.0, "seed": null, "mode": "fan_avg"}}, "name": "conv1d_3", "kernel_constraint": null, "bias_regularizer": null, "bias_constraint": null, "dtype": "float32", "activation": "linear", "trainable": true, "data_format": "channels_last", "filters": 2, "padding": "same", "strides": [1], "dilation_rate": [1], "kernel_regularizer": {"class_name": "L1L2", "config": {"l2": 2.9891174563090317e-05, "l1": 0.0}}, "bias_initializer": {"class_name": "Zeros", "config": {}}, "use_bias": false, "activity_regularizer": null, "kernel_size": [1]}, "inbound_nodes": [[["gated_activation_1_s0", 0, 0, {}]]], "name": "conv1d_3"}, {"class_name": "Add", "config": {"dtype": "float32", "trainable": true, "name": "add_2"}, "inbound_nodes": [[["dropout_1", 0, 0, {}], ["conv1d_3", 0, 0, {}]]], "name": "add_2"}, {"class_name": "Dropout", "config": {"name": "dropout_2", "dtype": "float32", "trainable": true, "rate": 0.020166839016, "seed": null, "noise_shape": null}, "inbound_nodes": [[["add_2", 0, 0, {}]]], "name": "dropout_2"}, {"class_name": "Conv1D", "config": {"kernel_initializer": {"class_name": "VarianceScaling", "config": {"distribution": "uniform", "scale": 1.0, "seed": null, "mode": "fan_avg"}}, "name": "dilated_conv_4_tanh_s0", "kernel_constraint": null, "bias_regularizer": null, "bias_constraint": null, "dtype": "float32", "activation": "tanh", "trainable": true, "data_format": "channels_last", "filters": 2, "padding": "same", "strides": [1], "dilation_rate": [4], "kernel_regularizer": {"class_name": "L1L2", "config": {"l2": 2.9891174563090317e-05, "l1": 0.0}}, "bias_initializer": {"class_name": "Zeros", "config": {}}, "use_bias": false, "activity_regularizer": null, "kernel_size": [2]}, "inbound_nodes": [[["dropout_2", 0, 0, {}]]], "name": "dilated_conv_4_tanh_s0"}, {"class_name": "Conv1D", "config": {"kernel_initializer": {"class_name": "VarianceScaling", "config": {"distribution": "uniform", "scale": 1.0, "seed": null, "mode": "fan_avg"}}, "name": "dilated_conv_4_sigm_s0", "kernel_constraint": null, "bias_regularizer": null, "bias_constraint": null, "dtype": "float32", "activation": "sigmoid", "trainable": true, "data_format": "channels_last", "filters": 2, "padding": "same", "strides": [1], "dilation_rate": [4], "kernel_regularizer": {"class_name": "L1L2", "config": {"l2": 2.9891174563090317e-05, "l1": 0.0}}, "bias_initializer": {"class_name": "Zeros", "config": {}}, "use_bias": false, "activity_regularizer": null, "kernel_size": [2]}, "inbound_nodes": [[["dropout_2", 0, 0, {}]]], "name": "dilated_conv_4_sigm_s0"}, {"class_name": "Multiply", "config": {"dtype": "float32", "trainable": true, "name": "gated_activation_2_s0"}, "inbound_nodes": [[["dilated_conv_4_tanh_s0", 0, 0, {}], ["dilated_conv_4_sigm_s0", 0, 0, {}]]], "name": "gated_activation_2_s0"}, {"class_name": "Conv1D", "config": {"kernel_initializer": {"class_name": "VarianceScaling", "config": {"distribution": "uniform", "scale": 1.0, "seed": null, "mode": "fan_avg"}}, "name": "conv1d_5", "kernel_constraint": null, "bias_regularizer": null, "bias_constraint": null, "dtype": "float32", "activation": "linear", "trainable": true, "data_format": "channels_last", "filters": 2, "padding": "same", "strides": [1], "dilation_rate": [1], "kernel_regularizer": {"class_name": "L1L2", "config": {"l2": 2.9891174563090317e-05, "l1": 0.0}}, "bias_initializer": {"class_name": "Zeros", "config": {}}, "use_bias": false, "activity_regularizer": null, "kernel_size": [1]}, "inbound_nodes": [[["gated_activation_2_s0", 0, 0, {}]]], "name": "conv1d_5"}, {"class_name": "Add", "config": {"dtype": "float32", "trainable": true, "name": "add_3"}, "inbound_nodes": [[["dropout_2", 0, 0, {}], ["conv1d_5", 0, 0, {}]]], "name": "add_3"}, {"class_name": "Dropout", "config": {"name": "dropout_3", "dtype": "float32", "trainable": true, "rate": 0.020166839016, "seed": null, "noise_shape": null}, "inbound_nodes": [[["add_3", 0, 0, {}]]], "name": "dropout_3"}, {"class_name": "Conv1D", "config": {"kernel_initializer": {"class_name": "VarianceScaling", "config": {"distribution": "uniform", "scale": 1.0, "seed": null, "mode": "fan_avg"}}, "name": "dilated_conv_8_tanh_s0", "kernel_constraint": null, "bias_regularizer": null, "bias_constraint": null, "dtype": "float32", "activation": "tanh", "trainable": true, "data_format": "channels_last", "filters": 2, "padding": "same", "strides": [1], "dilation_rate": [8], "kernel_regularizer": {"class_name": "L1L2", "config": {"l2": 2.9891174563090317e-05, "l1": 0.0}}, "bias_initializer": {"class_name": "Zeros", "config": {}}, "use_bias": false, "activity_regularizer": null, "kernel_size": [2]}, "inbound_nodes": [[["dropout_3", 0, 0, {}]]], "name": "dilated_conv_8_tanh_s0"}, {"class_name": "Conv1D", "config": {"kernel_initializer": {"class_name": "VarianceScaling", "config": {"distribution": "uniform", "scale": 1.0, "seed": null, "mode": "fan_avg"}}, "name": "dilated_conv_8_sigm_s0", "kernel_constraint": null, "bias_regularizer": null, "bias_constraint": null, "dtype": "float32", "activation": "sigmoid", "trainable": true, "data_format": "channels_last", "filters": 2, "padding": "same", "strides": [1], "dilation_rate": [8], "kernel_regularizer": {"class_name": "L1L2", "config": {"l2": 2.9891174563090317e-05, "l1": 0.0}}, "bias_initializer": {"class_name": "Zeros", "config": {}}, "use_bias": false, "activity_regularizer": null, "kernel_size": [2]}, "inbound_nodes": [[["dropout_3", 0, 0, {}]]], "name": "dilated_conv_8_sigm_s0"}, {"class_name": "Multiply", "config": {"dtype": "float32", "trainable": true, "name": "gated_activation_3_s0"}, "inbound_nodes": [[["dilated_conv_8_tanh_s0", 0, 0, {}], ["dilated_conv_8_sigm_s0", 0, 0, {}]]], "name": "gated_activation_3_s0"}, {"class_name": "Conv1D", "config": {"kernel_initializer": {"class_name": "VarianceScaling", "config": {"distribution": "uniform", "scale": 1.0, "seed": null, "mode": "fan_avg"}}, "name": "conv1d_7", "kernel_constraint": null, "bias_regularizer": null, "bias_constraint": null, "dtype": "float32", "activation": "linear", "trainable": true, "data_format": "channels_last", "filters": 2, "padding": "same", "strides": [1], "dilation_rate": [1], "kernel_regularizer": {"class_name": "L1L2", "config": {"l2": 2.9891174563090317e-05, "l1": 0.0}}, "bias_initializer": {"class_name": "Zeros", "config": {}}, "use_bias": false, "activity_regularizer": null, "kernel_size": [1]}, "inbound_nodes": [[["gated_activation_3_s0", 0, 0, {}]]], "name": "conv1d_7"}, {"class_name": "Add", "config": {"dtype": "float32", "trainable": true, "name": "add_4"}, "inbound_nodes": [[["dropout_3", 0, 0, {}], ["conv1d_7", 0, 0, {}]]], "name": "add_4"}, {"class_name": "Dropout", "config": {"name": "dropout_4", "dtype": "float32", "trainable": true, "rate": 0.020166839016, "seed": null, "noise_shape": null}, "inbound_nodes": [[["add_4", 0, 0, {}]]], "name": "dropout_4"}, {"class_name": "Conv1D", "config": {"kernel_initializer": {"class_name": "VarianceScaling", "config": {"distribution": "uniform", "scale": 1.0, "seed": null, "mode": "fan_avg"}}, "name": "dilated_conv_16_tanh_s0", "kernel_constraint": null, "bias_regularizer": null, "bias_constraint": null, "dtype": "float32", "activation": "tanh", "trainable": true, "data_format": "channels_last", "filters": 2, "padding": "same", "strides": [1], "dilation_rate": [16], "kernel_regularizer": {"class_name": "L1L2", "config": {"l2": 2.9891174563090317e-05, "l1": 0.0}}, "bias_initializer": {"class_name": "Zeros", "config": {}}, "use_bias": false, "activity_regularizer": null, "kernel_size": [2]}, "inbound_nodes": [[["dropout_4", 0, 0, {}]]], "name": "dilated_conv_16_tanh_s0"}, {"class_name": "Conv1D", "config": {"kernel_initializer": {"class_name": "VarianceScaling", "config": {"distribution": "uniform", "scale": 1.0, "seed": null, "mode": "fan_avg"}}, "name": "dilated_conv_16_sigm_s0", "kernel_constraint": null, "bias_regularizer": null, "bias_constraint": null, "dtype": "float32", "activation": "sigmoid", "trainable": true, "data_format": "channels_last", "filters": 2, "padding": "same", "strides": [1], "dilation_rate": [16], "kernel_regularizer": {"class_name": "L1L2", "config": {"l2": 2.9891174563090317e-05, "l1": 0.0}}, "bias_initializer": {"class_name": "Zeros", "config": {}}, "use_bias": false, "activity_regularizer": null, "kernel_size": [2]}, "inbound_nodes": [[["dropout_4", 0, 0, {}]]], "name": "dilated_conv_16_sigm_s0"}, {"class_name": "Multiply", "config": {"dtype": "float32", "trainable": true, "name": "gated_activation_4_s0"}, "inbound_nodes": [[["dilated_conv_16_tanh_s0", 0, 0, {}], ["dilated_conv_16_sigm_s0", 0, 0, {}]]], "name": "gated_activation_4_s0"}, {"class_name": "Conv1D", "config": {"kernel_initializer": {"class_name": "VarianceScaling", "config": {"distribution": "uniform", "scale": 1.0, "seed": null, "mode": "fan_avg"}}, "name": "conv1d_9", "kernel_constraint": null, "bias_regularizer": null, "bias_constraint": null, "dtype": "float32", "activation": "linear", "trainable": true, "data_format": "channels_last", "filters": 2, "padding": "same", "strides": [1], "dilation_rate": [1], "kernel_regularizer": {"class_name": "L1L2", "config": {"l2": 2.9891174563090317e-05, "l1": 0.0}}, "bias_initializer": {"class_name": "Zeros", "config": {}}, "use_bias": false, "activity_regularizer": null, "kernel_size": [1]}, "inbound_nodes": [[["gated_activation_4_s0", 0, 0, {}]]], "name": "conv1d_9"}, {"class_name": "Add", "config": {"dtype": "float32", "trainable": true, "name": "add_5"}, "inbound_nodes": [[["dropout_4", 0, 0, {}], ["conv1d_9", 0, 0, {}]]], "name": "add_5"}, {"class_name": "Dropout", "config": {"name": "dropout_5", "dtype": "float32", "trainable": true, "rate": 0.020166839016, "seed": null, "noise_shape": null}, "inbound_nodes": [[["add_5", 0, 0, {}]]], "name": "dropout_5"}, {"class_name": "Conv1D", "config": {"kernel_initializer": {"class_name": "VarianceScaling", "config": {"distribution": "uniform", "scale": 1.0, "seed": null, "mode": "fan_avg"}}, "name": "dilated_conv_32_tanh_s0", "kernel_constraint": null, "bias_regularizer": null, "bias_constraint": null, "dtype": "float32", "activation": "tanh", "trainable": true, "data_format": "channels_last", "filters": 2, "padding": "same", "strides": [1], "dilation_rate": [32], "kernel_regularizer": {"class_name": "L1L2", "config": {"l2": 2.9891174563090317e-05, "l1": 0.0}}, "bias_initializer": {"class_name": "Zeros", "config": {}}, "use_bias": false, "activity_regularizer": null, "kernel_size": [2]}, "inbound_nodes": [[["dropout_5", 0, 0, {}]]], "name": "dilated_conv_32_tanh_s0"}, {"class_name": "Conv1D", "config": {"kernel_initializer": {"class_name": "VarianceScaling", "config": {"distribution": "uniform", "scale": 1.0, "seed": null, "mode": "fan_avg"}}, "name": "dilated_conv_32_sigm_s0", "kernel_constraint": null, "bias_regularizer": null, "bias_constraint": null, "dtype": "float32", "activation": "sigmoid", "trainable": true, "data_format": "channels_last", "filters": 2, "padding": "same", "strides": [1], "dilation_rate": [32], "kernel_regularizer": {"class_name": "L1L2", "config": {"l2": 2.9891174563090317e-05, "l1": 0.0}}, "bias_initializer": {"class_name": "Zeros", "config": {}}, "use_bias": false, "activity_regularizer": null, "kernel_size": [2]}, "inbound_nodes": [[["dropout_5", 0, 0, {}]]], "name": "dilated_conv_32_sigm_s0"}, {"class_name": "Multiply", "config": {"dtype": "float32", "trainable": true, "name": "gated_activation_5_s0"}, "inbound_nodes": [[["dilated_conv_32_tanh_s0", 0, 0, {}], ["dilated_conv_32_sigm_s0", 0, 0, {}]]], "name": "gated_activation_5_s0"}, {"class_name": "Conv1D", "config": {"kernel_initializer": {"class_name": "VarianceScaling", "config": {"distribution": "uniform", "scale": 1.0, "seed": null, "mode": "fan_avg"}}, "name": "conv1d_11", "kernel_constraint": null, "bias_regularizer": null, "bias_constraint": null, "dtype": "float32", "activation": "linear", "trainable": true, "data_format": "channels_last", "filters": 2, "padding": "same", "strides": [1], "dilation_rate": [1], "kernel_regularizer": {"class_name": "L1L2", "config": {"l2": 2.9891174563090317e-05, "l1": 0.0}}, "bias_initializer": {"class_name": "Zeros", "config": {}}, "use_bias": false, "activity_regularizer": null, "kernel_size": [1]}, "inbound_nodes": [[["gated_activation_5_s0", 0, 0, {}]]], "name": "conv1d_11"}, {"class_name": "Add", "config": {"dtype": "float32", "trainable": true, "name": "add_6"}, "inbound_nodes": [[["dropout_5", 0, 0, {}], ["conv1d_11", 0, 0, {}]]], "name": "add_6"}, {"class_name": "Dropout", "config": {"name": "dropout_6", "dtype": "float32", "trainable": true, "rate": 0.020166839016, "seed": null, "noise_shape": null}, "inbound_nodes": [[["add_6", 0, 0, {}]]], "name": "dropout_6"}, {"class_name": "Conv1D", "config": {"kernel_initializer": {"class_name": "VarianceScaling", "config": {"distribution": "uniform", "scale": 1.0, "seed": null, "mode": "fan_avg"}}, "name": "dilated_conv_64_tanh_s0", "kernel_constraint": null, "bias_regularizer": null, "bias_constraint": null, "dtype": "float32", "activation": "tanh", "trainable": true, "data_format": "channels_last", "filters": 2, "padding": "same", "strides": [1], "dilation_rate": [64], "kernel_regularizer": {"class_name": "L1L2", "config": {"l2": 2.9891174563090317e-05, "l1": 0.0}}, "bias_initializer": {"class_name": "Zeros", "config": {}}, "use_bias": false, "activity_regularizer": null, "kernel_size": [2]}, "inbound_nodes": [[["dropout_6", 0, 0, {}]]], "name": "dilated_conv_64_tanh_s0"}, {"class_name": "Conv1D", "config": {"kernel_initializer": {"class_name": "VarianceScaling", "config": {"distribution": "uniform", "scale": 1.0, "seed": null, "mode": "fan_avg"}}, "name": "dilated_conv_64_sigm_s0", "kernel_constraint": null, "bias_regularizer": null, "bias_constraint": null, "dtype": "float32", "activation": "sigmoid", "trainable": true, "data_format": "channels_last", "filters": 2, "padding": "same", "strides": [1], "dilation_rate": [64], "kernel_regularizer": {"class_name": "L1L2", "config": {"l2": 2.9891174563090317e-05, "l1": 0.0}}, "bias_initializer": {"class_name": "Zeros", "config": {}}, "use_bias": false, "activity_regularizer": null, "kernel_size": [2]}, "inbound_nodes": [[["dropout_6", 0, 0, {}]]], "name": "dilated_conv_64_sigm_s0"}, {"class_name": "Multiply", "config": {"dtype": "float32", "trainable": true, "name": "gated_activation_6_s0"}, "inbound_nodes": [[["dilated_conv_64_tanh_s0", 0, 0, {}], ["dilated_conv_64_sigm_s0", 0, 0, {}]]], "name": "gated_activation_6_s0"}, {"class_name": "Conv1D", "config": {"kernel_initializer": {"class_name": "VarianceScaling", "config": {"distribution": "uniform", "scale": 1.0, "seed": null, "mode": "fan_avg"}}, "name": "conv1d_13", "kernel_constraint": null, "bias_regularizer": null, "bias_constraint": null, "dtype": "float32", "activation": "linear", "trainable": true, "data_format": "channels_last", "filters": 2, "padding": "same", "strides": [1], "dilation_rate": [1], "kernel_regularizer": {"class_name": "L1L2", "config": {"l2": 2.9891174563090317e-05, "l1": 0.0}}, "bias_initializer": {"class_name": "Zeros", "config": {}}, "use_bias": false, "activity_regularizer": null, "kernel_size": [1]}, "inbound_nodes": [[["gated_activation_6_s0", 0, 0, {}]]], "name": "conv1d_13"}, {"class_name": "Add", "config": {"dtype": "float32", "trainable": true, "name": "add_7"}, "inbound_nodes": [[["dropout_6", 0, 0, {}], ["conv1d_13", 0, 0, {}]]], "name": "add_7"}, {"class_name": "Dropout", "config": {"name": "dropout_7", "dtype": "float32", "trainable": true, "rate": 0.020166839016, "seed": null, "noise_shape": null}, "inbound_nodes": [[["add_7", 0, 0, {}]]], "name": "dropout_7"}, {"class_name": "Conv1D", "config": {"kernel_initializer": {"class_name": "VarianceScaling", "config": {"distribution": "uniform", "scale": 1.0, "seed": null, "mode": "fan_avg"}}, "name": "dilated_conv_128_tanh_s0", "kernel_constraint": null, "bias_regularizer": null, "bias_constraint": null, "dtype": "float32", "activation": "tanh", "trainable": true, "data_format": "channels_last", "filters": 2, "padding": "same", "strides": [1], "dilation_rate": [128], "kernel_regularizer": {"class_name": "L1L2", "config": {"l2": 2.9891174563090317e-05, "l1": 0.0}}, "bias_initializer": {"class_name": "Zeros", "config": {}}, "use_bias": false, "activity_regularizer": null, "kernel_size": [2]}, "inbound_nodes": [[["dropout_7", 0, 0, {}]]], "name": "dilated_conv_128_tanh_s0"}, {"class_name": "Conv1D", "config": {"kernel_initializer": {"class_name": "VarianceScaling", "config": {"distribution": "uniform", "scale": 1.0, "seed": null, "mode": "fan_avg"}}, "name": "dilated_conv_128_sigm_s0", "kernel_constraint": null, "bias_regularizer": null, "bias_constraint": null, "dtype": "float32", "activation": "sigmoid", "trainable": true, "data_format": "channels_last", "filters": 2, "padding": "same", "strides": [1], "dilation_rate": [128], "kernel_regularizer": {"class_name": "L1L2", "config": {"l2": 2.9891174563090317e-05, "l1": 0.0}}, "bias_initializer": {"class_name": "Zeros", "config": {}}, "use_bias": false, "activity_regularizer": null, "kernel_size": [2]}, "inbound_nodes": [[["dropout_7", 0, 0, {}]]], "name": "dilated_conv_128_sigm_s0"}, {"class_name": "Multiply", "config": {"dtype": "float32", "trainable": true, "name": "gated_activation_7_s0"}, "inbound_nodes": [[["dilated_conv_128_tanh_s0", 0, 0, {}], ["dilated_conv_128_sigm_s0", 0, 0, {}]]], "name": "gated_activation_7_s0"}, {"class_name": "Conv1D", "config": {"kernel_initializer": {"class_name": "VarianceScaling", "config": {"distribution": "uniform", "scale": 1.0, "seed": null, "mode": "fan_avg"}}, "name": "conv1d_15", "kernel_constraint": null, "bias_regularizer": null, "bias_constraint": null, "dtype": "float32", "activation": "linear", "trainable": true, "data_format": "channels_last", "filters": 2, "padding": "same", "strides": [1], "dilation_rate": [1], "kernel_regularizer": {"class_name": "L1L2", "config": {"l2": 2.9891174563090317e-05, "l1": 0.0}}, "bias_initializer": {"class_name": "Zeros", "config": {}}, "use_bias": false, "activity_regularizer": null, "kernel_size": [1]}, "inbound_nodes": [[["gated_activation_7_s0", 0, 0, {}]]], "name": "conv1d_15"}, {"class_name": "Add", "config": {"dtype": "float32", "trainable": true, "name": "add_8"}, "inbound_nodes": [[["dropout_7", 0, 0, {}], ["conv1d_15", 0, 0, {}]]], "name": "add_8"}, {"class_name": "Dropout", "config": {"name": "dropout_8", "dtype": "float32", "trainable": true, "rate": 0.020166839016, "seed": null, "noise_shape": null}, "inbound_nodes": [[["add_8", 0, 0, {}]]], "name": "dropout_8"}, {"class_name": "Conv1D", "config": {"kernel_initializer": {"class_name": "VarianceScaling", "config": {"distribution": "uniform", "scale": 1.0, "seed": null, "mode": "fan_avg"}}, "name": "dilated_conv_256_tanh_s0", "kernel_constraint": null, "bias_regularizer": null, "bias_constraint": null, "dtype": "float32", "activation": "tanh", "trainable": true, "data_format": "channels_last", "filters": 2, "padding": "same", "strides": [1], "dilation_rate": [256], "kernel_regularizer": {"class_name": "L1L2", "config": {"l2": 2.9891174563090317e-05, "l1": 0.0}}, "bias_initializer": {"class_name": "Zeros", "config": {}}, "use_bias": false, "activity_regularizer": null, "kernel_size": [2]}, "inbound_nodes": [[["dropout_8", 0, 0, {}]]], "name": "dilated_conv_256_tanh_s0"}, {"class_name": "Conv1D", "config": {"kernel_initializer": {"class_name": "VarianceScaling", "config": {"distribution": "uniform", "scale": 1.0, "seed": null, "mode": "fan_avg"}}, "name": "dilated_conv_256_sigm_s0", "kernel_constraint": null, "bias_regularizer": null, "bias_constraint": null, "dtype": "float32", "activation": "sigmoid", "trainable": true, "data_format": "channels_last", "filters": 2, "padding": "same", "strides": [1], "dilation_rate": [256], "kernel_regularizer": {"class_name": "L1L2", "config": {"l2": 2.9891174563090317e-05, "l1": 0.0}}, "bias_initializer": {"class_name": "Zeros", "config": {}}, "use_bias": false, "activity_regularizer": null, "kernel_size": [2]}, "inbound_nodes": [[["dropout_8", 0, 0, {}]]], "name": "dilated_conv_256_sigm_s0"}, {"class_name": "Multiply", "config": {"dtype": "float32", "trainable": true, "name": "gated_activation_8_s0"}, "inbound_nodes": [[["dilated_conv_256_tanh_s0", 0, 0, {}], ["dilated_conv_256_sigm_s0", 0, 0, {}]]], "name": "gated_activation_8_s0"}, {"class_name": "Conv1D", "config": {"kernel_initializer": {"class_name": "VarianceScaling", "config": {"distribution": "uniform", "scale": 1.0, "seed": null, "mode": "fan_avg"}}, "name": "conv1d_17", "kernel_constraint": null, "bias_regularizer": null, "bias_constraint": null, "dtype": "float32", "activation": "linear", "trainable": true, "data_format": "channels_last", "filters": 2, "padding": "same", "strides": [1], "dilation_rate": [1], "kernel_regularizer": {"class_name": "L1L2", "config": {"l2": 2.9891174563090317e-05, "l1": 0.0}}, "bias_initializer": {"class_name": "Zeros", "config": {}}, "use_bias": false, "activity_regularizer": null, "kernel_size": [1]}, "inbound_nodes": [[["gated_activation_8_s0", 0, 0, {}]]], "name": "conv1d_17"}, {"class_name": "Add", "config": {"dtype": "float32", "trainable": true, "name": "add_9"}, "inbound_nodes": [[["dropout_8", 0, 0, {}], ["conv1d_17", 0, 0, {}]]], "name": "add_9"}, {"class_name": "Dropout", "config": {"name": "dropout_9", "dtype": "float32", "trainable": true, "rate": 0.020166839016, "seed": null, "noise_shape": null}, "inbound_nodes": [[["add_9", 0, 0, {}]]], "name": "dropout_9"}, {"class_name": "Conv1D", "config": {"kernel_initializer": {"class_name": "VarianceScaling", "config": {"distribution": "uniform", "scale": 1.0, "seed": null, "mode": "fan_avg"}}, "name": "dilated_conv_512_tanh_s0", "kernel_constraint": null, "bias_regularizer": null, "bias_constraint": null, "dtype": "float32", "activation": "tanh", "trainable": true, "data_format": "channels_last", "filters": 2, "padding": "same", "strides": [1], "dilation_rate": [512], "kernel_regularizer": {"class_name": "L1L2", "config": {"l2": 2.9891174563090317e-05, "l1": 0.0}}, "bias_initializer": {"class_name": "Zeros", "config": {}}, "use_bias": false, "activity_regularizer": null, "kernel_size": [2]}, "inbound_nodes": [[["dropout_9", 0, 0, {}]]], "name": "dilated_conv_512_tanh_s0"}, {"class_name": "Conv1D", "config": {"kernel_initializer": {"class_name": "VarianceScaling", "config": {"distribution": "uniform", "scale": 1.0, "seed": null, "mode": "fan_avg"}}, "name": "dilated_conv_512_sigm_s0", "kernel_constraint": null, "bias_regularizer": null, "bias_constraint": null, "dtype": "float32", "activation": "sigmoid", "trainable": true, "data_format": "channels_last", "filters": 2, "padding": "same", "strides": [1], "dilation_rate": [512], "kernel_regularizer": {"class_name": "L1L2", "config": {"l2": 2.9891174563090317e-05, "l1": 0.0}}, "bias_initializer": {"class_name": "Zeros", "config": {}}, "use_bias": false, "activity_regularizer": null, "kernel_size": [2]}, "inbound_nodes": [[["dropout_9", 0, 0, {}]]], "name": "dilated_conv_512_sigm_s0"}, {"class_name": "Multiply", "config": {"dtype": "float32", "trainable": true, "name": "gated_activation_9_s0"}, "inbound_nodes": [[["dilated_conv_512_tanh_s0", 0, 0, {}], ["dilated_conv_512_sigm_s0", 0, 0, {}]]], "name": "gated_activation_9_s0"}, {"class_name": "Conv1D", "config": {"kernel_initializer": {"class_name": "VarianceScaling", "config": {"distribution": "uniform", "scale": 1.0, "seed": null, "mode": "fan_avg"}}, "name": "conv1d_19", "kernel_constraint": null, "bias_regularizer": null, "bias_constraint": null, "dtype": "float32", "activation": "linear", "trainable": true, "data_format": "channels_last", "filters": 2, "padding": "same", "strides": [1], "dilation_rate": [1], "kernel_regularizer": {"class_name": "L1L2", "config": {"l2": 2.9891174563090317e-05, "l1": 0.0}}, "bias_initializer": {"class_name": "Zeros", "config": {}}, "use_bias": false, "activity_regularizer": null, "kernel_size": [1]}, "inbound_nodes": [[["gated_activation_9_s0", 0, 0, {}]]], "name": "conv1d_19"}, {"class_name": "Add", "config": {"dtype": "float32", "trainable": true, "name": "add_10"}, "inbound_nodes": [[["dropout_9", 0, 0, {}], ["conv1d_19", 0, 0, {}]]], "name": "add_10"}, {"class_name": "Dropout", "config": {"name": "dropout_10", "dtype": "float32", "trainable": true, "rate": 0.020166839016, "seed": null, "noise_shape": null}, "inbound_nodes": [[["add_10", 0, 0, {}]]], "name": "dropout_10"}, {"class_name": "Conv1D", "config": {"kernel_initializer": {"class_name": "VarianceScaling", "config": {"distribution": "uniform", "scale": 1.0, "seed": null, "mode": "fan_avg"}}, "name": "dilated_conv_1_tanh_s1", "kernel_constraint": null, "bias_regularizer": null, "bias_constraint": null, "dtype": "float32", "activation": "tanh", "trainable": true, "data_format": "channels_last", "filters": 2, "padding": "same", "strides": [1], "dilation_rate": [1], "kernel_regularizer": {"class_name": "L1L2", "config": {"l2": 2.9891174563090317e-05, "l1": 0.0}}, "bias_initializer": {"class_name": "Zeros", "config": {}}, "use_bias": false, "activity_regularizer": null, "kernel_size": [2]}, "inbound_nodes": [[["dropout_10", 0, 0, {}]]], "name": "dilated_conv_1_tanh_s1"}, {"class_name": "Conv1D", "config": {"kernel_initializer": {"class_name": "VarianceScaling", "config": {"distribution": "uniform", "scale": 1.0, "seed": null, "mode": "fan_avg"}}, "name": "dilated_conv_1_sigm_s1", "kernel_constraint": null, "bias_regularizer": null, "bias_constraint": null, "dtype": "float32", "activation": "sigmoid", "trainable": true, "data_format": "channels_last", "filters": 2, "padding": "same", "strides": [1], "dilation_rate": [1], "kernel_regularizer": {"class_name": "L1L2", "config": {"l2": 2.9891174563090317e-05, "l1": 0.0}}, "bias_initializer": {"class_name": "Zeros", "config": {}}, "use_bias": false, "activity_regularizer": null, "kernel_size": [2]}, "inbound_nodes": [[["dropout_10", 0, 0, {}]]], "name": "dilated_conv_1_sigm_s1"}, {"class_name": "Multiply", "config": {"dtype": "float32", "trainable": true, "name": "gated_activation_0_s1"}, "inbound_nodes": [[["dilated_conv_1_tanh_s1", 0, 0, {}], ["dilated_conv_1_sigm_s1", 0, 0, {}]]], "name": "gated_activation_0_s1"}, {"class_name": "Conv1D", "config": {"kernel_initializer": {"class_name": "VarianceScaling", "config": {"distribution": "uniform", "scale": 1.0, "seed": null, "mode": "fan_avg"}}, "name": "conv1d_21", "kernel_constraint": null, "bias_regularizer": null, "bias_constraint": null, "dtype": "float32", "activation": "linear", "trainable": true, "data_format": "channels_last", "filters": 2, "padding": "same", "strides": [1], "dilation_rate": [1], "kernel_regularizer": {"class_name": "L1L2", "config": {"l2": 2.9891174563090317e-05, "l1": 0.0}}, "bias_initializer": {"class_name": "Zeros", "config": {}}, "use_bias": false, "activity_regularizer": null, "kernel_size": [1]}, "inbound_nodes": [[["gated_activation_0_s1", 0, 0, {}]]], "name": "conv1d_21"}, {"class_name": "Add", "config": {"dtype": "float32", "trainable": true, "name": "add_11"}, "inbound_nodes": [[["dropout_10", 0, 0, {}], ["conv1d_21", 0, 0, {}]]], "name": "add_11"}, {"class_name": "Dropout", "config": {"name": "dropout_11", "dtype": "float32", "trainable": true, "rate": 0.020166839016, "seed": null, "noise_shape": null}, "inbound_nodes": [[["add_11", 0, 0, {}]]], "name": "dropout_11"}, {"class_name": "Conv1D", "config": {"kernel_initializer": {"class_name": "VarianceScaling", "config": {"distribution": "uniform", "scale": 1.0, "seed": null, "mode": "fan_avg"}}, "name": "dilated_conv_2_tanh_s1", "kernel_constraint": null, "bias_regularizer": null, "bias_constraint": null, "dtype": "float32", "activation": "tanh", "trainable": true, "data_format": "channels_last", "filters": 2, "padding": "same", "strides": [1], "dilation_rate": [2], "kernel_regularizer": {"class_name": "L1L2", "config": {"l2": 2.9891174563090317e-05, "l1": 0.0}}, "bias_initializer": {"class_name": "Zeros", "config": {}}, "use_bias": false, "activity_regularizer": null, "kernel_size": [2]}, "inbound_nodes": [[["dropout_11", 0, 0, {}]]], "name": "dilated_conv_2_tanh_s1"}, {"class_name": "Conv1D", "config": {"kernel_initializer": {"class_name": "VarianceScaling", "config": {"distribution": "uniform", "scale": 1.0, "seed": null, "mode": "fan_avg"}}, "name": "dilated_conv_2_sigm_s1", "kernel_constraint": null, "bias_regularizer": null, "bias_constraint": null, "dtype": "float32", "activation": "sigmoid", "trainable": true, "data_format": "channels_last", "filters": 2, "padding": "same", "strides": [1], "dilation_rate": [2], "kernel_regularizer": {"class_name": "L1L2", "config": {"l2": 2.9891174563090317e-05, "l1": 0.0}}, "bias_initializer": {"class_name": "Zeros", "config": {}}, "use_bias": false, "activity_regularizer": null, "kernel_size": [2]}, "inbound_nodes": [[["dropout_11", 0, 0, {}]]], "name": "dilated_conv_2_sigm_s1"}, {"class_name": "Multiply", "config": {"dtype": "float32", "trainable": true, "name": "gated_activation_1_s1"}, "inbound_nodes": [[["dilated_conv_2_tanh_s1", 0, 0, {}], ["dilated_conv_2_sigm_s1", 0, 0, {}]]], "name": "gated_activation_1_s1"}, {"class_name": "Conv1D", "config": {"kernel_initializer": {"class_name": "VarianceScaling", "config": {"distribution": "uniform", "scale": 1.0, "seed": null, "mode": "fan_avg"}}, "name": "conv1d_23", "kernel_constraint": null, "bias_regularizer": null, "bias_constraint": null, "dtype": "float32", "activation": "linear", "trainable": true, "data_format": "channels_last", "filters": 2, "padding": "same", "strides": [1], "dilation_rate": [1], "kernel_regularizer": {"class_name": "L1L2", "config": {"l2": 2.9891174563090317e-05, "l1": 0.0}}, "bias_initializer": {"class_name": "Zeros", "config": {}}, "use_bias": false, "activity_regularizer": null, "kernel_size": [1]}, "inbound_nodes": [[["gated_activation_1_s1", 0, 0, {}]]], "name": "conv1d_23"}, {"class_name": "Add", "config": {"dtype": "float32", "trainable": true, "name": "add_12"}, "inbound_nodes": [[["dropout_11", 0, 0, {}], ["conv1d_23", 0, 0, {}]]], "name": "add_12"}, {"class_name": "Dropout", "config": {"name": "dropout_12", "dtype": "float32", "trainable": true, "rate": 0.020166839016, "seed": null, "noise_shape": null}, "inbound_nodes": [[["add_12", 0, 0, {}]]], "name": "dropout_12"}, {"class_name": "Conv1D", "config": {"kernel_initializer": {"class_name": "VarianceScaling", "config": {"distribution": "uniform", "scale": 1.0, "seed": null, "mode": "fan_avg"}}, "name": "dilated_conv_4_tanh_s1", "kernel_constraint": null, "bias_regularizer": null, "bias_constraint": null, "dtype": "float32", "activation": "tanh", "trainable": true, "data_format": "channels_last", "filters": 2, "padding": "same", "strides": [1], "dilation_rate": [4], "kernel_regularizer": {"class_name": "L1L2", "config": {"l2": 2.9891174563090317e-05, "l1": 0.0}}, "bias_initializer": {"class_name": "Zeros", "config": {}}, "use_bias": false, "activity_regularizer": null, "kernel_size": [2]}, "inbound_nodes": [[["dropout_12", 0, 0, {}]]], "name": "dilated_conv_4_tanh_s1"}, {"class_name": "Conv1D", "config": {"kernel_initializer": {"class_name": "VarianceScaling", "config": {"distribution": "uniform", "scale": 1.0, "seed": null, "mode": "fan_avg"}}, "name": "dilated_conv_4_sigm_s1", "kernel_constraint": null, "bias_regularizer": null, "bias_constraint": null, "dtype": "float32", "activation": "sigmoid", "trainable": true, "data_format": "channels_last", "filters": 2, "padding": "same", "strides": [1], "dilation_rate": [4], "kernel_regularizer": {"class_name": "L1L2", "config": {"l2": 2.9891174563090317e-05, "l1": 0.0}}, "bias_initializer": {"class_name": "Zeros", "config": {}}, "use_bias": false, "activity_regularizer": null, "kernel_size": [2]}, "inbound_nodes": [[["dropout_12", 0, 0, {}]]], "name": "dilated_conv_4_sigm_s1"}, {"class_name": "Multiply", "config": {"dtype": "float32", "trainable": true, "name": "gated_activation_2_s1"}, "inbound_nodes": [[["dilated_conv_4_tanh_s1", 0, 0, {}], ["dilated_conv_4_sigm_s1", 0, 0, {}]]], "name": "gated_activation_2_s1"}, {"class_name": "Conv1D", "config": {"kernel_initializer": {"class_name": "VarianceScaling", "config": {"distribution": "uniform", "scale": 1.0, "seed": null, "mode": "fan_avg"}}, "name": "conv1d_25", "kernel_constraint": null, "bias_regularizer": null, "bias_constraint": null, "dtype": "float32", "activation": "linear", "trainable": true, "data_format": "channels_last", "filters": 2, "padding": "same", "strides": [1], "dilation_rate": [1], "kernel_regularizer": {"class_name": "L1L2", "config": {"l2": 2.9891174563090317e-05, "l1": 0.0}}, "bias_initializer": {"class_name": "Zeros", "config": {}}, "use_bias": false, "activity_regularizer": null, "kernel_size": [1]}, "inbound_nodes": [[["gated_activation_2_s1", 0, 0, {}]]], "name": "conv1d_25"}, {"class_name": "Add", "config": {"dtype": "float32", "trainable": true, "name": "add_13"}, "inbound_nodes": [[["dropout_12", 0, 0, {}], ["conv1d_25", 0, 0, {}]]], "name": "add_13"}, {"class_name": "Dropout", "config": {"name": "dropout_13", "dtype": "float32", "trainable": true, "rate": 0.020166839016, "seed": null, "noise_shape": null}, "inbound_nodes": [[["add_13", 0, 0, {}]]], "name": "dropout_13"}, {"class_name": "Conv1D", "config": {"kernel_initializer": {"class_name": "VarianceScaling", "config": {"distribution": "uniform", "scale": 1.0, "seed": null, "mode": "fan_avg"}}, "name": "dilated_conv_8_tanh_s1", "kernel_constraint": null, "bias_regularizer": null, "bias_constraint": null, "dtype": "float32", "activation": "tanh", "trainable": true, "data_format": "channels_last", "filters": 2, "padding": "same", "strides": [1], "dilation_rate": [8], "kernel_regularizer": {"class_name": "L1L2", "config": {"l2": 2.9891174563090317e-05, "l1": 0.0}}, "bias_initializer": {"class_name": "Zeros", "config": {}}, "use_bias": false, "activity_regularizer": null, "kernel_size": [2]}, "inbound_nodes": [[["dropout_13", 0, 0, {}]]], "name": "dilated_conv_8_tanh_s1"}, {"class_name": "Conv1D", "config": {"kernel_initializer": {"class_name": "VarianceScaling", "config": {"distribution": "uniform", "scale": 1.0, "seed": null, "mode": "fan_avg"}}, "name": "dilated_conv_8_sigm_s1", "kernel_constraint": null, "bias_regularizer": null, "bias_constraint": null, "dtype": "float32", "activation": "sigmoid", "trainable": true, "data_format": "channels_last", "filters": 2, "padding": "same", "strides": [1], "dilation_rate": [8], "kernel_regularizer": {"class_name": "L1L2", "config": {"l2": 2.9891174563090317e-05, "l1": 0.0}}, "bias_initializer": {"class_name": "Zeros", "config": {}}, "use_bias": false, "activity_regularizer": null, "kernel_size": [2]}, "inbound_nodes": [[["dropout_13", 0, 0, {}]]], "name": "dilated_conv_8_sigm_s1"}, {"class_name": "Multiply", "config": {"dtype": "float32", "trainable": true, "name": "gated_activation_3_s1"}, "inbound_nodes": [[["dilated_conv_8_tanh_s1", 0, 0, {}], ["dilated_conv_8_sigm_s1", 0, 0, {}]]], "name": "gated_activation_3_s1"}, {"class_name": "Conv1D", "config": {"kernel_initializer": {"class_name": "VarianceScaling", "config": {"distribution": "uniform", "scale": 1.0, "seed": null, "mode": "fan_avg"}}, "name": "conv1d_27", "kernel_constraint": null, "bias_regularizer": null, "bias_constraint": null, "dtype": "float32", "activation": "linear", "trainable": true, "data_format": "channels_last", "filters": 2, "padding": "same", "strides": [1], "dilation_rate": [1], "kernel_regularizer": {"class_name": "L1L2", "config": {"l2": 2.9891174563090317e-05, "l1": 0.0}}, "bias_initializer": {"class_name": "Zeros", "config": {}}, "use_bias": false, "activity_regularizer": null, "kernel_size": [1]}, "inbound_nodes": [[["gated_activation_3_s1", 0, 0, {}]]], "name": "conv1d_27"}, {"class_name": "Add", "config": {"dtype": "float32", "trainable": true, "name": "add_14"}, "inbound_nodes": [[["dropout_13", 0, 0, {}], ["conv1d_27", 0, 0, {}]]], "name": "add_14"}, {"class_name": "Dropout", "config": {"name": "dropout_14", "dtype": "float32", "trainable": true, "rate": 0.020166839016, "seed": null, "noise_shape": null}, "inbound_nodes": [[["add_14", 0, 0, {}]]], "name": "dropout_14"}, {"class_name": "Conv1D", "config": {"kernel_initializer": {"class_name": "VarianceScaling", "config": {"distribution": "uniform", "scale": 1.0, "seed": null, "mode": "fan_avg"}}, "name": "dilated_conv_16_tanh_s1", "kernel_constraint": null, "bias_regularizer": null, "bias_constraint": null, "dtype": "float32", "activation": "tanh", "trainable": true, "data_format": "channels_last", "filters": 2, "padding": "same", "strides": [1], "dilation_rate": [16], "kernel_regularizer": {"class_name": "L1L2", "config": {"l2": 2.9891174563090317e-05, "l1": 0.0}}, "bias_initializer": {"class_name": "Zeros", "config": {}}, "use_bias": false, "activity_regularizer": null, "kernel_size": [2]}, "inbound_nodes": [[["dropout_14", 0, 0, {}]]], "name": "dilated_conv_16_tanh_s1"}, {"class_name": "Conv1D", "config": {"kernel_initializer": {"class_name": "VarianceScaling", "config": {"distribution": "uniform", "scale": 1.0, "seed": null, "mode": "fan_avg"}}, "name": "dilated_conv_16_sigm_s1", "kernel_constraint": null, "bias_regularizer": null, "bias_constraint": null, "dtype": "float32", "activation": "sigmoid", "trainable": true, "data_format": "channels_last", "filters": 2, "padding": "same", "strides": [1], "dilation_rate": [16], "kernel_regularizer": {"class_name": "L1L2", "config": {"l2": 2.9891174563090317e-05, "l1": 0.0}}, "bias_initializer": {"class_name": "Zeros", "config": {}}, "use_bias": false, "activity_regularizer": null, "kernel_size": [2]}, "inbound_nodes": [[["dropout_14", 0, 0, {}]]], "name": "dilated_conv_16_sigm_s1"}, {"class_name": "Multiply", "config": {"dtype": "float32", "trainable": true, "name": "gated_activation_4_s1"}, "inbound_nodes": [[["dilated_conv_16_tanh_s1", 0, 0, {}], ["dilated_conv_16_sigm_s1", 0, 0, {}]]], "name": "gated_activation_4_s1"}, {"class_name": "Conv1D", "config": {"kernel_initializer": {"class_name": "VarianceScaling", "config": {"distribution": "uniform", "scale": 1.0, "seed": null, "mode": "fan_avg"}}, "name": "conv1d_29", "kernel_constraint": null, "bias_regularizer": null, "bias_constraint": null, "dtype": "float32", "activation": "linear", "trainable": true, "data_format": "channels_last", "filters": 2, "padding": "same", "strides": [1], "dilation_rate": [1], "kernel_regularizer": {"class_name": "L1L2", "config": {"l2": 2.9891174563090317e-05, "l1": 0.0}}, "bias_initializer": {"class_name": "Zeros", "config": {}}, "use_bias": false, "activity_regularizer": null, "kernel_size": [1]}, "inbound_nodes": [[["gated_activation_4_s1", 0, 0, {}]]], "name": "conv1d_29"}, {"class_name": "Add", "config": {"dtype": "float32", "trainable": true, "name": "add_15"}, "inbound_nodes": [[["dropout_14", 0, 0, {}], ["conv1d_29", 0, 0, {}]]], "name": "add_15"}, {"class_name": "Dropout", "config": {"name": "dropout_15", "dtype": "float32", "trainable": true, "rate": 0.020166839016, "seed": null, "noise_shape": null}, "inbound_nodes": [[["add_15", 0, 0, {}]]], "name": "dropout_15"}, {"class_name": "Conv1D", "config": {"kernel_initializer": {"class_name": "VarianceScaling", "config": {"distribution": "uniform", "scale": 1.0, "seed": null, "mode": "fan_avg"}}, "name": "dilated_conv_32_tanh_s1", "kernel_constraint": null, "bias_regularizer": null, "bias_constraint": null, "dtype": "float32", "activation": "tanh", "trainable": true, "data_format": "channels_last", "filters": 2, "padding": "same", "strides": [1], "dilation_rate": [32], "kernel_regularizer": {"class_name": "L1L2", "config": {"l2": 2.9891174563090317e-05, "l1": 0.0}}, "bias_initializer": {"class_name": "Zeros", "config": {}}, "use_bias": false, "activity_regularizer": null, "kernel_size": [2]}, "inbound_nodes": [[["dropout_15", 0, 0, {}]]], "name": "dilated_conv_32_tanh_s1"}, {"class_name": "Conv1D", "config": {"kernel_initializer": {"class_name": "VarianceScaling", "config": {"distribution": "uniform", "scale": 1.0, "seed": null, "mode": "fan_avg"}}, "name": "dilated_conv_32_sigm_s1", "kernel_constraint": null, "bias_regularizer": null, "bias_constraint": null, "dtype": "float32", "activation": "sigmoid", "trainable": true, "data_format": "channels_last", "filters": 2, "padding": "same", "strides": [1], "dilation_rate": [32], "kernel_regularizer": {"class_name": "L1L2", "config": {"l2": 2.9891174563090317e-05, "l1": 0.0}}, "bias_initializer": {"class_name": "Zeros", "config": {}}, "use_bias": false, "activity_regularizer": null, "kernel_size": [2]}, "inbound_nodes": [[["dropout_15", 0, 0, {}]]], "name": "dilated_conv_32_sigm_s1"}, {"class_name": "Multiply", "config": {"dtype": "float32", "trainable": true, "name": "gated_activation_5_s1"}, "inbound_nodes": [[["dilated_conv_32_tanh_s1", 0, 0, {}], ["dilated_conv_32_sigm_s1", 0, 0, {}]]], "name": "gated_activation_5_s1"}, {"class_name": "Conv1D", "config": {"kernel_initializer": {"class_name": "VarianceScaling", "config": {"distribution": "uniform", "scale": 1.0, "seed": null, "mode": "fan_avg"}}, "name": "conv1d_31", "kernel_constraint": null, "bias_regularizer": null, "bias_constraint": null, "dtype": "float32", "activation": "linear", "trainable": true, "data_format": "channels_last", "filters": 2, "padding": "same", "strides": [1], "dilation_rate": [1], "kernel_regularizer": {"class_name": "L1L2", "config": {"l2": 2.9891174563090317e-05, "l1": 0.0}}, "bias_initializer": {"class_name": "Zeros", "config": {}}, "use_bias": false, "activity_regularizer": null, "kernel_size": [1]}, "inbound_nodes": [[["gated_activation_5_s1", 0, 0, {}]]], "name": "conv1d_31"}, {"class_name": "Add", "config": {"dtype": "float32", "trainable": true, "name": "add_16"}, "inbound_nodes": [[["dropout_15", 0, 0, {}], ["conv1d_31", 0, 0, {}]]], "name": "add_16"}, {"class_name": "Dropout", "config": {"name": "dropout_16", "dtype": "float32", "trainable": true, "rate": 0.020166839016, "seed": null, "noise_shape": null}, "inbound_nodes": [[["add_16", 0, 0, {}]]], "name": "dropout_16"}, {"class_name": "Conv1D", "config": {"kernel_initializer": {"class_name": "VarianceScaling", "config": {"distribution": "uniform", "scale": 1.0, "seed": null, "mode": "fan_avg"}}, "name": "dilated_conv_64_tanh_s1", "kernel_constraint": null, "bias_regularizer": null, "bias_constraint": null, "dtype": "float32", "activation": "tanh", "trainable": true, "data_format": "channels_last", "filters": 2, "padding": "same", "strides": [1], "dilation_rate": [64], "kernel_regularizer": {"class_name": "L1L2", "config": {"l2": 2.9891174563090317e-05, "l1": 0.0}}, "bias_initializer": {"class_name": "Zeros", "config": {}}, "use_bias": false, "activity_regularizer": null, "kernel_size": [2]}, "inbound_nodes": [[["dropout_16", 0, 0, {}]]], "name": "dilated_conv_64_tanh_s1"}, {"class_name": "Conv1D", "config": {"kernel_initializer": {"class_name": "VarianceScaling", "config": {"distribution": "uniform", "scale": 1.0, "seed": null, "mode": "fan_avg"}}, "name": "dilated_conv_64_sigm_s1", "kernel_constraint": null, "bias_regularizer": null, "bias_constraint": null, "dtype": "float32", "activation": "sigmoid", "trainable": true, "data_format": "channels_last", "filters": 2, "padding": "same", "strides": [1], "dilation_rate": [64], "kernel_regularizer": {"class_name": "L1L2", "config": {"l2": 2.9891174563090317e-05, "l1": 0.0}}, "bias_initializer": {"class_name": "Zeros", "config": {}}, "use_bias": false, "activity_regularizer": null, "kernel_size": [2]}, "inbound_nodes": [[["dropout_16", 0, 0, {}]]], "name": "dilated_conv_64_sigm_s1"}, {"class_name": "Multiply", "config": {"dtype": "float32", "trainable": true, "name": "gated_activation_6_s1"}, "inbound_nodes": [[["dilated_conv_64_tanh_s1", 0, 0, {}], ["dilated_conv_64_sigm_s1", 0, 0, {}]]], "name": "gated_activation_6_s1"}, {"class_name": "Conv1D", "config": {"kernel_initializer": {"class_name": "VarianceScaling", "config": {"distribution": "uniform", "scale": 1.0, "seed": null, "mode": "fan_avg"}}, "name": "conv1d_33", "kernel_constraint": null, "bias_regularizer": null, "bias_constraint": null, "dtype": "float32", "activation": "linear", "trainable": true, "data_format": "channels_last", "filters": 2, "padding": "same", "strides": [1], "dilation_rate": [1], "kernel_regularizer": {"class_name": "L1L2", "config": {"l2": 2.9891174563090317e-05, "l1": 0.0}}, "bias_initializer": {"class_name": "Zeros", "config": {}}, "use_bias": false, "activity_regularizer": null, "kernel_size": [1]}, "inbound_nodes": [[["gated_activation_6_s1", 0, 0, {}]]], "name": "conv1d_33"}, {"class_name": "Add", "config": {"dtype": "float32", "trainable": true, "name": "add_17"}, "inbound_nodes": [[["dropout_16", 0, 0, {}], ["conv1d_33", 0, 0, {}]]], "name": "add_17"}, {"class_name": "Dropout", "config": {"name": "dropout_17", "dtype": "float32", "trainable": true, "rate": 0.020166839016, "seed": null, "noise_shape": null}, "inbound_nodes": [[["add_17", 0, 0, {}]]], "name": "dropout_17"}, {"class_name": "Conv1D", "config": {"kernel_initializer": {"class_name": "VarianceScaling", "config": {"distribution": "uniform", "scale": 1.0, "seed": null, "mode": "fan_avg"}}, "name": "dilated_conv_128_tanh_s1", "kernel_constraint": null, "bias_regularizer": null, "bias_constraint": null, "dtype": "float32", "activation": "tanh", "trainable": true, "data_format": "channels_last", "filters": 2, "padding": "same", "strides": [1], "dilation_rate": [128], "kernel_regularizer": {"class_name": "L1L2", "config": {"l2": 2.9891174563090317e-05, "l1": 0.0}}, "bias_initializer": {"class_name": "Zeros", "config": {}}, "use_bias": false, "activity_regularizer": null, "kernel_size": [2]}, "inbound_nodes": [[["dropout_17", 0, 0, {}]]], "name": "dilated_conv_128_tanh_s1"}, {"class_name": "Conv1D", "config": {"kernel_initializer": {"class_name": "VarianceScaling", "config": {"distribution": "uniform", "scale": 1.0, "seed": null, "mode": "fan_avg"}}, "name": "dilated_conv_128_sigm_s1", "kernel_constraint": null, "bias_regularizer": null, "bias_constraint": null, "dtype": "float32", "activation": "sigmoid", "trainable": true, "data_format": "channels_last", "filters": 2, "padding": "same", "strides": [1], "dilation_rate": [128], "kernel_regularizer": {"class_name": "L1L2", "config": {"l2": 2.9891174563090317e-05, "l1": 0.0}}, "bias_initializer": {"class_name": "Zeros", "config": {}}, "use_bias": false, "activity_regularizer": null, "kernel_size": [2]}, "inbound_nodes": [[["dropout_17", 0, 0, {}]]], "name": "dilated_conv_128_sigm_s1"}, {"class_name": "Multiply", "config": {"dtype": "float32", "trainable": true, "name": "gated_activation_7_s1"}, "inbound_nodes": [[["dilated_conv_128_tanh_s1", 0, 0, {}], ["dilated_conv_128_sigm_s1", 0, 0, {}]]], "name": "gated_activation_7_s1"}, {"class_name": "Conv1D", "config": {"kernel_initializer": {"class_name": "VarianceScaling", "config": {"distribution": "uniform", "scale": 1.0, "seed": null, "mode": "fan_avg"}}, "name": "conv1d_35", "kernel_constraint": null, "bias_regularizer": null, "bias_constraint": null, "dtype": "float32", "activation": "linear", "trainable": true, "data_format": "channels_last", "filters": 2, "padding": "same", "strides": [1], "dilation_rate": [1], "kernel_regularizer": {"class_name": "L1L2", "config": {"l2": 2.9891174563090317e-05, "l1": 0.0}}, "bias_initializer": {"class_name": "Zeros", "config": {}}, "use_bias": false, "activity_regularizer": null, "kernel_size": [1]}, "inbound_nodes": [[["gated_activation_7_s1", 0, 0, {}]]], "name": "conv1d_35"}, {"class_name": "Add", "config": {"dtype": "float32", "trainable": true, "name": "add_18"}, "inbound_nodes": [[["dropout_17", 0, 0, {}], ["conv1d_35", 0, 0, {}]]], "name": "add_18"}, {"class_name": "Dropout", "config": {"name": "dropout_18", "dtype": "float32", "trainable": true, "rate": 0.020166839016, "seed": null, "noise_shape": null}, "inbound_nodes": [[["add_18", 0, 0, {}]]], "name": "dropout_18"}, {"class_name": "Conv1D", "config": {"kernel_initializer": {"class_name": "VarianceScaling", "config": {"distribution": "uniform", "scale": 1.0, "seed": null, "mode": "fan_avg"}}, "name": "dilated_conv_256_tanh_s1", "kernel_constraint": null, "bias_regularizer": null, "bias_constraint": null, "dtype": "float32", "activation": "tanh", "trainable": true, "data_format": "channels_last", "filters": 2, "padding": "same", "strides": [1], "dilation_rate": [256], "kernel_regularizer": {"class_name": "L1L2", "config": {"l2": 2.9891174563090317e-05, "l1": 0.0}}, "bias_initializer": {"class_name": "Zeros", "config": {}}, "use_bias": false, "activity_regularizer": null, "kernel_size": [2]}, "inbound_nodes": [[["dropout_18", 0, 0, {}]]], "name": "dilated_conv_256_tanh_s1"}, {"class_name": "Conv1D", "config": {"kernel_initializer": {"class_name": "VarianceScaling", "config": {"distribution": "uniform", "scale": 1.0, "seed": null, "mode": "fan_avg"}}, "name": "dilated_conv_256_sigm_s1", "kernel_constraint": null, "bias_regularizer": null, "bias_constraint": null, "dtype": "float32", "activation": "sigmoid", "trainable": true, "data_format": "channels_last", "filters": 2, "padding": "same", "strides": [1], "dilation_rate": [256], "kernel_regularizer": {"class_name": "L1L2", "config": {"l2": 2.9891174563090317e-05, "l1": 0.0}}, "bias_initializer": {"class_name": "Zeros", "config": {}}, "use_bias": false, "activity_regularizer": null, "kernel_size": [2]}, "inbound_nodes": [[["dropout_18", 0, 0, {}]]], "name": "dilated_conv_256_sigm_s1"}, {"class_name": "Multiply", "config": {"dtype": "float32", "trainable": true, "name": "gated_activation_8_s1"}, "inbound_nodes": [[["dilated_conv_256_tanh_s1", 0, 0, {}], ["dilated_conv_256_sigm_s1", 0, 0, {}]]], "name": "gated_activation_8_s1"}, {"class_name": "Conv1D", "config": {"kernel_initializer": {"class_name": "VarianceScaling", "config": {"distribution": "uniform", "scale": 1.0, "seed": null, "mode": "fan_avg"}}, "name": "conv1d_37", "kernel_constraint": null, "bias_regularizer": null, "bias_constraint": null, "dtype": "float32", "activation": "linear", "trainable": true, "data_format": "channels_last", "filters": 2, "padding": "same", "strides": [1], "dilation_rate": [1], "kernel_regularizer": {"class_name": "L1L2", "config": {"l2": 2.9891174563090317e-05, "l1": 0.0}}, "bias_initializer": {"class_name": "Zeros", "config": {}}, "use_bias": false, "activity_regularizer": null, "kernel_size": [1]}, "inbound_nodes": [[["gated_activation_8_s1", 0, 0, {}]]], "name": "conv1d_37"}, {"class_name": "Add", "config": {"dtype": "float32", "trainable": true, "name": "add_19"}, "inbound_nodes": [[["dropout_18", 0, 0, {}], ["conv1d_37", 0, 0, {}]]], "name": "add_19"}, {"class_name": "Dropout", "config": {"name": "dropout_19", "dtype": "float32", "trainable": true, "rate": 0.020166839016, "seed": null, "noise_shape": null}, "inbound_nodes": [[["add_19", 0, 0, {}]]], "name": "dropout_19"}, {"class_name": "Conv1D", "config": {"kernel_initializer": {"class_name": "VarianceScaling", "config": {"distribution": "uniform", "scale": 1.0, "seed": null, "mode": "fan_avg"}}, "name": "dilated_conv_512_tanh_s1", "kernel_constraint": null, "bias_regularizer": null, "bias_constraint": null, "dtype": "float32", "activation": "tanh", "trainable": true, "data_format": "channels_last", "filters": 2, "padding": "same", "strides": [1], "dilation_rate": [512], "kernel_regularizer": {"class_name": "L1L2", "config": {"l2": 2.9891174563090317e-05, "l1": 0.0}}, "bias_initializer": {"class_name": "Zeros", "config": {}}, "use_bias": false, "activity_regularizer": null, "kernel_size": [2]}, "inbound_nodes": [[["dropout_19", 0, 0, {}]]], "name": "dilated_conv_512_tanh_s1"}, {"class_name": "Conv1D", "config": {"kernel_initializer": {"class_name": "VarianceScaling", "config": {"distribution": "uniform", "scale": 1.0, "seed": null, "mode": "fan_avg"}}, "name": "dilated_conv_512_sigm_s1", "kernel_constraint": null, "bias_regularizer": null, "bias_constraint": null, "dtype": "float32", "activation": "sigmoid", "trainable": true, "data_format": "channels_last", "filters": 2, "padding": "same", "strides": [1], "dilation_rate": [512], "kernel_regularizer": {"class_name": "L1L2", "config": {"l2": 2.9891174563090317e-05, "l1": 0.0}}, "bias_initializer": {"class_name": "Zeros", "config": {}}, "use_bias": false, "activity_regularizer": null, "kernel_size": [2]}, "inbound_nodes": [[["dropout_19", 0, 0, {}]]], "name": "dilated_conv_512_sigm_s1"}, {"class_name": "Multiply", "config": {"dtype": "float32", "trainable": true, "name": "gated_activation_9_s1"}, "inbound_nodes": [[["dilated_conv_512_tanh_s1", 0, 0, {}], ["dilated_conv_512_sigm_s1", 0, 0, {}]]], "name": "gated_activation_9_s1"}, {"class_name": "Conv1D", "config": {"kernel_initializer": {"class_name": "VarianceScaling", "config": {"distribution": "uniform", "scale": 1.0, "seed": null, "mode": "fan_avg"}}, "name": "conv1d_39", "kernel_constraint": null, "bias_regularizer": null, "bias_constraint": null, "dtype": "float32", "activation": "linear", "trainable": true, "data_format": "channels_last", "filters": 2, "padding": "same", "strides": [1], "dilation_rate": [1], "kernel_regularizer": {"class_name": "L1L2", "config": {"l2": 2.9891174563090317e-05, "l1": 0.0}}, "bias_initializer": {"class_name": "Zeros", "config": {}}, "use_bias": false, "activity_regularizer": null, "kernel_size": [1]}, "inbound_nodes": [[["gated_activation_9_s1", 0, 0, {}]]], "name": "conv1d_39"}, {"class_name": "Add", "config": {"dtype": "float32", "trainable": true, "name": "add_20"}, "inbound_nodes": [[["dropout_19", 0, 0, {}], ["conv1d_39", 0, 0, {}]]], "name": "add_20"}, {"class_name": "Dropout", "config": {"name": "dropout_20", "dtype": "float32", "trainable": true, "rate": 0.020166839016, "seed": null, "noise_shape": null}, "inbound_nodes": [[["add_20", 0, 0, {}]]], "name": "dropout_20"}, {"class_name": "Conv1D", "config": {"kernel_initializer": {"class_name": "VarianceScaling", "config": {"distribution": "uniform", "scale": 1.0, "seed": null, "mode": "fan_avg"}}, "name": "dilated_conv_1_tanh_s2", "kernel_constraint": null, "bias_regularizer": null, "bias_constraint": null, "dtype": "float32", "activation": "tanh", "trainable": true, "data_format": "channels_last", "filters": 2, "padding": "same", "strides": [1], "dilation_rate": [1], "kernel_regularizer": {"class_name": "L1L2", "config": {"l2": 2.9891174563090317e-05, "l1": 0.0}}, "bias_initializer": {"class_name": "Zeros", "config": {}}, "use_bias": false, "activity_regularizer": null, "kernel_size": [2]}, "inbound_nodes": [[["dropout_20", 0, 0, {}]]], "name": "dilated_conv_1_tanh_s2"}, {"class_name": "Conv1D", "config": {"kernel_initializer": {"class_name": "VarianceScaling", "config": {"distribution": "uniform", "scale": 1.0, "seed": null, "mode": "fan_avg"}}, "name": "dilated_conv_1_sigm_s2", "kernel_constraint": null, "bias_regularizer": null, "bias_constraint": null, "dtype": "float32", "activation": "sigmoid", "trainable": true, "data_format": "channels_last", "filters": 2, "padding": "same", "strides": [1], "dilation_rate": [1], "kernel_regularizer": {"class_name": "L1L2", "config": {"l2": 2.9891174563090317e-05, "l1": 0.0}}, "bias_initializer": {"class_name": "Zeros", "config": {}}, "use_bias": false, "activity_regularizer": null, "kernel_size": [2]}, "inbound_nodes": [[["dropout_20", 0, 0, {}]]], "name": "dilated_conv_1_sigm_s2"}, {"class_name": "Multiply", "config": {"dtype": "float32", "trainable": true, "name": "gated_activation_0_s2"}, "inbound_nodes": [[["dilated_conv_1_tanh_s2", 0, 0, {}], ["dilated_conv_1_sigm_s2", 0, 0, {}]]], "name": "gated_activation_0_s2"}, {"class_name": "Conv1D", "config": {"kernel_initializer": {"class_name": "VarianceScaling", "config": {"distribution": "uniform", "scale": 1.0, "seed": null, "mode": "fan_avg"}}, "name": "conv1d_41", "kernel_constraint": null, "bias_regularizer": null, "bias_constraint": null, "dtype": "float32", "activation": "linear", "trainable": true, "data_format": "channels_last", "filters": 2, "padding": "same", "strides": [1], "dilation_rate": [1], "kernel_regularizer": {"class_name": "L1L2", "config": {"l2": 2.9891174563090317e-05, "l1": 0.0}}, "bias_initializer": {"class_name": "Zeros", "config": {}}, "use_bias": false, "activity_regularizer": null, "kernel_size": [1]}, "inbound_nodes": [[["gated_activation_0_s2", 0, 0, {}]]], "name": "conv1d_41"}, {"class_name": "Add", "config": {"dtype": "float32", "trainable": true, "name": "add_21"}, "inbound_nodes": [[["dropout_20", 0, 0, {}], ["conv1d_41", 0, 0, {}]]], "name": "add_21"}, {"class_name": "Dropout", "config": {"name": "dropout_21", "dtype": "float32", "trainable": true, "rate": 0.020166839016, "seed": null, "noise_shape": null}, "inbound_nodes": [[["add_21", 0, 0, {}]]], "name": "dropout_21"}, {"class_name": "Conv1D", "config": {"kernel_initializer": {"class_name": "VarianceScaling", "config": {"distribution": "uniform", "scale": 1.0, "seed": null, "mode": "fan_avg"}}, "name": "dilated_conv_2_tanh_s2", "kernel_constraint": null, "bias_regularizer": null, "bias_constraint": null, "dtype": "float32", "activation": "tanh", "trainable": true, "data_format": "channels_last", "filters": 2, "padding": "same", "strides": [1], "dilation_rate": [2], "kernel_regularizer": {"class_name": "L1L2", "config": {"l2": 2.9891174563090317e-05, "l1": 0.0}}, "bias_initializer": {"class_name": "Zeros", "config": {}}, "use_bias": false, "activity_regularizer": null, "kernel_size": [2]}, "inbound_nodes": [[["dropout_21", 0, 0, {}]]], "name": "dilated_conv_2_tanh_s2"}, {"class_name": "Conv1D", "config": {"kernel_initializer": {"class_name": "VarianceScaling", "config": {"distribution": "uniform", "scale": 1.0, "seed": null, "mode": "fan_avg"}}, "name": "dilated_conv_2_sigm_s2", "kernel_constraint": null, "bias_regularizer": null, "bias_constraint": null, "dtype": "float32", "activation": "sigmoid", "trainable": true, "data_format": "channels_last", "filters": 2, "padding": "same", "strides": [1], "dilation_rate": [2], "kernel_regularizer": {"class_name": "L1L2", "config": {"l2": 2.9891174563090317e-05, "l1": 0.0}}, "bias_initializer": {"class_name": "Zeros", "config": {}}, "use_bias": false, "activity_regularizer": null, "kernel_size": [2]}, "inbound_nodes": [[["dropout_21", 0, 0, {}]]], "name": "dilated_conv_2_sigm_s2"}, {"class_name": "Multiply", "config": {"dtype": "float32", "trainable": true, "name": "gated_activation_1_s2"}, "inbound_nodes": [[["dilated_conv_2_tanh_s2", 0, 0, {}], ["dilated_conv_2_sigm_s2", 0, 0, {}]]], "name": "gated_activation_1_s2"}, {"class_name": "Conv1D", "config": {"kernel_initializer": {"class_name": "VarianceScaling", "config": {"distribution": "uniform", "scale": 1.0, "seed": null, "mode": "fan_avg"}}, "name": "conv1d_43", "kernel_constraint": null, "bias_regularizer": null, "bias_constraint": null, "dtype": "float32", "activation": "linear", "trainable": true, "data_format": "channels_last", "filters": 2, "padding": "same", "strides": [1], "dilation_rate": [1], "kernel_regularizer": {"class_name": "L1L2", "config": {"l2": 2.9891174563090317e-05, "l1": 0.0}}, "bias_initializer": {"class_name": "Zeros", "config": {}}, "use_bias": false, "activity_regularizer": null, "kernel_size": [1]}, "inbound_nodes": [[["gated_activation_1_s2", 0, 0, {}]]], "name": "conv1d_43"}, {"class_name": "Add", "config": {"dtype": "float32", "trainable": true, "name": "add_22"}, "inbound_nodes": [[["dropout_21", 0, 0, {}], ["conv1d_43", 0, 0, {}]]], "name": "add_22"}, {"class_name": "Dropout", "config": {"name": "dropout_22", "dtype": "float32", "trainable": true, "rate": 0.020166839016, "seed": null, "noise_shape": null}, "inbound_nodes": [[["add_22", 0, 0, {}]]], "name": "dropout_22"}, {"class_name": "Conv1D", "config": {"kernel_initializer": {"class_name": "VarianceScaling", "config": {"distribution": "uniform", "scale": 1.0, "seed": null, "mode": "fan_avg"}}, "name": "dilated_conv_4_tanh_s2", "kernel_constraint": null, "bias_regularizer": null, "bias_constraint": null, "dtype": "float32", "activation": "tanh", "trainable": true, "data_format": "channels_last", "filters": 2, "padding": "same", "strides": [1], "dilation_rate": [4], "kernel_regularizer": {"class_name": "L1L2", "config": {"l2": 2.9891174563090317e-05, "l1": 0.0}}, "bias_initializer": {"class_name": "Zeros", "config": {}}, "use_bias": false, "activity_regularizer": null, "kernel_size": [2]}, "inbound_nodes": [[["dropout_22", 0, 0, {}]]], "name": "dilated_conv_4_tanh_s2"}, {"class_name": "Conv1D", "config": {"kernel_initializer": {"class_name": "VarianceScaling", "config": {"distribution": "uniform", "scale": 1.0, "seed": null, "mode": "fan_avg"}}, "name": "dilated_conv_4_sigm_s2", "kernel_constraint": null, "bias_regularizer": null, "bias_constraint": null, "dtype": "float32", "activation": "sigmoid", "trainable": true, "data_format": "channels_last", "filters": 2, "padding": "same", "strides": [1], "dilation_rate": [4], "kernel_regularizer": {"class_name": "L1L2", "config": {"l2": 2.9891174563090317e-05, "l1": 0.0}}, "bias_initializer": {"class_name": "Zeros", "config": {}}, "use_bias": false, "activity_regularizer": null, "kernel_size": [2]}, "inbound_nodes": [[["dropout_22", 0, 0, {}]]], "name": "dilated_conv_4_sigm_s2"}, {"class_name": "Multiply", "config": {"dtype": "float32", "trainable": true, "name": "gated_activation_2_s2"}, "inbound_nodes": [[["dilated_conv_4_tanh_s2", 0, 0, {}], ["dilated_conv_4_sigm_s2", 0, 0, {}]]], "name": "gated_activation_2_s2"}, {"class_name": "Conv1D", "config": {"kernel_initializer": {"class_name": "VarianceScaling", "config": {"distribution": "uniform", "scale": 1.0, "seed": null, "mode": "fan_avg"}}, "name": "conv1d_45", "kernel_constraint": null, "bias_regularizer": null, "bias_constraint": null, "dtype": "float32", "activation": "linear", "trainable": true, "data_format": "channels_last", "filters": 2, "padding": "same", "strides": [1], "dilation_rate": [1], "kernel_regularizer": {"class_name": "L1L2", "config": {"l2": 2.9891174563090317e-05, "l1": 0.0}}, "bias_initializer": {"class_name": "Zeros", "config": {}}, "use_bias": false, "activity_regularizer": null, "kernel_size": [1]}, "inbound_nodes": [[["gated_activation_2_s2", 0, 0, {}]]], "name": "conv1d_45"}, {"class_name": "Add", "config": {"dtype": "float32", "trainable": true, "name": "add_23"}, "inbound_nodes": [[["dropout_22", 0, 0, {}], ["conv1d_45", 0, 0, {}]]], "name": "add_23"}, {"class_name": "Dropout", "config": {"name": "dropout_23", "dtype": "float32", "trainable": true, "rate": 0.020166839016, "seed": null, "noise_shape": null}, "inbound_nodes": [[["add_23", 0, 0, {}]]], "name": "dropout_23"}, {"class_name": "Conv1D", "config": {"kernel_initializer": {"class_name": "VarianceScaling", "config": {"distribution": "uniform", "scale": 1.0, "seed": null, "mode": "fan_avg"}}, "name": "dilated_conv_8_tanh_s2", "kernel_constraint": null, "bias_regularizer": null, "bias_constraint": null, "dtype": "float32", "activation": "tanh", "trainable": true, "data_format": "channels_last", "filters": 2, "padding": "same", "strides": [1], "dilation_rate": [8], "kernel_regularizer": {"class_name": "L1L2", "config": {"l2": 2.9891174563090317e-05, "l1": 0.0}}, "bias_initializer": {"class_name": "Zeros", "config": {}}, "use_bias": false, "activity_regularizer": null, "kernel_size": [2]}, "inbound_nodes": [[["dropout_23", 0, 0, {}]]], "name": "dilated_conv_8_tanh_s2"}, {"class_name": "Conv1D", "config": {"kernel_initializer": {"class_name": "VarianceScaling", "config": {"distribution": "uniform", "scale": 1.0, "seed": null, "mode": "fan_avg"}}, "name": "dilated_conv_8_sigm_s2", "kernel_constraint": null, "bias_regularizer": null, "bias_constraint": null, "dtype": "float32", "activation": "sigmoid", "trainable": true, "data_format": "channels_last", "filters": 2, "padding": "same", "strides": [1], "dilation_rate": [8], "kernel_regularizer": {"class_name": "L1L2", "config": {"l2": 2.9891174563090317e-05, "l1": 0.0}}, "bias_initializer": {"class_name": "Zeros", "config": {}}, "use_bias": false, "activity_regularizer": null, "kernel_size": [2]}, "inbound_nodes": [[["dropout_23", 0, 0, {}]]], "name": "dilated_conv_8_sigm_s2"}, {"class_name": "Multiply", "config": {"dtype": "float32", "trainable": true, "name": "gated_activation_3_s2"}, "inbound_nodes": [[["dilated_conv_8_tanh_s2", 0, 0, {}], ["dilated_conv_8_sigm_s2", 0, 0, {}]]], "name": "gated_activation_3_s2"}, {"class_name": "Conv1D", "config": {"kernel_initializer": {"class_name": "VarianceScaling", "config": {"distribution": "uniform", "scale": 1.0, "seed": null, "mode": "fan_avg"}}, "name": "conv1d_47", "kernel_constraint": null, "bias_regularizer": null, "bias_constraint": null, "dtype": "float32", "activation": "linear", "trainable": true, "data_format": "channels_last", "filters": 2, "padding": "same", "strides": [1], "dilation_rate": [1], "kernel_regularizer": {"class_name": "L1L2", "config": {"l2": 2.9891174563090317e-05, "l1": 0.0}}, "bias_initializer": {"class_name": "Zeros", "config": {}}, "use_bias": false, "activity_regularizer": null, "kernel_size": [1]}, "inbound_nodes": [[["gated_activation_3_s2", 0, 0, {}]]], "name": "conv1d_47"}, {"class_name": "Add", "config": {"dtype": "float32", "trainable": true, "name": "add_24"}, "inbound_nodes": [[["dropout_23", 0, 0, {}], ["conv1d_47", 0, 0, {}]]], "name": "add_24"}, {"class_name": "Dropout", "config": {"name": "dropout_24", "dtype": "float32", "trainable": true, "rate": 0.020166839016, "seed": null, "noise_shape": null}, "inbound_nodes": [[["add_24", 0, 0, {}]]], "name": "dropout_24"}, {"class_name": "Conv1D", "config": {"kernel_initializer": {"class_name": "VarianceScaling", "config": {"distribution": "uniform", "scale": 1.0, "seed": null, "mode": "fan_avg"}}, "name": "dilated_conv_16_tanh_s2", "kernel_constraint": null, "bias_regularizer": null, "bias_constraint": null, "dtype": "float32", "activation": "tanh", "trainable": true, "data_format": "channels_last", "filters": 2, "padding": "same", "strides": [1], "dilation_rate": [16], "kernel_regularizer": {"class_name": "L1L2", "config": {"l2": 2.9891174563090317e-05, "l1": 0.0}}, "bias_initializer": {"class_name": "Zeros", "config": {}}, "use_bias": false, "activity_regularizer": null, "kernel_size": [2]}, "inbound_nodes": [[["dropout_24", 0, 0, {}]]], "name": "dilated_conv_16_tanh_s2"}, {"class_name": "Conv1D", "config": {"kernel_initializer": {"class_name": "VarianceScaling", "config": {"distribution": "uniform", "scale": 1.0, "seed": null, "mode": "fan_avg"}}, "name": "dilated_conv_16_sigm_s2", "kernel_constraint": null, "bias_regularizer": null, "bias_constraint": null, "dtype": "float32", "activation": "sigmoid", "trainable": true, "data_format": "channels_last", "filters": 2, "padding": "same", "strides": [1], "dilation_rate": [16], "kernel_regularizer": {"class_name": "L1L2", "config": {"l2": 2.9891174563090317e-05, "l1": 0.0}}, "bias_initializer": {"class_name": "Zeros", "config": {}}, "use_bias": false, "activity_regularizer": null, "kernel_size": [2]}, "inbound_nodes": [[["dropout_24", 0, 0, {}]]], "name": "dilated_conv_16_sigm_s2"}, {"class_name": "Multiply", "config": {"dtype": "float32", "trainable": true, "name": "gated_activation_4_s2"}, "inbound_nodes": [[["dilated_conv_16_tanh_s2", 0, 0, {}], ["dilated_conv_16_sigm_s2", 0, 0, {}]]], "name": "gated_activation_4_s2"}, {"class_name": "Conv1D", "config": {"kernel_initializer": {"class_name": "VarianceScaling", "config": {"distribution": "uniform", "scale": 1.0, "seed": null, "mode": "fan_avg"}}, "name": "conv1d_49", "kernel_constraint": null, "bias_regularizer": null, "bias_constraint": null, "dtype": "float32", "activation": "linear", "trainable": true, "data_format": "channels_last", "filters": 2, "padding": "same", "strides": [1], "dilation_rate": [1], "kernel_regularizer": {"class_name": "L1L2", "config": {"l2": 2.9891174563090317e-05, "l1": 0.0}}, "bias_initializer": {"class_name": "Zeros", "config": {}}, "use_bias": false, "activity_regularizer": null, "kernel_size": [1]}, "inbound_nodes": [[["gated_activation_4_s2", 0, 0, {}]]], "name": "conv1d_49"}, {"class_name": "Add", "config": {"dtype": "float32", "trainable": true, "name": "add_25"}, "inbound_nodes": [[["dropout_24", 0, 0, {}], ["conv1d_49", 0, 0, {}]]], "name": "add_25"}, {"class_name": "Dropout", "config": {"name": "dropout_25", "dtype": "float32", "trainable": true, "rate": 0.020166839016, "seed": null, "noise_shape": null}, "inbound_nodes": [[["add_25", 0, 0, {}]]], "name": "dropout_25"}, {"class_name": "Conv1D", "config": {"kernel_initializer": {"class_name": "VarianceScaling", "config": {"distribution": "uniform", "scale": 1.0, "seed": null, "mode": "fan_avg"}}, "name": "dilated_conv_32_tanh_s2", "kernel_constraint": null, "bias_regularizer": null, "bias_constraint": null, "dtype": "float32", "activation": "tanh", "trainable": true, "data_format": "channels_last", "filters": 2, "padding": "same", "strides": [1], "dilation_rate": [32], "kernel_regularizer": {"class_name": "L1L2", "config": {"l2": 2.9891174563090317e-05, "l1": 0.0}}, "bias_initializer": {"class_name": "Zeros", "config": {}}, "use_bias": false, "activity_regularizer": null, "kernel_size": [2]}, "inbound_nodes": [[["dropout_25", 0, 0, {}]]], "name": "dilated_conv_32_tanh_s2"}, {"class_name": "Conv1D", "config": {"kernel_initializer": {"class_name": "VarianceScaling", "config": {"distribution": "uniform", "scale": 1.0, "seed": null, "mode": "fan_avg"}}, "name": "dilated_conv_32_sigm_s2", "kernel_constraint": null, "bias_regularizer": null, "bias_constraint": null, "dtype": "float32", "activation": "sigmoid", "trainable": true, "data_format": "channels_last", "filters": 2, "padding": "same", "strides": [1], "dilation_rate": [32], "kernel_regularizer": {"class_name": "L1L2", "config": {"l2": 2.9891174563090317e-05, "l1": 0.0}}, "bias_initializer": {"class_name": "Zeros", "config": {}}, "use_bias": false, "activity_regularizer": null, "kernel_size": [2]}, "inbound_nodes": [[["dropout_25", 0, 0, {}]]], "name": "dilated_conv_32_sigm_s2"}, {"class_name": "Multiply", "config": {"dtype": "float32", "trainable": true, "name": "gated_activation_5_s2"}, "inbound_nodes": [[["dilated_conv_32_tanh_s2", 0, 0, {}], ["dilated_conv_32_sigm_s2", 0, 0, {}]]], "name": "gated_activation_5_s2"}, {"class_name": "Conv1D", "config": {"kernel_initializer": {"class_name": "VarianceScaling", "config": {"distribution": "uniform", "scale": 1.0, "seed": null, "mode": "fan_avg"}}, "name": "conv1d_51", "kernel_constraint": null, "bias_regularizer": null, "bias_constraint": null, "dtype": "float32", "activation": "linear", "trainable": true, "data_format": "channels_last", "filters": 2, "padding": "same", "strides": [1], "dilation_rate": [1], "kernel_regularizer": {"class_name": "L1L2", "config": {"l2": 2.9891174563090317e-05, "l1": 0.0}}, "bias_initializer": {"class_name": "Zeros", "config": {}}, "use_bias": false, "activity_regularizer": null, "kernel_size": [1]}, "inbound_nodes": [[["gated_activation_5_s2", 0, 0, {}]]], "name": "conv1d_51"}, {"class_name": "Add", "config": {"dtype": "float32", "trainable": true, "name": "add_26"}, "inbound_nodes": [[["dropout_25", 0, 0, {}], ["conv1d_51", 0, 0, {}]]], "name": "add_26"}, {"class_name": "Dropout", "config": {"name": "dropout_26", "dtype": "float32", "trainable": true, "rate": 0.020166839016, "seed": null, "noise_shape": null}, "inbound_nodes": [[["add_26", 0, 0, {}]]], "name": "dropout_26"}, {"class_name": "Conv1D", "config": {"kernel_initializer": {"class_name": "VarianceScaling", "config": {"distribution": "uniform", "scale": 1.0, "seed": null, "mode": "fan_avg"}}, "name": "dilated_conv_64_tanh_s2", "kernel_constraint": null, "bias_regularizer": null, "bias_constraint": null, "dtype": "float32", "activation": "tanh", "trainable": true, "data_format": "channels_last", "filters": 2, "padding": "same", "strides": [1], "dilation_rate": [64], "kernel_regularizer": {"class_name": "L1L2", "config": {"l2": 2.9891174563090317e-05, "l1": 0.0}}, "bias_initializer": {"class_name": "Zeros", "config": {}}, "use_bias": false, "activity_regularizer": null, "kernel_size": [2]}, "inbound_nodes": [[["dropout_26", 0, 0, {}]]], "name": "dilated_conv_64_tanh_s2"}, {"class_name": "Conv1D", "config": {"kernel_initializer": {"class_name": "VarianceScaling", "config": {"distribution": "uniform", "scale": 1.0, "seed": null, "mode": "fan_avg"}}, "name": "dilated_conv_64_sigm_s2", "kernel_constraint": null, "bias_regularizer": null, "bias_constraint": null, "dtype": "float32", "activation": "sigmoid", "trainable": true, "data_format": "channels_last", "filters": 2, "padding": "same", "strides": [1], "dilation_rate": [64], "kernel_regularizer": {"class_name": "L1L2", "config": {"l2": 2.9891174563090317e-05, "l1": 0.0}}, "bias_initializer": {"class_name": "Zeros", "config": {}}, "use_bias": false, "activity_regularizer": null, "kernel_size": [2]}, "inbound_nodes": [[["dropout_26", 0, 0, {}]]], "name": "dilated_conv_64_sigm_s2"}, {"class_name": "Multiply", "config": {"dtype": "float32", "trainable": true, "name": "gated_activation_6_s2"}, "inbound_nodes": [[["dilated_conv_64_tanh_s2", 0, 0, {}], ["dilated_conv_64_sigm_s2", 0, 0, {}]]], "name": "gated_activation_6_s2"}, {"class_name": "Conv1D", "config": {"kernel_initializer": {"class_name": "VarianceScaling", "config": {"distribution": "uniform", "scale": 1.0, "seed": null, "mode": "fan_avg"}}, "name": "conv1d_53", "kernel_constraint": null, "bias_regularizer": null, "bias_constraint": null, "dtype": "float32", "activation": "linear", "trainable": true, "data_format": "channels_last", "filters": 2, "padding": "same", "strides": [1], "dilation_rate": [1], "kernel_regularizer": {"class_name": "L1L2", "config": {"l2": 2.9891174563090317e-05, "l1": 0.0}}, "bias_initializer": {"class_name": "Zeros", "config": {}}, "use_bias": false, "activity_regularizer": null, "kernel_size": [1]}, "inbound_nodes": [[["gated_activation_6_s2", 0, 0, {}]]], "name": "conv1d_53"}, {"class_name": "Add", "config": {"dtype": "float32", "trainable": true, "name": "add_27"}, "inbound_nodes": [[["dropout_26", 0, 0, {}], ["conv1d_53", 0, 0, {}]]], "name": "add_27"}, {"class_name": "Dropout", "config": {"name": "dropout_27", "dtype": "float32", "trainable": true, "rate": 0.020166839016, "seed": null, "noise_shape": null}, "inbound_nodes": [[["add_27", 0, 0, {}]]], "name": "dropout_27"}, {"class_name": "Conv1D", "config": {"kernel_initializer": {"class_name": "VarianceScaling", "config": {"distribution": "uniform", "scale": 1.0, "seed": null, "mode": "fan_avg"}}, "name": "dilated_conv_128_tanh_s2", "kernel_constraint": null, "bias_regularizer": null, "bias_constraint": null, "dtype": "float32", "activation": "tanh", "trainable": true, "data_format": "channels_last", "filters": 2, "padding": "same", "strides": [1], "dilation_rate": [128], "kernel_regularizer": {"class_name": "L1L2", "config": {"l2": 2.9891174563090317e-05, "l1": 0.0}}, "bias_initializer": {"class_name": "Zeros", "config": {}}, "use_bias": false, "activity_regularizer": null, "kernel_size": [2]}, "inbound_nodes": [[["dropout_27", 0, 0, {}]]], "name": "dilated_conv_128_tanh_s2"}, {"class_name": "Conv1D", "config": {"kernel_initializer": {"class_name": "VarianceScaling", "config": {"distribution": "uniform", "scale": 1.0, "seed": null, "mode": "fan_avg"}}, "name": "dilated_conv_128_sigm_s2", "kernel_constraint": null, "bias_regularizer": null, "bias_constraint": null, "dtype": "float32", "activation": "sigmoid", "trainable": true, "data_format": "channels_last", "filters": 2, "padding": "same", "strides": [1], "dilation_rate": [128], "kernel_regularizer": {"class_name": "L1L2", "config": {"l2": 2.9891174563090317e-05, "l1": 0.0}}, "bias_initializer": {"class_name": "Zeros", "config": {}}, "use_bias": false, "activity_regularizer": null, "kernel_size": [2]}, "inbound_nodes": [[["dropout_27", 0, 0, {}]]], "name": "dilated_conv_128_sigm_s2"}, {"class_name": "Multiply", "config": {"dtype": "float32", "trainable": true, "name": "gated_activation_7_s2"}, "inbound_nodes": [[["dilated_conv_128_tanh_s2", 0, 0, {}], ["dilated_conv_128_sigm_s2", 0, 0, {}]]], "name": "gated_activation_7_s2"}, {"class_name": "Conv1D", "config": {"kernel_initializer": {"class_name": "VarianceScaling", "config": {"distribution": "uniform", "scale": 1.0, "seed": null, "mode": "fan_avg"}}, "name": "conv1d_55", "kernel_constraint": null, "bias_regularizer": null, "bias_constraint": null, "dtype": "float32", "activation": "linear", "trainable": true, "data_format": "channels_last", "filters": 2, "padding": "same", "strides": [1], "dilation_rate": [1], "kernel_regularizer": {"class_name": "L1L2", "config": {"l2": 2.9891174563090317e-05, "l1": 0.0}}, "bias_initializer": {"class_name": "Zeros", "config": {}}, "use_bias": false, "activity_regularizer": null, "kernel_size": [1]}, "inbound_nodes": [[["gated_activation_7_s2", 0, 0, {}]]], "name": "conv1d_55"}, {"class_name": "Add", "config": {"dtype": "float32", "trainable": true, "name": "add_28"}, "inbound_nodes": [[["dropout_27", 0, 0, {}], ["conv1d_55", 0, 0, {}]]], "name": "add_28"}, {"class_name": "Dropout", "config": {"name": "dropout_28", "dtype": "float32", "trainable": true, "rate": 0.020166839016, "seed": null, "noise_shape": null}, "inbound_nodes": [[["add_28", 0, 0, {}]]], "name": "dropout_28"}, {"class_name": "Conv1D", "config": {"kernel_initializer": {"class_name": "VarianceScaling", "config": {"distribution": "uniform", "scale": 1.0, "seed": null, "mode": "fan_avg"}}, "name": "dilated_conv_256_tanh_s2", "kernel_constraint": null, "bias_regularizer": null, "bias_constraint": null, "dtype": "float32", "activation": "tanh", "trainable": true, "data_format": "channels_last", "filters": 2, "padding": "same", "strides": [1], "dilation_rate": [256], "kernel_regularizer": {"class_name": "L1L2", "config": {"l2": 2.9891174563090317e-05, "l1": 0.0}}, "bias_initializer": {"class_name": "Zeros", "config": {}}, "use_bias": false, "activity_regularizer": null, "kernel_size": [2]}, "inbound_nodes": [[["dropout_28", 0, 0, {}]]], "name": "dilated_conv_256_tanh_s2"}, {"class_name": "Conv1D", "config": {"kernel_initializer": {"class_name": "VarianceScaling", "config": {"distribution": "uniform", "scale": 1.0, "seed": null, "mode": "fan_avg"}}, "name": "dilated_conv_256_sigm_s2", "kernel_constraint": null, "bias_regularizer": null, "bias_constraint": null, "dtype": "float32", "activation": "sigmoid", "trainable": true, "data_format": "channels_last", "filters": 2, "padding": "same", "strides": [1], "dilation_rate": [256], "kernel_regularizer": {"class_name": "L1L2", "config": {"l2": 2.9891174563090317e-05, "l1": 0.0}}, "bias_initializer": {"class_name": "Zeros", "config": {}}, "use_bias": false, "activity_regularizer": null, "kernel_size": [2]}, "inbound_nodes": [[["dropout_28", 0, 0, {}]]], "name": "dilated_conv_256_sigm_s2"}, {"class_name": "Multiply", "config": {"dtype": "float32", "trainable": true, "name": "gated_activation_8_s2"}, "inbound_nodes": [[["dilated_conv_256_tanh_s2", 0, 0, {}], ["dilated_conv_256_sigm_s2", 0, 0, {}]]], "name": "gated_activation_8_s2"}, {"class_name": "Conv1D", "config": {"kernel_initializer": {"class_name": "VarianceScaling", "config": {"distribution": "uniform", "scale": 1.0, "seed": null, "mode": "fan_avg"}}, "name": "conv1d_57", "kernel_constraint": null, "bias_regularizer": null, "bias_constraint": null, "dtype": "float32", "activation": "linear", "trainable": true, "data_format": "channels_last", "filters": 2, "padding": "same", "strides": [1], "dilation_rate": [1], "kernel_regularizer": {"class_name": "L1L2", "config": {"l2": 2.9891174563090317e-05, "l1": 0.0}}, "bias_initializer": {"class_name": "Zeros", "config": {}}, "use_bias": false, "activity_regularizer": null, "kernel_size": [1]}, "inbound_nodes": [[["gated_activation_8_s2", 0, 0, {}]]], "name": "conv1d_57"}, {"class_name": "Add", "config": {"dtype": "float32", "trainable": true, "name": "add_29"}, "inbound_nodes": [[["dropout_28", 0, 0, {}], ["conv1d_57", 0, 0, {}]]], "name": "add_29"}, {"class_name": "Dropout", "config": {"name": "dropout_29", "dtype": "float32", "trainable": true, "rate": 0.020166839016, "seed": null, "noise_shape": null}, "inbound_nodes": [[["add_29", 0, 0, {}]]], "name": "dropout_29"}, {"class_name": "Conv1D", "config": {"kernel_initializer": {"class_name": "VarianceScaling", "config": {"distribution": "uniform", "scale": 1.0, "seed": null, "mode": "fan_avg"}}, "name": "dilated_conv_512_tanh_s2", "kernel_constraint": null, "bias_regularizer": null, "bias_constraint": null, "dtype": "float32", "activation": "tanh", "trainable": true, "data_format": "channels_last", "filters": 2, "padding": "same", "strides": [1], "dilation_rate": [512], "kernel_regularizer": {"class_name": "L1L2", "config": {"l2": 2.9891174563090317e-05, "l1": 0.0}}, "bias_initializer": {"class_name": "Zeros", "config": {}}, "use_bias": false, "activity_regularizer": null, "kernel_size": [2]}, "inbound_nodes": [[["dropout_29", 0, 0, {}]]], "name": "dilated_conv_512_tanh_s2"}, {"class_name": "Conv1D", "config": {"kernel_initializer": {"class_name": "VarianceScaling", "config": {"distribution": "uniform", "scale": 1.0, "seed": null, "mode": "fan_avg"}}, "name": "dilated_conv_512_sigm_s2", "kernel_constraint": null, "bias_regularizer": null, "bias_constraint": null, "dtype": "float32", "activation": "sigmoid", "trainable": true, "data_format": "channels_last", "filters": 2, "padding": "same", "strides": [1], "dilation_rate": [512], "kernel_regularizer": {"class_name": "L1L2", "config": {"l2": 2.9891174563090317e-05, "l1": 0.0}}, "bias_initializer": {"class_name": "Zeros", "config": {}}, "use_bias": false, "activity_regularizer": null, "kernel_size": [2]}, "inbound_nodes": [[["dropout_29", 0, 0, {}]]], "name": "dilated_conv_512_sigm_s2"}, {"class_name": "Multiply", "config": {"dtype": "float32", "trainable": true, "name": "gated_activation_9_s2"}, "inbound_nodes": [[["dilated_conv_512_tanh_s2", 0, 0, {}], ["dilated_conv_512_sigm_s2", 0, 0, {}]]], "name": "gated_activation_9_s2"}, {"class_name": "Conv1D", "config": {"kernel_initializer": {"class_name": "VarianceScaling", "config": {"distribution": "uniform", "scale": 1.0, "seed": null, "mode": "fan_avg"}}, "name": "conv1d_59", "kernel_constraint": null, "bias_regularizer": null, "bias_constraint": null, "dtype": "float32", "activation": "linear", "trainable": true, "data_format": "channels_last", "filters": 2, "padding": "same", "strides": [1], "dilation_rate": [1], "kernel_regularizer": {"class_name": "L1L2", "config": {"l2": 2.9891174563090317e-05, "l1": 0.0}}, "bias_initializer": {"class_name": "Zeros", "config": {}}, "use_bias": false, "activity_regularizer": null, "kernel_size": [1]}, "inbound_nodes": [[["gated_activation_9_s2", 0, 0, {}]]], "name": "conv1d_59"}, {"class_name": "Add", "config": {"dtype": "float32", "trainable": true, "name": "add_30"}, "inbound_nodes": [[["dropout_29", 0, 0, {}], ["conv1d_59", 0, 0, {}]]], "name": "add_30"}, {"class_name": "Dropout", "config": {"name": "dropout_30", "dtype": "float32", "trainable": true, "rate": 0.020166839016, "seed": null, "noise_shape": null}, "inbound_nodes": [[["add_30", 0, 0, {}]]], "name": "dropout_30"}, {"class_name": "Conv1D", "config": {"kernel_initializer": {"class_name": "VarianceScaling", "config": {"distribution": "uniform", "scale": 1.0, "seed": null, "mode": "fan_avg"}}, "name": "dilated_conv_1_tanh_s3", "kernel_constraint": null, "bias_regularizer": null, "bias_constraint": null, "dtype": "float32", "activation": "tanh", "trainable": true, "data_format": "channels_last", "filters": 2, "padding": "same", "strides": [1], "dilation_rate": [1], "kernel_regularizer": {"class_name": "L1L2", "config": {"l2": 2.9891174563090317e-05, "l1": 0.0}}, "bias_initializer": {"class_name": "Zeros", "config": {}}, "use_bias": false, "activity_regularizer": null, "kernel_size": [2]}, "inbound_nodes": [[["dropout_30", 0, 0, {}]]], "name": "dilated_conv_1_tanh_s3"}, {"class_name": "Conv1D", "config": {"kernel_initializer": {"class_name": "VarianceScaling", "config": {"distribution": "uniform", "scale": 1.0, "seed": null, "mode": "fan_avg"}}, "name": "dilated_conv_1_sigm_s3", "kernel_constraint": null, "bias_regularizer": null, "bias_constraint": null, "dtype": "float32", "activation": "sigmoid", "trainable": true, "data_format": "channels_last", "filters": 2, "padding": "same", "strides": [1], "dilation_rate": [1], "kernel_regularizer": {"class_name": "L1L2", "config": {"l2": 2.9891174563090317e-05, "l1": 0.0}}, "bias_initializer": {"class_name": "Zeros", "config": {}}, "use_bias": false, "activity_regularizer": null, "kernel_size": [2]}, "inbound_nodes": [[["dropout_30", 0, 0, {}]]], "name": "dilated_conv_1_sigm_s3"}, {"class_name": "Multiply", "config": {"dtype": "float32", "trainable": true, "name": "gated_activation_0_s3"}, "inbound_nodes": [[["dilated_conv_1_tanh_s3", 0, 0, {}], ["dilated_conv_1_sigm_s3", 0, 0, {}]]], "name": "gated_activation_0_s3"}, {"class_name": "Conv1D", "config": {"kernel_initializer": {"class_name": "VarianceScaling", "config": {"distribution": "uniform", "scale": 1.0, "seed": null, "mode": "fan_avg"}}, "name": "conv1d_61", "kernel_constraint": null, "bias_regularizer": null, "bias_constraint": null, "dtype": "float32", "activation": "linear", "trainable": true, "data_format": "channels_last", "filters": 2, "padding": "same", "strides": [1], "dilation_rate": [1], "kernel_regularizer": {"class_name": "L1L2", "config": {"l2": 2.9891174563090317e-05, "l1": 0.0}}, "bias_initializer": {"class_name": "Zeros", "config": {}}, "use_bias": false, "activity_regularizer": null, "kernel_size": [1]}, "inbound_nodes": [[["gated_activation_0_s3", 0, 0, {}]]], "name": "conv1d_61"}, {"class_name": "Add", "config": {"dtype": "float32", "trainable": true, "name": "add_31"}, "inbound_nodes": [[["dropout_30", 0, 0, {}], ["conv1d_61", 0, 0, {}]]], "name": "add_31"}, {"class_name": "Dropout", "config": {"name": "dropout_31", "dtype": "float32", "trainable": true, "rate": 0.020166839016, "seed": null, "noise_shape": null}, "inbound_nodes": [[["add_31", 0, 0, {}]]], "name": "dropout_31"}, {"class_name": "Conv1D", "config": {"kernel_initializer": {"class_name": "VarianceScaling", "config": {"distribution": "uniform", "scale": 1.0, "seed": null, "mode": "fan_avg"}}, "name": "dilated_conv_2_tanh_s3", "kernel_constraint": null, "bias_regularizer": null, "bias_constraint": null, "dtype": "float32", "activation": "tanh", "trainable": true, "data_format": "channels_last", "filters": 2, "padding": "same", "strides": [1], "dilation_rate": [2], "kernel_regularizer": {"class_name": "L1L2", "config": {"l2": 2.9891174563090317e-05, "l1": 0.0}}, "bias_initializer": {"class_name": "Zeros", "config": {}}, "use_bias": false, "activity_regularizer": null, "kernel_size": [2]}, "inbound_nodes": [[["dropout_31", 0, 0, {}]]], "name": "dilated_conv_2_tanh_s3"}, {"class_name": "Conv1D", "config": {"kernel_initializer": {"class_name": "VarianceScaling", "config": {"distribution": "uniform", "scale": 1.0, "seed": null, "mode": "fan_avg"}}, "name": "dilated_conv_2_sigm_s3", "kernel_constraint": null, "bias_regularizer": null, "bias_constraint": null, "dtype": "float32", "activation": "sigmoid", "trainable": true, "data_format": "channels_last", "filters": 2, "padding": "same", "strides": [1], "dilation_rate": [2], "kernel_regularizer": {"class_name": "L1L2", "config": {"l2": 2.9891174563090317e-05, "l1": 0.0}}, "bias_initializer": {"class_name": "Zeros", "config": {}}, "use_bias": false, "activity_regularizer": null, "kernel_size": [2]}, "inbound_nodes": [[["dropout_31", 0, 0, {}]]], "name": "dilated_conv_2_sigm_s3"}, {"class_name": "Multiply", "config": {"dtype": "float32", "trainable": true, "name": "gated_activation_1_s3"}, "inbound_nodes": [[["dilated_conv_2_tanh_s3", 0, 0, {}], ["dilated_conv_2_sigm_s3", 0, 0, {}]]], "name": "gated_activation_1_s3"}, {"class_name": "Conv1D", "config": {"kernel_initializer": {"class_name": "VarianceScaling", "config": {"distribution": "uniform", "scale": 1.0, "seed": null, "mode": "fan_avg"}}, "name": "conv1d_63", "kernel_constraint": null, "bias_regularizer": null, "bias_constraint": null, "dtype": "float32", "activation": "linear", "trainable": true, "data_format": "channels_last", "filters": 2, "padding": "same", "strides": [1], "dilation_rate": [1], "kernel_regularizer": {"class_name": "L1L2", "config": {"l2": 2.9891174563090317e-05, "l1": 0.0}}, "bias_initializer": {"class_name": "Zeros", "config": {}}, "use_bias": false, "activity_regularizer": null, "kernel_size": [1]}, "inbound_nodes": [[["gated_activation_1_s3", 0, 0, {}]]], "name": "conv1d_63"}, {"class_name": "Add", "config": {"dtype": "float32", "trainable": true, "name": "add_32"}, "inbound_nodes": [[["dropout_31", 0, 0, {}], ["conv1d_63", 0, 0, {}]]], "name": "add_32"}, {"class_name": "Dropout", "config": {"name": "dropout_32", "dtype": "float32", "trainable": true, "rate": 0.020166839016, "seed": null, "noise_shape": null}, "inbound_nodes": [[["add_32", 0, 0, {}]]], "name": "dropout_32"}, {"class_name": "Conv1D", "config": {"kernel_initializer": {"class_name": "VarianceScaling", "config": {"distribution": "uniform", "scale": 1.0, "seed": null, "mode": "fan_avg"}}, "name": "dilated_conv_4_tanh_s3", "kernel_constraint": null, "bias_regularizer": null, "bias_constraint": null, "dtype": "float32", "activation": "tanh", "trainable": true, "data_format": "channels_last", "filters": 2, "padding": "same", "strides": [1], "dilation_rate": [4], "kernel_regularizer": {"class_name": "L1L2", "config": {"l2": 2.9891174563090317e-05, "l1": 0.0}}, "bias_initializer": {"class_name": "Zeros", "config": {}}, "use_bias": false, "activity_regularizer": null, "kernel_size": [2]}, "inbound_nodes": [[["dropout_32", 0, 0, {}]]], "name": "dilated_conv_4_tanh_s3"}, {"class_name": "Conv1D", "config": {"kernel_initializer": {"class_name": "VarianceScaling", "config": {"distribution": "uniform", "scale": 1.0, "seed": null, "mode": "fan_avg"}}, "name": "dilated_conv_4_sigm_s3", "kernel_constraint": null, "bias_regularizer": null, "bias_constraint": null, "dtype": "float32", "activation": "sigmoid", "trainable": true, "data_format": "channels_last", "filters": 2, "padding": "same", "strides": [1], "dilation_rate": [4], "kernel_regularizer": {"class_name": "L1L2", "config": {"l2": 2.9891174563090317e-05, "l1": 0.0}}, "bias_initializer": {"class_name": "Zeros", "config": {}}, "use_bias": false, "activity_regularizer": null, "kernel_size": [2]}, "inbound_nodes": [[["dropout_32", 0, 0, {}]]], "name": "dilated_conv_4_sigm_s3"}, {"class_name": "Multiply", "config": {"dtype": "float32", "trainable": true, "name": "gated_activation_2_s3"}, "inbound_nodes": [[["dilated_conv_4_tanh_s3", 0, 0, {}], ["dilated_conv_4_sigm_s3", 0, 0, {}]]], "name": "gated_activation_2_s3"}, {"class_name": "Conv1D", "config": {"kernel_initializer": {"class_name": "VarianceScaling", "config": {"distribution": "uniform", "scale": 1.0, "seed": null, "mode": "fan_avg"}}, "name": "conv1d_65", "kernel_constraint": null, "bias_regularizer": null, "bias_constraint": null, "dtype": "float32", "activation": "linear", "trainable": true, "data_format": "channels_last", "filters": 2, "padding": "same", "strides": [1], "dilation_rate": [1], "kernel_regularizer": {"class_name": "L1L2", "config": {"l2": 2.9891174563090317e-05, "l1": 0.0}}, "bias_initializer": {"class_name": "Zeros", "config": {}}, "use_bias": false, "activity_regularizer": null, "kernel_size": [1]}, "inbound_nodes": [[["gated_activation_2_s3", 0, 0, {}]]], "name": "conv1d_65"}, {"class_name": "Add", "config": {"dtype": "float32", "trainable": true, "name": "add_33"}, "inbound_nodes": [[["dropout_32", 0, 0, {}], ["conv1d_65", 0, 0, {}]]], "name": "add_33"}, {"class_name": "Dropout", "config": {"name": "dropout_33", "dtype": "float32", "trainable": true, "rate": 0.020166839016, "seed": null, "noise_shape": null}, "inbound_nodes": [[["add_33", 0, 0, {}]]], "name": "dropout_33"}, {"class_name": "Conv1D", "config": {"kernel_initializer": {"class_name": "VarianceScaling", "config": {"distribution": "uniform", "scale": 1.0, "seed": null, "mode": "fan_avg"}}, "name": "dilated_conv_8_tanh_s3", "kernel_constraint": null, "bias_regularizer": null, "bias_constraint": null, "dtype": "float32", "activation": "tanh", "trainable": true, "data_format": "channels_last", "filters": 2, "padding": "same", "strides": [1], "dilation_rate": [8], "kernel_regularizer": {"class_name": "L1L2", "config": {"l2": 2.9891174563090317e-05, "l1": 0.0}}, "bias_initializer": {"class_name": "Zeros", "config": {}}, "use_bias": false, "activity_regularizer": null, "kernel_size": [2]}, "inbound_nodes": [[["dropout_33", 0, 0, {}]]], "name": "dilated_conv_8_tanh_s3"}, {"class_name": "Conv1D", "config": {"kernel_initializer": {"class_name": "VarianceScaling", "config": {"distribution": "uniform", "scale": 1.0, "seed": null, "mode": "fan_avg"}}, "name": "dilated_conv_8_sigm_s3", "kernel_constraint": null, "bias_regularizer": null, "bias_constraint": null, "dtype": "float32", "activation": "sigmoid", "trainable": true, "data_format": "channels_last", "filters": 2, "padding": "same", "strides": [1], "dilation_rate": [8], "kernel_regularizer": {"class_name": "L1L2", "config": {"l2": 2.9891174563090317e-05, "l1": 0.0}}, "bias_initializer": {"class_name": "Zeros", "config": {}}, "use_bias": false, "activity_regularizer": null, "kernel_size": [2]}, "inbound_nodes": [[["dropout_33", 0, 0, {}]]], "name": "dilated_conv_8_sigm_s3"}, {"class_name": "Multiply", "config": {"dtype": "float32", "trainable": true, "name": "gated_activation_3_s3"}, "inbound_nodes": [[["dilated_conv_8_tanh_s3", 0, 0, {}], ["dilated_conv_8_sigm_s3", 0, 0, {}]]], "name": "gated_activation_3_s3"}, {"class_name": "Conv1D", "config": {"kernel_initializer": {"class_name": "VarianceScaling", "config": {"distribution": "uniform", "scale": 1.0, "seed": null, "mode": "fan_avg"}}, "name": "conv1d_67", "kernel_constraint": null, "bias_regularizer": null, "bias_constraint": null, "dtype": "float32", "activation": "linear", "trainable": true, "data_format": "channels_last", "filters": 2, "padding": "same", "strides": [1], "dilation_rate": [1], "kernel_regularizer": {"class_name": "L1L2", "config": {"l2": 2.9891174563090317e-05, "l1": 0.0}}, "bias_initializer": {"class_name": "Zeros", "config": {}}, "use_bias": false, "activity_regularizer": null, "kernel_size": [1]}, "inbound_nodes": [[["gated_activation_3_s3", 0, 0, {}]]], "name": "conv1d_67"}, {"class_name": "Add", "config": {"dtype": "float32", "trainable": true, "name": "add_34"}, "inbound_nodes": [[["dropout_33", 0, 0, {}], ["conv1d_67", 0, 0, {}]]], "name": "add_34"}, {"class_name": "Dropout", "config": {"name": "dropout_34", "dtype": "float32", "trainable": true, "rate": 0.020166839016, "seed": null, "noise_shape": null}, "inbound_nodes": [[["add_34", 0, 0, {}]]], "name": "dropout_34"}, {"class_name": "Conv1D", "config": {"kernel_initializer": {"class_name": "VarianceScaling", "config": {"distribution": "uniform", "scale": 1.0, "seed": null, "mode": "fan_avg"}}, "name": "dilated_conv_16_tanh_s3", "kernel_constraint": null, "bias_regularizer": null, "bias_constraint": null, "dtype": "float32", "activation": "tanh", "trainable": true, "data_format": "channels_last", "filters": 2, "padding": "same", "strides": [1], "dilation_rate": [16], "kernel_regularizer": {"class_name": "L1L2", "config": {"l2": 2.9891174563090317e-05, "l1": 0.0}}, "bias_initializer": {"class_name": "Zeros", "config": {}}, "use_bias": false, "activity_regularizer": null, "kernel_size": [2]}, "inbound_nodes": [[["dropout_34", 0, 0, {}]]], "name": "dilated_conv_16_tanh_s3"}, {"class_name": "Conv1D", "config": {"kernel_initializer": {"class_name": "VarianceScaling", "config": {"distribution": "uniform", "scale": 1.0, "seed": null, "mode": "fan_avg"}}, "name": "dilated_conv_16_sigm_s3", "kernel_constraint": null, "bias_regularizer": null, "bias_constraint": null, "dtype": "float32", "activation": "sigmoid", "trainable": true, "data_format": "channels_last", "filters": 2, "padding": "same", "strides": [1], "dilation_rate": [16], "kernel_regularizer": {"class_name": "L1L2", "config": {"l2": 2.9891174563090317e-05, "l1": 0.0}}, "bias_initializer": {"class_name": "Zeros", "config": {}}, "use_bias": false, "activity_regularizer": null, "kernel_size": [2]}, "inbound_nodes": [[["dropout_34", 0, 0, {}]]], "name": "dilated_conv_16_sigm_s3"}, {"class_name": "Multiply", "config": {"dtype": "float32", "trainable": true, "name": "gated_activation_4_s3"}, "inbound_nodes": [[["dilated_conv_16_tanh_s3", 0, 0, {}], ["dilated_conv_16_sigm_s3", 0, 0, {}]]], "name": "gated_activation_4_s3"}, {"class_name": "Conv1D", "config": {"kernel_initializer": {"class_name": "VarianceScaling", "config": {"distribution": "uniform", "scale": 1.0, "seed": null, "mode": "fan_avg"}}, "name": "conv1d_69", "kernel_constraint": null, "bias_regularizer": null, "bias_constraint": null, "dtype": "float32", "activation": "linear", "trainable": true, "data_format": "channels_last", "filters": 2, "padding": "same", "strides": [1], "dilation_rate": [1], "kernel_regularizer": {"class_name": "L1L2", "config": {"l2": 2.9891174563090317e-05, "l1": 0.0}}, "bias_initializer": {"class_name": "Zeros", "config": {}}, "use_bias": false, "activity_regularizer": null, "kernel_size": [1]}, "inbound_nodes": [[["gated_activation_4_s3", 0, 0, {}]]], "name": "conv1d_69"}, {"class_name": "Add", "config": {"dtype": "float32", "trainable": true, "name": "add_35"}, "inbound_nodes": [[["dropout_34", 0, 0, {}], ["conv1d_69", 0, 0, {}]]], "name": "add_35"}, {"class_name": "Dropout", "config": {"name": "dropout_35", "dtype": "float32", "trainable": true, "rate": 0.020166839016, "seed": null, "noise_shape": null}, "inbound_nodes": [[["add_35", 0, 0, {}]]], "name": "dropout_35"}, {"class_name": "Conv1D", "config": {"kernel_initializer": {"class_name": "VarianceScaling", "config": {"distribution": "uniform", "scale": 1.0, "seed": null, "mode": "fan_avg"}}, "name": "dilated_conv_32_tanh_s3", "kernel_constraint": null, "bias_regularizer": null, "bias_constraint": null, "dtype": "float32", "activation": "tanh", "trainable": true, "data_format": "channels_last", "filters": 2, "padding": "same", "strides": [1], "dilation_rate": [32], "kernel_regularizer": {"class_name": "L1L2", "config": {"l2": 2.9891174563090317e-05, "l1": 0.0}}, "bias_initializer": {"class_name": "Zeros", "config": {}}, "use_bias": false, "activity_regularizer": null, "kernel_size": [2]}, "inbound_nodes": [[["dropout_35", 0, 0, {}]]], "name": "dilated_conv_32_tanh_s3"}, {"class_name": "Conv1D", "config": {"kernel_initializer": {"class_name": "VarianceScaling", "config": {"distribution": "uniform", "scale": 1.0, "seed": null, "mode": "fan_avg"}}, "name": "dilated_conv_32_sigm_s3", "kernel_constraint": null, "bias_regularizer": null, "bias_constraint": null, "dtype": "float32", "activation": "sigmoid", "trainable": true, "data_format": "channels_last", "filters": 2, "padding": "same", "strides": [1], "dilation_rate": [32], "kernel_regularizer": {"class_name": "L1L2", "config": {"l2": 2.9891174563090317e-05, "l1": 0.0}}, "bias_initializer": {"class_name": "Zeros", "config": {}}, "use_bias": false, "activity_regularizer": null, "kernel_size": [2]}, "inbound_nodes": [[["dropout_35", 0, 0, {}]]], "name": "dilated_conv_32_sigm_s3"}, {"class_name": "Multiply", "config": {"dtype": "float32", "trainable": true, "name": "gated_activation_5_s3"}, "inbound_nodes": [[["dilated_conv_32_tanh_s3", 0, 0, {}], ["dilated_conv_32_sigm_s3", 0, 0, {}]]], "name": "gated_activation_5_s3"}, {"class_name": "Conv1D", "config": {"kernel_initializer": {"class_name": "VarianceScaling", "config": {"distribution": "uniform", "scale": 1.0, "seed": null, "mode": "fan_avg"}}, "name": "conv1d_71", "kernel_constraint": null, "bias_regularizer": null, "bias_constraint": null, "dtype": "float32", "activation": "linear", "trainable": true, "data_format": "channels_last", "filters": 2, "padding": "same", "strides": [1], "dilation_rate": [1], "kernel_regularizer": {"class_name": "L1L2", "config": {"l2": 2.9891174563090317e-05, "l1": 0.0}}, "bias_initializer": {"class_name": "Zeros", "config": {}}, "use_bias": false, "activity_regularizer": null, "kernel_size": [1]}, "inbound_nodes": [[["gated_activation_5_s3", 0, 0, {}]]], "name": "conv1d_71"}, {"class_name": "Add", "config": {"dtype": "float32", "trainable": true, "name": "add_36"}, "inbound_nodes": [[["dropout_35", 0, 0, {}], ["conv1d_71", 0, 0, {}]]], "name": "add_36"}, {"class_name": "Dropout", "config": {"name": "dropout_36", "dtype": "float32", "trainable": true, "rate": 0.020166839016, "seed": null, "noise_shape": null}, "inbound_nodes": [[["add_36", 0, 0, {}]]], "name": "dropout_36"}, {"class_name": "Conv1D", "config": {"kernel_initializer": {"class_name": "VarianceScaling", "config": {"distribution": "uniform", "scale": 1.0, "seed": null, "mode": "fan_avg"}}, "name": "dilated_conv_64_tanh_s3", "kernel_constraint": null, "bias_regularizer": null, "bias_constraint": null, "dtype": "float32", "activation": "tanh", "trainable": true, "data_format": "channels_last", "filters": 2, "padding": "same", "strides": [1], "dilation_rate": [64], "kernel_regularizer": {"class_name": "L1L2", "config": {"l2": 2.9891174563090317e-05, "l1": 0.0}}, "bias_initializer": {"class_name": "Zeros", "config": {}}, "use_bias": false, "activity_regularizer": null, "kernel_size": [2]}, "inbound_nodes": [[["dropout_36", 0, 0, {}]]], "name": "dilated_conv_64_tanh_s3"}, {"class_name": "Conv1D", "config": {"kernel_initializer": {"class_name": "VarianceScaling", "config": {"distribution": "uniform", "scale": 1.0, "seed": null, "mode": "fan_avg"}}, "name": "dilated_conv_64_sigm_s3", "kernel_constraint": null, "bias_regularizer": null, "bias_constraint": null, "dtype": "float32", "activation": "sigmoid", "trainable": true, "data_format": "channels_last", "filters": 2, "padding": "same", "strides": [1], "dilation_rate": [64], "kernel_regularizer": {"class_name": "L1L2", "config": {"l2": 2.9891174563090317e-05, "l1": 0.0}}, "bias_initializer": {"class_name": "Zeros", "config": {}}, "use_bias": false, "activity_regularizer": null, "kernel_size": [2]}, "inbound_nodes": [[["dropout_36", 0, 0, {}]]], "name": "dilated_conv_64_sigm_s3"}, {"class_name": "Multiply", "config": {"dtype": "float32", "trainable": true, "name": "gated_activation_6_s3"}, "inbound_nodes": [[["dilated_conv_64_tanh_s3", 0, 0, {}], ["dilated_conv_64_sigm_s3", 0, 0, {}]]], "name": "gated_activation_6_s3"}, {"class_name": "Conv1D", "config": {"kernel_initializer": {"class_name": "VarianceScaling", "config": {"distribution": "uniform", "scale": 1.0, "seed": null, "mode": "fan_avg"}}, "name": "conv1d_73", "kernel_constraint": null, "bias_regularizer": null, "bias_constraint": null, "dtype": "float32", "activation": "linear", "trainable": true, "data_format": "channels_last", "filters": 2, "padding": "same", "strides": [1], "dilation_rate": [1], "kernel_regularizer": {"class_name": "L1L2", "config": {"l2": 2.9891174563090317e-05, "l1": 0.0}}, "bias_initializer": {"class_name": "Zeros", "config": {}}, "use_bias": false, "activity_regularizer": null, "kernel_size": [1]}, "inbound_nodes": [[["gated_activation_6_s3", 0, 0, {}]]], "name": "conv1d_73"}, {"class_name": "Add", "config": {"dtype": "float32", "trainable": true, "name": "add_37"}, "inbound_nodes": [[["dropout_36", 0, 0, {}], ["conv1d_73", 0, 0, {}]]], "name": "add_37"}, {"class_name": "Dropout", "config": {"name": "dropout_37", "dtype": "float32", "trainable": true, "rate": 0.020166839016, "seed": null, "noise_shape": null}, "inbound_nodes": [[["add_37", 0, 0, {}]]], "name": "dropout_37"}, {"class_name": "Conv1D", "config": {"kernel_initializer": {"class_name": "VarianceScaling", "config": {"distribution": "uniform", "scale": 1.0, "seed": null, "mode": "fan_avg"}}, "name": "dilated_conv_128_tanh_s3", "kernel_constraint": null, "bias_regularizer": null, "bias_constraint": null, "dtype": "float32", "activation": "tanh", "trainable": true, "data_format": "channels_last", "filters": 2, "padding": "same", "strides": [1], "dilation_rate": [128], "kernel_regularizer": {"class_name": "L1L2", "config": {"l2": 2.9891174563090317e-05, "l1": 0.0}}, "bias_initializer": {"class_name": "Zeros", "config": {}}, "use_bias": false, "activity_regularizer": null, "kernel_size": [2]}, "inbound_nodes": [[["dropout_37", 0, 0, {}]]], "name": "dilated_conv_128_tanh_s3"}, {"class_name": "Conv1D", "config": {"kernel_initializer": {"class_name": "VarianceScaling", "config": {"distribution": "uniform", "scale": 1.0, "seed": null, "mode": "fan_avg"}}, "name": "dilated_conv_128_sigm_s3", "kernel_constraint": null, "bias_regularizer": null, "bias_constraint": null, "dtype": "float32", "activation": "sigmoid", "trainable": true, "data_format": "channels_last", "filters": 2, "padding": "same", "strides": [1], "dilation_rate": [128], "kernel_regularizer": {"class_name": "L1L2", "config": {"l2": 2.9891174563090317e-05, "l1": 0.0}}, "bias_initializer": {"class_name": "Zeros", "config": {}}, "use_bias": false, "activity_regularizer": null, "kernel_size": [2]}, "inbound_nodes": [[["dropout_37", 0, 0, {}]]], "name": "dilated_conv_128_sigm_s3"}, {"class_name": "Multiply", "config": {"dtype": "float32", "trainable": true, "name": "gated_activation_7_s3"}, "inbound_nodes": [[["dilated_conv_128_tanh_s3", 0, 0, {}], ["dilated_conv_128_sigm_s3", 0, 0, {}]]], "name": "gated_activation_7_s3"}, {"class_name": "Conv1D", "config": {"kernel_initializer": {"class_name": "VarianceScaling", "config": {"distribution": "uniform", "scale": 1.0, "seed": null, "mode": "fan_avg"}}, "name": "conv1d_75", "kernel_constraint": null, "bias_regularizer": null, "bias_constraint": null, "dtype": "float32", "activation": "linear", "trainable": true, "data_format": "channels_last", "filters": 2, "padding": "same", "strides": [1], "dilation_rate": [1], "kernel_regularizer": {"class_name": "L1L2", "config": {"l2": 2.9891174563090317e-05, "l1": 0.0}}, "bias_initializer": {"class_name": "Zeros", "config": {}}, "use_bias": false, "activity_regularizer": null, "kernel_size": [1]}, "inbound_nodes": [[["gated_activation_7_s3", 0, 0, {}]]], "name": "conv1d_75"}, {"class_name": "Add", "config": {"dtype": "float32", "trainable": true, "name": "add_38"}, "inbound_nodes": [[["dropout_37", 0, 0, {}], ["conv1d_75", 0, 0, {}]]], "name": "add_38"}, {"class_name": "Dropout", "config": {"name": "dropout_38", "dtype": "float32", "trainable": true, "rate": 0.020166839016, "seed": null, "noise_shape": null}, "inbound_nodes": [[["add_38", 0, 0, {}]]], "name": "dropout_38"}, {"class_name": "Conv1D", "config": {"kernel_initializer": {"class_name": "VarianceScaling", "config": {"distribution": "uniform", "scale": 1.0, "seed": null, "mode": "fan_avg"}}, "name": "dilated_conv_256_tanh_s3", "kernel_constraint": null, "bias_regularizer": null, "bias_constraint": null, "dtype": "float32", "activation": "tanh", "trainable": true, "data_format": "channels_last", "filters": 2, "padding": "same", "strides": [1], "dilation_rate": [256], "kernel_regularizer": {"class_name": "L1L2", "config": {"l2": 2.9891174563090317e-05, "l1": 0.0}}, "bias_initializer": {"class_name": "Zeros", "config": {}}, "use_bias": false, "activity_regularizer": null, "kernel_size": [2]}, "inbound_nodes": [[["dropout_38", 0, 0, {}]]], "name": "dilated_conv_256_tanh_s3"}, {"class_name": "Conv1D", "config": {"kernel_initializer": {"class_name": "VarianceScaling", "config": {"distribution": "uniform", "scale": 1.0, "seed": null, "mode": "fan_avg"}}, "name": "dilated_conv_256_sigm_s3", "kernel_constraint": null, "bias_regularizer": null, "bias_constraint": null, "dtype": "float32", "activation": "sigmoid", "trainable": true, "data_format": "channels_last", "filters": 2, "padding": "same", "strides": [1], "dilation_rate": [256], "kernel_regularizer": {"class_name": "L1L2", "config": {"l2": 2.9891174563090317e-05, "l1": 0.0}}, "bias_initializer": {"class_name": "Zeros", "config": {}}, "use_bias": false, "activity_regularizer": null, "kernel_size": [2]}, "inbound_nodes": [[["dropout_38", 0, 0, {}]]], "name": "dilated_conv_256_sigm_s3"}, {"class_name": "Multiply", "config": {"dtype": "float32", "trainable": true, "name": "gated_activation_8_s3"}, "inbound_nodes": [[["dilated_conv_256_tanh_s3", 0, 0, {}], ["dilated_conv_256_sigm_s3", 0, 0, {}]]], "name": "gated_activation_8_s3"}, {"class_name": "Conv1D", "config": {"kernel_initializer": {"class_name": "VarianceScaling", "config": {"distribution": "uniform", "scale": 1.0, "seed": null, "mode": "fan_avg"}}, "name": "conv1d_77", "kernel_constraint": null, "bias_regularizer": null, "bias_constraint": null, "dtype": "float32", "activation": "linear", "trainable": true, "data_format": "channels_last", "filters": 2, "padding": "same", "strides": [1], "dilation_rate": [1], "kernel_regularizer": {"class_name": "L1L2", "config": {"l2": 2.9891174563090317e-05, "l1": 0.0}}, "bias_initializer": {"class_name": "Zeros", "config": {}}, "use_bias": false, "activity_regularizer": null, "kernel_size": [1]}, "inbound_nodes": [[["gated_activation_8_s3", 0, 0, {}]]], "name": "conv1d_77"}, {"class_name": "Add", "config": {"dtype": "float32", "trainable": true, "name": "add_39"}, "inbound_nodes": [[["dropout_38", 0, 0, {}], ["conv1d_77", 0, 0, {}]]], "name": "add_39"}, {"class_name": "Dropout", "config": {"name": "dropout_39", "dtype": "float32", "trainable": true, "rate": 0.020166839016, "seed": null, "noise_shape": null}, "inbound_nodes": [[["add_39", 0, 0, {}]]], "name": "dropout_39"}, {"class_name": "Conv1D", "config": {"kernel_initializer": {"class_name": "VarianceScaling", "config": {"distribution": "uniform", "scale": 1.0, "seed": null, "mode": "fan_avg"}}, "name": "dilated_conv_512_tanh_s3", "kernel_constraint": null, "bias_regularizer": null, "bias_constraint": null, "dtype": "float32", "activation": "tanh", "trainable": true, "data_format": "channels_last", "filters": 2, "padding": "same", "strides": [1], "dilation_rate": [512], "kernel_regularizer": {"class_name": "L1L2", "config": {"l2": 2.9891174563090317e-05, "l1": 0.0}}, "bias_initializer": {"class_name": "Zeros", "config": {}}, "use_bias": false, "activity_regularizer": null, "kernel_size": [2]}, "inbound_nodes": [[["dropout_39", 0, 0, {}]]], "name": "dilated_conv_512_tanh_s3"}, {"class_name": "Conv1D", "config": {"kernel_initializer": {"class_name": "VarianceScaling", "config": {"distribution": "uniform", "scale": 1.0, "seed": null, "mode": "fan_avg"}}, "name": "dilated_conv_512_sigm_s3", "kernel_constraint": null, "bias_regularizer": null, "bias_constraint": null, "dtype": "float32", "activation": "sigmoid", "trainable": true, "data_format": "channels_last", "filters": 2, "padding": "same", "strides": [1], "dilation_rate": [512], "kernel_regularizer": {"class_name": "L1L2", "config": {"l2": 2.9891174563090317e-05, "l1": 0.0}}, "bias_initializer": {"class_name": "Zeros", "config": {}}, "use_bias": false, "activity_regularizer": null, "kernel_size": [2]}, "inbound_nodes": [[["dropout_39", 0, 0, {}]]], "name": "dilated_conv_512_sigm_s3"}, {"class_name": "Multiply", "config": {"dtype": "float32", "trainable": true, "name": "gated_activation_9_s3"}, "inbound_nodes": [[["dilated_conv_512_tanh_s3", 0, 0, {}], ["dilated_conv_512_sigm_s3", 0, 0, {}]]], "name": "gated_activation_9_s3"}, {"class_name": "Conv1D", "config": {"kernel_initializer": {"class_name": "VarianceScaling", "config": {"distribution": "uniform", "scale": 1.0, "seed": null, "mode": "fan_avg"}}, "name": "conv1d_2", "kernel_constraint": null, "bias_regularizer": null, "bias_constraint": null, "dtype": "float32", "activation": "linear", "trainable": true, "data_format": "channels_last", "filters": 2, "padding": "same", "strides": [1], "dilation_rate": [1], "kernel_regularizer": {"class_name": "L1L2", "config": {"l2": 2.9891174563090317e-05, "l1": 0.0}}, "bias_initializer": {"class_name": "Zeros", "config": {}}, "use_bias": false, "activity_regularizer": null, "kernel_size": [1]}, "inbound_nodes": [[["gated_activation_0_s0", 0, 0, {}]]], "name": "conv1d_2"}, {"class_name": "Conv1D", "config": {"kernel_initializer": {"class_name": "VarianceScaling", "config": {"distribution": "uniform", "scale": 1.0, "seed": null, "mode": "fan_avg"}}, "name": "conv1d_4", "kernel_constraint": null, "bias_regularizer": null, "bias_constraint": null, "dtype": "float32", "activation": "linear", "trainable": true, "data_format": "channels_last", "filters": 2, "padding": "same", "strides": [1], "dilation_rate": [1], "kernel_regularizer": {"class_name": "L1L2", "config": {"l2": 2.9891174563090317e-05, "l1": 0.0}}, "bias_initializer": {"class_name": "Zeros", "config": {}}, "use_bias": false, "activity_regularizer": null, "kernel_size": [1]}, "inbound_nodes": [[["gated_activation_1_s0", 0, 0, {}]]], "name": "conv1d_4"}, {"class_name": "Conv1D", "config": {"kernel_initializer": {"class_name": "VarianceScaling", "config": {"distribution": "uniform", "scale": 1.0, "seed": null, "mode": "fan_avg"}}, "name": "conv1d_6", "kernel_constraint": null, "bias_regularizer": null, "bias_constraint": null, "dtype": "float32", "activation": "linear", "trainable": true, "data_format": "channels_last", "filters": 2, "padding": "same", "strides": [1], "dilation_rate": [1], "kernel_regularizer": {"class_name": "L1L2", "config": {"l2": 2.9891174563090317e-05, "l1": 0.0}}, "bias_initializer": {"class_name": "Zeros", "config": {}}, "use_bias": false, "activity_regularizer": null, "kernel_size": [1]}, "inbound_nodes": [[["gated_activation_2_s0", 0, 0, {}]]], "name": "conv1d_6"}, {"class_name": "Conv1D", "config": {"kernel_initializer": {"class_name": "VarianceScaling", "config": {"distribution": "uniform", "scale": 1.0, "seed": null, "mode": "fan_avg"}}, "name": "conv1d_8", "kernel_constraint": null, "bias_regularizer": null, "bias_constraint": null, "dtype": "float32", "activation": "linear", "trainable": true, "data_format": "channels_last", "filters": 2, "padding": "same", "strides": [1], "dilation_rate": [1], "kernel_regularizer": {"class_name": "L1L2", "config": {"l2": 2.9891174563090317e-05, "l1": 0.0}}, "bias_initializer": {"class_name": "Zeros", "config": {}}, "use_bias": false, "activity_regularizer": null, "kernel_size": [1]}, "inbound_nodes": [[["gated_activation_3_s0", 0, 0, {}]]], "name": "conv1d_8"}, {"class_name": "Conv1D", "config": {"kernel_initializer": {"class_name": "VarianceScaling", "config": {"distribution": "uniform", "scale": 1.0, "seed": null, "mode": "fan_avg"}}, "name": "conv1d_10", "kernel_constraint": null, "bias_regularizer": null, "bias_constraint": null, "dtype": "float32", "activation": "linear", "trainable": true, "data_format": "channels_last", "filters": 2, "padding": "same", "strides": [1], "dilation_rate": [1], "kernel_regularizer": {"class_name": "L1L2", "config": {"l2": 2.9891174563090317e-05, "l1": 0.0}}, "bias_initializer": {"class_name": "Zeros", "config": {}}, "use_bias": false, "activity_regularizer": null, "kernel_size": [1]}, "inbound_nodes": [[["gated_activation_4_s0", 0, 0, {}]]], "name": "conv1d_10"}, {"class_name": "Conv1D", "config": {"kernel_initializer": {"class_name": "VarianceScaling", "config": {"distribution": "uniform", "scale": 1.0, "seed": null, "mode": "fan_avg"}}, "name": "conv1d_12", "kernel_constraint": null, "bias_regularizer": null, "bias_constraint": null, "dtype": "float32", "activation": "linear", "trainable": true, "data_format": "channels_last", "filters": 2, "padding": "same", "strides": [1], "dilation_rate": [1], "kernel_regularizer": {"class_name": "L1L2", "config": {"l2": 2.9891174563090317e-05, "l1": 0.0}}, "bias_initializer": {"class_name": "Zeros", "config": {}}, "use_bias": false, "activity_regularizer": null, "kernel_size": [1]}, "inbound_nodes": [[["gated_activation_5_s0", 0, 0, {}]]], "name": "conv1d_12"}, {"class_name": "Conv1D", "config": {"kernel_initializer": {"class_name": "VarianceScaling", "config": {"distribution": "uniform", "scale": 1.0, "seed": null, "mode": "fan_avg"}}, "name": "conv1d_14", "kernel_constraint": null, "bias_regularizer": null, "bias_constraint": null, "dtype": "float32", "activation": "linear", "trainable": true, "data_format": "channels_last", "filters": 2, "padding": "same", "strides": [1], "dilation_rate": [1], "kernel_regularizer": {"class_name": "L1L2", "config": {"l2": 2.9891174563090317e-05, "l1": 0.0}}, "bias_initializer": {"class_name": "Zeros", "config": {}}, "use_bias": false, "activity_regularizer": null, "kernel_size": [1]}, "inbound_nodes": [[["gated_activation_6_s0", 0, 0, {}]]], "name": "conv1d_14"}, {"class_name": "Conv1D", "config": {"kernel_initializer": {"class_name": "VarianceScaling", "config": {"distribution": "uniform", "scale": 1.0, "seed": null, "mode": "fan_avg"}}, "name": "conv1d_16", "kernel_constraint": null, "bias_regularizer": null, "bias_constraint": null, "dtype": "float32", "activation": "linear", "trainable": true, "data_format": "channels_last", "filters": 2, "padding": "same", "strides": [1], "dilation_rate": [1], "kernel_regularizer": {"class_name": "L1L2", "config": {"l2": 2.9891174563090317e-05, "l1": 0.0}}, "bias_initializer": {"class_name": "Zeros", "config": {}}, "use_bias": false, "activity_regularizer": null, "kernel_size": [1]}, "inbound_nodes": [[["gated_activation_7_s0", 0, 0, {}]]], "name": "conv1d_16"}, {"class_name": "Conv1D", "config": {"kernel_initializer": {"class_name": "VarianceScaling", "config": {"distribution": "uniform", "scale": 1.0, "seed": null, "mode": "fan_avg"}}, "name": "conv1d_18", "kernel_constraint": null, "bias_regularizer": null, "bias_constraint": null, "dtype": "float32", "activation": "linear", "trainable": true, "data_format": "channels_last", "filters": 2, "padding": "same", "strides": [1], "dilation_rate": [1], "kernel_regularizer": {"class_name": "L1L2", "config": {"l2": 2.9891174563090317e-05, "l1": 0.0}}, "bias_initializer": {"class_name": "Zeros", "config": {}}, "use_bias": false, "activity_regularizer": null, "kernel_size": [1]}, "inbound_nodes": [[["gated_activation_8_s0", 0, 0, {}]]], "name": "conv1d_18"}, {"class_name": "Conv1D", "config": {"kernel_initializer": {"class_name": "VarianceScaling", "config": {"distribution": "uniform", "scale": 1.0, "seed": null, "mode": "fan_avg"}}, "name": "conv1d_20", "kernel_constraint": null, "bias_regularizer": null, "bias_constraint": null, "dtype": "float32", "activation": "linear", "trainable": true, "data_format": "channels_last", "filters": 2, "padding": "same", "strides": [1], "dilation_rate": [1], "kernel_regularizer": {"class_name": "L1L2", "config": {"l2": 2.9891174563090317e-05, "l1": 0.0}}, "bias_initializer": {"class_name": "Zeros", "config": {}}, "use_bias": false, "activity_regularizer": null, "kernel_size": [1]}, "inbound_nodes": [[["gated_activation_9_s0", 0, 0, {}]]], "name": "conv1d_20"}, {"class_name": "Conv1D", "config": {"kernel_initializer": {"class_name": "VarianceScaling", "config": {"distribution": "uniform", "scale": 1.0, "seed": null, "mode": "fan_avg"}}, "name": "conv1d_22", "kernel_constraint": null, "bias_regularizer": null, "bias_constraint": null, "dtype": "float32", "activation": "linear", "trainable": true, "data_format": "channels_last", "filters": 2, "padding": "same", "strides": [1], "dilation_rate": [1], "kernel_regularizer": {"class_name": "L1L2", "config": {"l2": 2.9891174563090317e-05, "l1": 0.0}}, "bias_initializer": {"class_name": "Zeros", "config": {}}, "use_bias": false, "activity_regularizer": null, "kernel_size": [1]}, "inbound_nodes": [[["gated_activation_0_s1", 0, 0, {}]]], "name": "conv1d_22"}, {"class_name": "Conv1D", "config": {"kernel_initializer": {"class_name": "VarianceScaling", "config": {"distribution": "uniform", "scale": 1.0, "seed": null, "mode": "fan_avg"}}, "name": "conv1d_24", "kernel_constraint": null, "bias_regularizer": null, "bias_constraint": null, "dtype": "float32", "activation": "linear", "trainable": true, "data_format": "channels_last", "filters": 2, "padding": "same", "strides": [1], "dilation_rate": [1], "kernel_regularizer": {"class_name": "L1L2", "config": {"l2": 2.9891174563090317e-05, "l1": 0.0}}, "bias_initializer": {"class_name": "Zeros", "config": {}}, "use_bias": false, "activity_regularizer": null, "kernel_size": [1]}, "inbound_nodes": [[["gated_activation_1_s1", 0, 0, {}]]], "name": "conv1d_24"}, {"class_name": "Conv1D", "config": {"kernel_initializer": {"class_name": "VarianceScaling", "config": {"distribution": "uniform", "scale": 1.0, "seed": null, "mode": "fan_avg"}}, "name": "conv1d_26", "kernel_constraint": null, "bias_regularizer": null, "bias_constraint": null, "dtype": "float32", "activation": "linear", "trainable": true, "data_format": "channels_last", "filters": 2, "padding": "same", "strides": [1], "dilation_rate": [1], "kernel_regularizer": {"class_name": "L1L2", "config": {"l2": 2.9891174563090317e-05, "l1": 0.0}}, "bias_initializer": {"class_name": "Zeros", "config": {}}, "use_bias": false, "activity_regularizer": null, "kernel_size": [1]}, "inbound_nodes": [[["gated_activation_2_s1", 0, 0, {}]]], "name": "conv1d_26"}, {"class_name": "Conv1D", "config": {"kernel_initializer": {"class_name": "VarianceScaling", "config": {"distribution": "uniform", "scale": 1.0, "seed": null, "mode": "fan_avg"}}, "name": "conv1d_28", "kernel_constraint": null, "bias_regularizer": null, "bias_constraint": null, "dtype": "float32", "activation": "linear", "trainable": true, "data_format": "channels_last", "filters": 2, "padding": "same", "strides": [1], "dilation_rate": [1], "kernel_regularizer": {"class_name": "L1L2", "config": {"l2": 2.9891174563090317e-05, "l1": 0.0}}, "bias_initializer": {"class_name": "Zeros", "config": {}}, "use_bias": false, "activity_regularizer": null, "kernel_size": [1]}, "inbound_nodes": [[["gated_activation_3_s1", 0, 0, {}]]], "name": "conv1d_28"}, {"class_name": "Conv1D", "config": {"kernel_initializer": {"class_name": "VarianceScaling", "config": {"distribution": "uniform", "scale": 1.0, "seed": null, "mode": "fan_avg"}}, "name": "conv1d_30", "kernel_constraint": null, "bias_regularizer": null, "bias_constraint": null, "dtype": "float32", "activation": "linear", "trainable": true, "data_format": "channels_last", "filters": 2, "padding": "same", "strides": [1], "dilation_rate": [1], "kernel_regularizer": {"class_name": "L1L2", "config": {"l2": 2.9891174563090317e-05, "l1": 0.0}}, "bias_initializer": {"class_name": "Zeros", "config": {}}, "use_bias": false, "activity_regularizer": null, "kernel_size": [1]}, "inbound_nodes": [[["gated_activation_4_s1", 0, 0, {}]]], "name": "conv1d_30"}, {"class_name": "Conv1D", "config": {"kernel_initializer": {"class_name": "VarianceScaling", "config": {"distribution": "uniform", "scale": 1.0, "seed": null, "mode": "fan_avg"}}, "name": "conv1d_32", "kernel_constraint": null, "bias_regularizer": null, "bias_constraint": null, "dtype": "float32", "activation": "linear", "trainable": true, "data_format": "channels_last", "filters": 2, "padding": "same", "strides": [1], "dilation_rate": [1], "kernel_regularizer": {"class_name": "L1L2", "config": {"l2": 2.9891174563090317e-05, "l1": 0.0}}, "bias_initializer": {"class_name": "Zeros", "config": {}}, "use_bias": false, "activity_regularizer": null, "kernel_size": [1]}, "inbound_nodes": [[["gated_activation_5_s1", 0, 0, {}]]], "name": "conv1d_32"}, {"class_name": "Conv1D", "config": {"kernel_initializer": {"class_name": "VarianceScaling", "config": {"distribution": "uniform", "scale": 1.0, "seed": null, "mode": "fan_avg"}}, "name": "conv1d_34", "kernel_constraint": null, "bias_regularizer": null, "bias_constraint": null, "dtype": "float32", "activation": "linear", "trainable": true, "data_format": "channels_last", "filters": 2, "padding": "same", "strides": [1], "dilation_rate": [1], "kernel_regularizer": {"class_name": "L1L2", "config": {"l2": 2.9891174563090317e-05, "l1": 0.0}}, "bias_initializer": {"class_name": "Zeros", "config": {}}, "use_bias": false, "activity_regularizer": null, "kernel_size": [1]}, "inbound_nodes": [[["gated_activation_6_s1", 0, 0, {}]]], "name": "conv1d_34"}, {"class_name": "Conv1D", "config": {"kernel_initializer": {"class_name": "VarianceScaling", "config": {"distribution": "uniform", "scale": 1.0, "seed": null, "mode": "fan_avg"}}, "name": "conv1d_36", "kernel_constraint": null, "bias_regularizer": null, "bias_constraint": null, "dtype": "float32", "activation": "linear", "trainable": true, "data_format": "channels_last", "filters": 2, "padding": "same", "strides": [1], "dilation_rate": [1], "kernel_regularizer": {"class_name": "L1L2", "config": {"l2": 2.9891174563090317e-05, "l1": 0.0}}, "bias_initializer": {"class_name": "Zeros", "config": {}}, "use_bias": false, "activity_regularizer": null, "kernel_size": [1]}, "inbound_nodes": [[["gated_activation_7_s1", 0, 0, {}]]], "name": "conv1d_36"}, {"class_name": "Conv1D", "config": {"kernel_initializer": {"class_name": "VarianceScaling", "config": {"distribution": "uniform", "scale": 1.0, "seed": null, "mode": "fan_avg"}}, "name": "conv1d_38", "kernel_constraint": null, "bias_regularizer": null, "bias_constraint": null, "dtype": "float32", "activation": "linear", "trainable": true, "data_format": "channels_last", "filters": 2, "padding": "same", "strides": [1], "dilation_rate": [1], "kernel_regularizer": {"class_name": "L1L2", "config": {"l2": 2.9891174563090317e-05, "l1": 0.0}}, "bias_initializer": {"class_name": "Zeros", "config": {}}, "use_bias": false, "activity_regularizer": null, "kernel_size": [1]}, "inbound_nodes": [[["gated_activation_8_s1", 0, 0, {}]]], "name": "conv1d_38"}, {"class_name": "Conv1D", "config": {"kernel_initializer": {"class_name": "VarianceScaling", "config": {"distribution": "uniform", "scale": 1.0, "seed": null, "mode": "fan_avg"}}, "name": "conv1d_40", "kernel_constraint": null, "bias_regularizer": null, "bias_constraint": null, "dtype": "float32", "activation": "linear", "trainable": true, "data_format": "channels_last", "filters": 2, "padding": "same", "strides": [1], "dilation_rate": [1], "kernel_regularizer": {"class_name": "L1L2", "config": {"l2": 2.9891174563090317e-05, "l1": 0.0}}, "bias_initializer": {"class_name": "Zeros", "config": {}}, "use_bias": false, "activity_regularizer": null, "kernel_size": [1]}, "inbound_nodes": [[["gated_activation_9_s1", 0, 0, {}]]], "name": "conv1d_40"}, {"class_name": "Conv1D", "config": {"kernel_initializer": {"class_name": "VarianceScaling", "config": {"distribution": "uniform", "scale": 1.0, "seed": null, "mode": "fan_avg"}}, "name": "conv1d_42", "kernel_constraint": null, "bias_regularizer": null, "bias_constraint": null, "dtype": "float32", "activation": "linear", "trainable": true, "data_format": "channels_last", "filters": 2, "padding": "same", "strides": [1], "dilation_rate": [1], "kernel_regularizer": {"class_name": "L1L2", "config": {"l2": 2.9891174563090317e-05, "l1": 0.0}}, "bias_initializer": {"class_name": "Zeros", "config": {}}, "use_bias": false, "activity_regularizer": null, "kernel_size": [1]}, "inbound_nodes": [[["gated_activation_0_s2", 0, 0, {}]]], "name": "conv1d_42"}, {"class_name": "Conv1D", "config": {"kernel_initializer": {"class_name": "VarianceScaling", "config": {"distribution": "uniform", "scale": 1.0, "seed": null, "mode": "fan_avg"}}, "name": "conv1d_44", "kernel_constraint": null, "bias_regularizer": null, "bias_constraint": null, "dtype": "float32", "activation": "linear", "trainable": true, "data_format": "channels_last", "filters": 2, "padding": "same", "strides": [1], "dilation_rate": [1], "kernel_regularizer": {"class_name": "L1L2", "config": {"l2": 2.9891174563090317e-05, "l1": 0.0}}, "bias_initializer": {"class_name": "Zeros", "config": {}}, "use_bias": false, "activity_regularizer": null, "kernel_size": [1]}, "inbound_nodes": [[["gated_activation_1_s2", 0, 0, {}]]], "name": "conv1d_44"}, {"class_name": "Conv1D", "config": {"kernel_initializer": {"class_name": "VarianceScaling", "config": {"distribution": "uniform", "scale": 1.0, "seed": null, "mode": "fan_avg"}}, "name": "conv1d_46", "kernel_constraint": null, "bias_regularizer": null, "bias_constraint": null, "dtype": "float32", "activation": "linear", "trainable": true, "data_format": "channels_last", "filters": 2, "padding": "same", "strides": [1], "dilation_rate": [1], "kernel_regularizer": {"class_name": "L1L2", "config": {"l2": 2.9891174563090317e-05, "l1": 0.0}}, "bias_initializer": {"class_name": "Zeros", "config": {}}, "use_bias": false, "activity_regularizer": null, "kernel_size": [1]}, "inbound_nodes": [[["gated_activation_2_s2", 0, 0, {}]]], "name": "conv1d_46"}, {"class_name": "Conv1D", "config": {"kernel_initializer": {"class_name": "VarianceScaling", "config": {"distribution": "uniform", "scale": 1.0, "seed": null, "mode": "fan_avg"}}, "name": "conv1d_48", "kernel_constraint": null, "bias_regularizer": null, "bias_constraint": null, "dtype": "float32", "activation": "linear", "trainable": true, "data_format": "channels_last", "filters": 2, "padding": "same", "strides": [1], "dilation_rate": [1], "kernel_regularizer": {"class_name": "L1L2", "config": {"l2": 2.9891174563090317e-05, "l1": 0.0}}, "bias_initializer": {"class_name": "Zeros", "config": {}}, "use_bias": false, "activity_regularizer": null, "kernel_size": [1]}, "inbound_nodes": [[["gated_activation_3_s2", 0, 0, {}]]], "name": "conv1d_48"}, {"class_name": "Conv1D", "config": {"kernel_initializer": {"class_name": "VarianceScaling", "config": {"distribution": "uniform", "scale": 1.0, "seed": null, "mode": "fan_avg"}}, "name": "conv1d_50", "kernel_constraint": null, "bias_regularizer": null, "bias_constraint": null, "dtype": "float32", "activation": "linear", "trainable": true, "data_format": "channels_last", "filters": 2, "padding": "same", "strides": [1], "dilation_rate": [1], "kernel_regularizer": {"class_name": "L1L2", "config": {"l2": 2.9891174563090317e-05, "l1": 0.0}}, "bias_initializer": {"class_name": "Zeros", "config": {}}, "use_bias": false, "activity_regularizer": null, "kernel_size": [1]}, "inbound_nodes": [[["gated_activation_4_s2", 0, 0, {}]]], "name": "conv1d_50"}, {"class_name": "Conv1D", "config": {"kernel_initializer": {"class_name": "VarianceScaling", "config": {"distribution": "uniform", "scale": 1.0, "seed": null, "mode": "fan_avg"}}, "name": "conv1d_52", "kernel_constraint": null, "bias_regularizer": null, "bias_constraint": null, "dtype": "float32", "activation": "linear", "trainable": true, "data_format": "channels_last", "filters": 2, "padding": "same", "strides": [1], "dilation_rate": [1], "kernel_regularizer": {"class_name": "L1L2", "config": {"l2": 2.9891174563090317e-05, "l1": 0.0}}, "bias_initializer": {"class_name": "Zeros", "config": {}}, "use_bias": false, "activity_regularizer": null, "kernel_size": [1]}, "inbound_nodes": [[["gated_activation_5_s2", 0, 0, {}]]], "name": "conv1d_52"}, {"class_name": "Conv1D", "config": {"kernel_initializer": {"class_name": "VarianceScaling", "config": {"distribution": "uniform", "scale": 1.0, "seed": null, "mode": "fan_avg"}}, "name": "conv1d_54", "kernel_constraint": null, "bias_regularizer": null, "bias_constraint": null, "dtype": "float32", "activation": "linear", "trainable": true, "data_format": "channels_last", "filters": 2, "padding": "same", "strides": [1], "dilation_rate": [1], "kernel_regularizer": {"class_name": "L1L2", "config": {"l2": 2.9891174563090317e-05, "l1": 0.0}}, "bias_initializer": {"class_name": "Zeros", "config": {}}, "use_bias": false, "activity_regularizer": null, "kernel_size": [1]}, "inbound_nodes": [[["gated_activation_6_s2", 0, 0, {}]]], "name": "conv1d_54"}, {"class_name": "Conv1D", "config": {"kernel_initializer": {"class_name": "VarianceScaling", "config": {"distribution": "uniform", "scale": 1.0, "seed": null, "mode": "fan_avg"}}, "name": "conv1d_56", "kernel_constraint": null, "bias_regularizer": null, "bias_constraint": null, "dtype": "float32", "activation": "linear", "trainable": true, "data_format": "channels_last", "filters": 2, "padding": "same", "strides": [1], "dilation_rate": [1], "kernel_regularizer": {"class_name": "L1L2", "config": {"l2": 2.9891174563090317e-05, "l1": 0.0}}, "bias_initializer": {"class_name": "Zeros", "config": {}}, "use_bias": false, "activity_regularizer": null, "kernel_size": [1]}, "inbound_nodes": [[["gated_activation_7_s2", 0, 0, {}]]], "name": "conv1d_56"}, {"class_name": "Conv1D", "config": {"kernel_initializer": {"class_name": "VarianceScaling", "config": {"distribution": "uniform", "scale": 1.0, "seed": null, "mode": "fan_avg"}}, "name": "conv1d_58", "kernel_constraint": null, "bias_regularizer": null, "bias_constraint": null, "dtype": "float32", "activation": "linear", "trainable": true, "data_format": "channels_last", "filters": 2, "padding": "same", "strides": [1], "dilation_rate": [1], "kernel_regularizer": {"class_name": "L1L2", "config": {"l2": 2.9891174563090317e-05, "l1": 0.0}}, "bias_initializer": {"class_name": "Zeros", "config": {}}, "use_bias": false, "activity_regularizer": null, "kernel_size": [1]}, "inbound_nodes": [[["gated_activation_8_s2", 0, 0, {}]]], "name": "conv1d_58"}, {"class_name": "Conv1D", "config": {"kernel_initializer": {"class_name": "VarianceScaling", "config": {"distribution": "uniform", "scale": 1.0, "seed": null, "mode": "fan_avg"}}, "name": "conv1d_60", "kernel_constraint": null, "bias_regularizer": null, "bias_constraint": null, "dtype": "float32", "activation": "linear", "trainable": true, "data_format": "channels_last", "filters": 2, "padding": "same", "strides": [1], "dilation_rate": [1], "kernel_regularizer": {"class_name": "L1L2", "config": {"l2": 2.9891174563090317e-05, "l1": 0.0}}, "bias_initializer": {"class_name": "Zeros", "config": {}}, "use_bias": false, "activity_regularizer": null, "kernel_size": [1]}, "inbound_nodes": [[["gated_activation_9_s2", 0, 0, {}]]], "name": "conv1d_60"}, {"class_name": "Conv1D", "config": {"kernel_initializer": {"class_name": "VarianceScaling", "config": {"distribution": "uniform", "scale": 1.0, "seed": null, "mode": "fan_avg"}}, "name": "conv1d_62", "kernel_constraint": null, "bias_regularizer": null, "bias_constraint": null, "dtype": "float32", "activation": "linear", "trainable": true, "data_format": "channels_last", "filters": 2, "padding": "same", "strides": [1], "dilation_rate": [1], "kernel_regularizer": {"class_name": "L1L2", "config": {"l2": 2.9891174563090317e-05, "l1": 0.0}}, "bias_initializer": {"class_name": "Zeros", "config": {}}, "use_bias": false, "activity_regularizer": null, "kernel_size": [1]}, "inbound_nodes": [[["gated_activation_0_s3", 0, 0, {}]]], "name": "conv1d_62"}, {"class_name": "Conv1D", "config": {"kernel_initializer": {"class_name": "VarianceScaling", "config": {"distribution": "uniform", "scale": 1.0, "seed": null, "mode": "fan_avg"}}, "name": "conv1d_64", "kernel_constraint": null, "bias_regularizer": null, "bias_constraint": null, "dtype": "float32", "activation": "linear", "trainable": true, "data_format": "channels_last", "filters": 2, "padding": "same", "strides": [1], "dilation_rate": [1], "kernel_regularizer": {"class_name": "L1L2", "config": {"l2": 2.9891174563090317e-05, "l1": 0.0}}, "bias_initializer": {"class_name": "Zeros", "config": {}}, "use_bias": false, "activity_regularizer": null, "kernel_size": [1]}, "inbound_nodes": [[["gated_activation_1_s3", 0, 0, {}]]], "name": "conv1d_64"}, {"class_name": "Conv1D", "config": {"kernel_initializer": {"class_name": "VarianceScaling", "config": {"distribution": "uniform", "scale": 1.0, "seed": null, "mode": "fan_avg"}}, "name": "conv1d_66", "kernel_constraint": null, "bias_regularizer": null, "bias_constraint": null, "dtype": "float32", "activation": "linear", "trainable": true, "data_format": "channels_last", "filters": 2, "padding": "same", "strides": [1], "dilation_rate": [1], "kernel_regularizer": {"class_name": "L1L2", "config": {"l2": 2.9891174563090317e-05, "l1": 0.0}}, "bias_initializer": {"class_name": "Zeros", "config": {}}, "use_bias": false, "activity_regularizer": null, "kernel_size": [1]}, "inbound_nodes": [[["gated_activation_2_s3", 0, 0, {}]]], "name": "conv1d_66"}, {"class_name": "Conv1D", "config": {"kernel_initializer": {"class_name": "VarianceScaling", "config": {"distribution": "uniform", "scale": 1.0, "seed": null, "mode": "fan_avg"}}, "name": "conv1d_68", "kernel_constraint": null, "bias_regularizer": null, "bias_constraint": null, "dtype": "float32", "activation": "linear", "trainable": true, "data_format": "channels_last", "filters": 2, "padding": "same", "strides": [1], "dilation_rate": [1], "kernel_regularizer": {"class_name": "L1L2", "config": {"l2": 2.9891174563090317e-05, "l1": 0.0}}, "bias_initializer": {"class_name": "Zeros", "config": {}}, "use_bias": false, "activity_regularizer": null, "kernel_size": [1]}, "inbound_nodes": [[["gated_activation_3_s3", 0, 0, {}]]], "name": "conv1d_68"}, {"class_name": "Conv1D", "config": {"kernel_initializer": {"class_name": "VarianceScaling", "config": {"distribution": "uniform", "scale": 1.0, "seed": null, "mode": "fan_avg"}}, "name": "conv1d_70", "kernel_constraint": null, "bias_regularizer": null, "bias_constraint": null, "dtype": "float32", "activation": "linear", "trainable": true, "data_format": "channels_last", "filters": 2, "padding": "same", "strides": [1], "dilation_rate": [1], "kernel_regularizer": {"class_name": "L1L2", "config": {"l2": 2.9891174563090317e-05, "l1": 0.0}}, "bias_initializer": {"class_name": "Zeros", "config": {}}, "use_bias": false, "activity_regularizer": null, "kernel_size": [1]}, "inbound_nodes": [[["gated_activation_4_s3", 0, 0, {}]]], "name": "conv1d_70"}, {"class_name": "Conv1D", "config": {"kernel_initializer": {"class_name": "VarianceScaling", "config": {"distribution": "uniform", "scale": 1.0, "seed": null, "mode": "fan_avg"}}, "name": "conv1d_72", "kernel_constraint": null, "bias_regularizer": null, "bias_constraint": null, "dtype": "float32", "activation": "linear", "trainable": true, "data_format": "channels_last", "filters": 2, "padding": "same", "strides": [1], "dilation_rate": [1], "kernel_regularizer": {"class_name": "L1L2", "config": {"l2": 2.9891174563090317e-05, "l1": 0.0}}, "bias_initializer": {"class_name": "Zeros", "config": {}}, "use_bias": false, "activity_regularizer": null, "kernel_size": [1]}, "inbound_nodes": [[["gated_activation_5_s3", 0, 0, {}]]], "name": "conv1d_72"}, {"class_name": "Conv1D", "config": {"kernel_initializer": {"class_name": "VarianceScaling", "config": {"distribution": "uniform", "scale": 1.0, "seed": null, "mode": "fan_avg"}}, "name": "conv1d_74", "kernel_constraint": null, "bias_regularizer": null, "bias_constraint": null, "dtype": "float32", "activation": "linear", "trainable": true, "data_format": "channels_last", "filters": 2, "padding": "same", "strides": [1], "dilation_rate": [1], "kernel_regularizer": {"class_name": "L1L2", "config": {"l2": 2.9891174563090317e-05, "l1": 0.0}}, "bias_initializer": {"class_name": "Zeros", "config": {}}, "use_bias": false, "activity_regularizer": null, "kernel_size": [1]}, "inbound_nodes": [[["gated_activation_6_s3", 0, 0, {}]]], "name": "conv1d_74"}, {"class_name": "Conv1D", "config": {"kernel_initializer": {"class_name": "VarianceScaling", "config": {"distribution": "uniform", "scale": 1.0, "seed": null, "mode": "fan_avg"}}, "name": "conv1d_76", "kernel_constraint": null, "bias_regularizer": null, "bias_constraint": null, "dtype": "float32", "activation": "linear", "trainable": true, "data_format": "channels_last", "filters": 2, "padding": "same", "strides": [1], "dilation_rate": [1], "kernel_regularizer": {"class_name": "L1L2", "config": {"l2": 2.9891174563090317e-05, "l1": 0.0}}, "bias_initializer": {"class_name": "Zeros", "config": {}}, "use_bias": false, "activity_regularizer": null, "kernel_size": [1]}, "inbound_nodes": [[["gated_activation_7_s3", 0, 0, {}]]], "name": "conv1d_76"}, {"class_name": "Conv1D", "config": {"kernel_initializer": {"class_name": "VarianceScaling", "config": {"distribution": "uniform", "scale": 1.0, "seed": null, "mode": "fan_avg"}}, "name": "conv1d_78", "kernel_constraint": null, "bias_regularizer": null, "bias_constraint": null, "dtype": "float32", "activation": "linear", "trainable": true, "data_format": "channels_last", "filters": 2, "padding": "same", "strides": [1], "dilation_rate": [1], "kernel_regularizer": {"class_name": "L1L2", "config": {"l2": 2.9891174563090317e-05, "l1": 0.0}}, "bias_initializer": {"class_name": "Zeros", "config": {}}, "use_bias": false, "activity_regularizer": null, "kernel_size": [1]}, "inbound_nodes": [[["gated_activation_8_s3", 0, 0, {}]]], "name": "conv1d_78"}, {"class_name": "Conv1D", "config": {"kernel_initializer": {"class_name": "VarianceScaling", "config": {"distribution": "uniform", "scale": 1.0, "seed": null, "mode": "fan_avg"}}, "name": "conv1d_80", "kernel_constraint": null, "bias_regularizer": null, "bias_constraint": null, "dtype": "float32", "activation": "linear", "trainable": true, "data_format": "channels_last", "filters": 2, "padding": "same", "strides": [1], "dilation_rate": [1], "kernel_regularizer": {"class_name": "L1L2", "config": {"l2": 2.9891174563090317e-05, "l1": 0.0}}, "bias_initializer": {"class_name": "Zeros", "config": {}}, "use_bias": false, "activity_regularizer": null, "kernel_size": [1]}, "inbound_nodes": [[["gated_activation_9_s3", 0, 0, {}]]], "name": "conv1d_80"}, {"class_name": "Add", "config": {"dtype": "float32", "trainable": true, "name": "add_41"}, "inbound_nodes": [[["conv1d_2", 0, 0, {}], ["conv1d_4", 0, 0, {}], ["conv1d_6", 0, 0, {}], ["conv1d_8", 0, 0, {}], ["conv1d_10", 0, 0, {}], ["conv1d_12", 0, 0, {}], ["conv1d_14", 0, 0, {}], ["conv1d_16", 0, 0, {}], ["conv1d_18", 0, 0, {}], ["conv1d_20", 0, 0, {}], ["conv1d_22", 0, 0, {}], ["conv1d_24", 0, 0, {}], ["conv1d_26", 0, 0, {}], ["conv1d_28", 0, 0, {}], ["conv1d_30", 0, 0, {}], ["conv1d_32", 0, 0, {}], ["conv1d_34", 0, 0, {}], ["conv1d_36", 0, 0, {}], ["conv1d_38", 0, 0, {}], ["conv1d_40", 0, 0, {}], ["conv1d_42", 0, 0, {}], ["conv1d_44", 0, 0, {}], ["conv1d_46", 0, 0, {}], ["conv1d_48", 0, 0, {}], ["conv1d_50", 0, 0, {}], ["conv1d_52", 0, 0, {}], ["conv1d_54", 0, 0, {}], ["conv1d_56", 0, 0, {}], ["conv1d_58", 0, 0, {}], ["conv1d_60", 0, 0, {}], ["conv1d_62", 0, 0, {}], ["conv1d_64", 0, 0, {}], ["conv1d_66", 0, 0, {}], ["conv1d_68", 0, 0, {}], ["conv1d_70", 0, 0, {}], ["conv1d_72", 0, 0, {}], ["conv1d_74", 0, 0, {}], ["conv1d_76", 0, 0, {}], ["conv1d_78", 0, 0, {}], ["conv1d_80", 0, 0, {}]]], "name": "add_41"}, {"class_name": "BatchNormalization", "config": {"beta_constraint": null, "gamma_initializer": {"class_name": "Ones", "config": {}}, "moving_mean_initializer": {"class_name": "Zeros", "config": {}}, "name": "batch_normalization_3", "dtype": "float32", "trainable": true, "moving_variance_initializer": {"class_name": "Ones", "config": {}}, "beta_initializer": {"class_name": "Zeros", "config": {}}, "scale": true, "axis": -1, "epsilon": 0.001, "gamma_constraint": null, "gamma_regularizer": null, "beta_regularizer": null, "momentum": 0.99, "center": true}, "inbound_nodes": [[["add_41", 0, 0, {}]]], "name": "batch_normalization_3"}, {"class_name": "Activation", "config": {"dtype": "float32", "activation": "relu", "trainable": true, "name": "activation_3"}, "inbound_nodes": [[["batch_normalization_3", 0, 0, {}]]], "name": "activation_3"}, {"class_name": "Dropout", "config": {"name": "last_shared_layer", "dtype": "float32", "trainable": true, "rate": 0.0192610779513, "seed": null, "noise_shape": null}, "inbound_nodes": [[["activation_3", 0, 0, {}]]], "name": "last_shared_layer"}, {"class_name": "Conv1D", "config": {"kernel_initializer": {"class_name": "VarianceScaling", "config": {"distribution": "uniform", "scale": 1.0, "seed": null, "mode": "fan_avg"}}, "name": "conv1d_81", "kernel_constraint": null, "bias_regularizer": null, "bias_constraint": null, "dtype": "float32", "activation": "linear", "trainable": true, "data_format": "channels_last", "filters": 5, "padding": "same", "strides": [1], "dilation_rate": [1], "kernel_regularizer": {"class_name": "L1L2", "config": {"l2": 5.637589856632985e-05, "l1": 0.0}}, "bias_initializer": {"class_name": "Zeros", "config": {}}, "use_bias": true, "activity_regularizer": null, "kernel_size": [1]}, "inbound_nodes": [[["last_shared_layer", 0, 0, {}]]], "name": "conv1d_81"}, {"class_name": "Conv1D", "config": {"kernel_initializer": {"class_name": "VarianceScaling", "config": {"distribution": "uniform", "scale": 1.0, "seed": null, "mode": "fan_avg"}}, "name": "conv1d_83", "kernel_constraint": null, "bias_regularizer": null, "bias_constraint": null, "dtype": "float32", "activation": "linear", "trainable": true, "data_format": "channels_last", "filters": 9, "padding": "same", "strides": [1], "dilation_rate": [1], "kernel_regularizer": {"class_name": "L1L2", "config": {"l2": 5.637589856632985e-05, "l1": 0.0}}, "bias_initializer": {"class_name": "Zeros", "config": {}}, "use_bias": true, "activity_regularizer": null, "kernel_size": [1]}, "inbound_nodes": [[["last_shared_layer", 0, 0, {}]]], "name": "conv1d_83"}, {"class_name": "BatchNormalization", "config": {"beta_constraint": null, "gamma_initializer": {"class_name": "Ones", "config": {}}, "moving_mean_initializer": {"class_name": "Zeros", "config": {}}, "name": "batch_normalization_4", "dtype": "float32", "trainable": true, "moving_variance_initializer": {"class_name": "Ones", "config": {}}, "beta_initializer": {"class_name": "Zeros", "config": {}}, "scale": true, "axis": -1, "epsilon": 0.001, "gamma_constraint": null, "gamma_regularizer": null, "beta_regularizer": null, "momentum": 0.99, "center": true}, "inbound_nodes": [[["conv1d_81", 0, 0, {}]]], "name": "batch_normalization_4"}, {"class_name": "BatchNormalization", "config": {"beta_constraint": null, "gamma_initializer": {"class_name": "Ones", "config": {}}, "moving_mean_initializer": {"class_name": "Zeros", "config": {}}, "name": "batch_normalization_5", "dtype": "float32", "trainable": true, "moving_variance_initializer": {"class_name": "Ones", "config": {}}, "beta_initializer": {"class_name": "Zeros", "config": {}}, "scale": true, "axis": -1, "epsilon": 0.001, "gamma_constraint": null, "gamma_regularizer": null, "beta_regularizer": null, "momentum": 0.99, "center": true}, "inbound_nodes": [[["conv1d_83", 0, 0, {}]]], "name": "batch_normalization_5"}, {"class_name": "Activation", "config": {"dtype": "float32", "activation": "relu", "trainable": true, "name": "activation_4"}, "inbound_nodes": [[["batch_normalization_4", 0, 0, {}]]], "name": "activation_4"}, {"class_name": "Activation", "config": {"dtype": "float32", "activation": "relu", "trainable": true, "name": "activation_5"}, "inbound_nodes": [[["batch_normalization_5", 0, 0, {}]]], "name": "activation_5"}, {"class_name": "Dropout", "config": {"name": "dropout_41", "dtype": "float32", "trainable": true, "rate": 0.0192610779513, "seed": null, "noise_shape": null}, "inbound_nodes": [[["activation_4", 0, 0, {}]]], "name": "dropout_41"}, {"class_name": "Dropout", "config": {"name": "dropout_42", "dtype": "float32", "trainable": true, "rate": 0.0192610779513, "seed": null, "noise_shape": null}, "inbound_nodes": [[["activation_5", 0, 0, {}]]], "name": "dropout_42"}, {"class_name": "Conv1D", "config": {"kernel_initializer": {"class_name": "VarianceScaling", "config": {"distribution": "uniform", "scale": 1.0, "seed": null, "mode": "fan_avg"}}, "name": "conv1d_82", "kernel_constraint": null, "bias_regularizer": null, "bias_constraint": null, "dtype": "float32", "activation": "linear", "trainable": true, "data_format": "channels_last", "filters": 5, "padding": "same", "strides": [1], "dilation_rate": [1], "kernel_regularizer": null, "bias_initializer": {"class_name": "Zeros", "config": {}}, "use_bias": true, "activity_regularizer": null, "kernel_size": [1]}, "inbound_nodes": [[["dropout_41", 0, 0, {}]]], "name": "conv1d_82"}, {"class_name": "Conv1D", "config": {"kernel_initializer": {"class_name": "VarianceScaling", "config": {"distribution": "uniform", "scale": 1.0, "seed": null, "mode": "fan_avg"}}, "name": "conv1d_84", "kernel_constraint": null, "bias_regularizer": null, "bias_constraint": null, "dtype": "float32", "activation": "linear", "trainable": true, "data_format": "channels_last", "filters": 9, "padding": "same", "strides": [1], "dilation_rate": [1], "kernel_regularizer": null, "bias_initializer": {"class_name": "Zeros", "config": {}}, "use_bias": true, "activity_regularizer": null, "kernel_size": [1]}, "inbound_nodes": [[["dropout_42", 0, 0, {}]]], "name": "conv1d_84"}, {"class_name": "Activation", "config": {"dtype": "float32", "activation": "softmax", "trainable": true, "name": "output_softmax_0"}, "inbound_nodes": [[["conv1d_82", 0, 0, {}]]], "name": "output_softmax_0"}, {"class_name": "Activation", "config": {"dtype": "float32", "activation": "softmax", "trainable": true, "name": "output_softmax_1"}, "inbound_nodes": [[["conv1d_84", 0, 0, {}]]], "name": "output_softmax_1"}], "input_layers": [["input_part", 0, 0]], "output_layers": [["output_softmax_0", 0, 0], ["output_softmax_1", 0, 0]], "name": "model_1"}, "backend": "tensorflow"}